src/jupyter/GCN_best_f1_sage_model_weights.pth (torch, 598009 bytes, 23 tensors)

convs.0.lin_l.weight f4 [128, 183]
000000 72 1a 54 3b f2 26 1d bd ea 77 69 3c 00 5d 13 3d
       0.0032364395 -0.03836722 0.014249781 0.035977364
000010 0c 66 bb bc bc cd ad bd f0 44 cd 3d 94 5e 2c be
       -0.022875808 -0.08486506 0.100229144 -0.16832954
000020 13 5c 57 bd c0 c4 39 bd 63 52 0d 3c e4 92 48 bd
       -0.052578043 -0.04535365 0.0086256 -0.04896821
000030 45 04 2b bd 4c e2 57 3d 0d 4e f3 bd 64 58 7c 3c
       -0.04175212 0.052706048 -0.118801214 0.015401933
000040 4c 34 95 3d e2 a9 e0 3c 12 5c 09 3d fe f5 1b 3d
       0.072853655 0.027424756 0.03353507 0.038076393
000050 e4 75 21 bd f1 b8 fe bc 4b e5 89 bd 91 90 0e bd
       -0.03941907 -0.031094046 -0.06733187 -0.034805838
000060 d2 e8 e5 bc 8e c4 b4 3b d0 9c 89 bc 9a 26 75 3c
       -0.028065119 0.005516595 -0.016798407 0.014962817
000070 e5 35 c8 bb 24 63 88 3c 73 c5 ef bc 7e 15 06 bd
       -0.0061099404 0.016648836 -0.029268956 -0.03273534
000080 49 0c c4 bb 16 38 11 bd 57 e8 45 bd c1 4b 25 3d
       -0.00598291 -0.03545388 -0.04831728 0.040355448
000090 43 1d 55 3d 18 50 b8 ba d0 36 b4 3b 19 6e 58 bd
       0.05202986 -0.0014061956 0.005499698 -0.052839372
0000a0 4c 28 d8 3c ea 6e 1f 3d f3 cb be 3d 01 8e 6e bd
       0.026386403 0.038924135 0.09316244 -0.058240894
0000b0 db dc 77 bd ed c7 23 3d 3c 21 17 bc a3 ba 34 3d
       -0.06051336 0.039985586 -0.009224232 0.044123303
0000c0 35 5c c2 3c 93 b3 66 3c 64 ec ce bd 5b a3 68 3d
       0.023725608 0.0140809 -0.10103682 0.056796413
0000d0 2b 1e dc bc 0f 7a a9 bd 42 e6 43 bd a9 6a 4c 3c
       -0.026869854 -0.08275234 -0.047827013 0.012476602
0000e0 99 ff f7 3c e3 8b 4b 3c 4a 79 2e bd ca b1 fa bb
       0.030273246 0.012423488 -0.04259614 -0.0076505886
0000f0 d5 a5 48 bd 24 a6 28 bd a4 d8 e2 3b 4e 75 ca 3d
       -0.048986275 -0.04117407 0.006922798 0.09885655
000100 ad 08 ae bd 20 1c 4e bd 7c b5 ff bc d4 64 72 bd
       -0.084977485 -0.05031979 -0.031214468 -0.05917819
000110 cd 42 a7 bb d6 37 bd ba c4 92 7c bb b8 e2 5d be
       -0.005104399 -0.0014436196 -0.0038539628 -0.21668518
000120 e3 c9 07 be d0 3f bc bd ac 03 8c bc 2f 85 2f bd
       -0.13260607 -0.09191859 -0.017091595 -0.042851623
000130 4e d7 a5 bd ff 08 3b 3b 95 43 45 bd 19 1c a7 bc
       -0.08097707 0.0028539298 -0.048160154 -0.02039914
000140 da 99 69 bd 5c 87 9f bd e5 df 14 be d8 39 af 3c
       -0.05703149 -0.077894896 -0.14538534 0.021389887
000150 1b 9c 60 3c 53 c8 27 3d 29 6c 2b 3d 87 f1 4c bc
       0.013709093 0.04096253 0.041851196 -0.0125087565
000160 4a 32 ae 3c b9 12 8c bb 8d 83 12 3b e5 eb 6d bd
       0.021264214 -0.004274693 0.0022356242 -0.058086295
000170 7d a3 c3 3c a8 61 6e bc 9f d7 d1 3c d4 7c a4 bc
       0.023881668 -0.01454965 0.025615511 -0.020079054
000180 69 47 01 be 5e 5b 77 3c f6 07 b7 bd 04 8d 53 3d
       -0.12624897 0.015097467 -0.08937065 0.051648155
000190 28 f2 3c bd b6 ae ba 3b 93 97 12 3d e6 6c 6c 3d
       -0.046129376 0.0056970967 0.035789084 0.05772104
0001a0 49 54 57 3d b7 79 15 3c b8 dd 25 bd e6 e1 8d 3d
       0.052570615 0.009123257 -0.04049465 0.06927852
0001b0 7d 8a 56 3d 74 14 f0 bc 5e fc 4d 3d 90 06 05 3c
       0.052378166 -0.029306628 0.050289504 0.00811924
0001c0 4c 46 81 3d 6c 89 2a bd d2 52 8a bd 5e 5b 61 bc
       0.06312236 -0.041634962 -0.06754078 -0.013754694
0001d0 62 fb f0 3c 87 37 7c bd c5 78 f9 3c 0f 21 6f bd
       0.029416744 -0.061576393 0.030453095 -0.058381137
0001e0 21 84 22 bd ba a4 dd 3b 61 61 ed bc 8b b6 e5 3c
       -0.03967679 0.0067640217 -0.028977098 0.028041145
0001f0 fb 29 84 3d 4b c7 b5 bc 3c 1c 35 3d c9 26 15 3d
       0.0645332 -0.022189757 0.04421638 0.03641394
000200 a5 ad 6b bd b3 83 f8 3c c0 1f 54 bd cb 30 1e 3d
       -0.057538647 0.030336237 -0.05178809 0.03862075
000210 44 eb 5f 3c 95 c2 43 3b ea 75 07 bd 80 7f 80 3c
       0.013666932 0.0029870619 -0.033071436 0.015685797
000220 ee 6c 28 3d b3 94 0b 3d 98 21 9c bd dd 46 20 3c
       0.04111951 0.034077358 -0.07623595 0.00978252
000230 59 c1 19 bd 19 1a 11 bd 35 ce 00 bc df ec 2e bd
       -0.037537906 -0.03542528 -0.007861664 -0.042706367
000240 44 fc 3b 3d a6 32 e5 3c d1 fd 0b bc 87 0b f4 3b
       0.045894876 0.027978253 -0.008544401 0.007447663
000250 91 f6 3e 3c 4b 58 9a 3d b6 a3 ec 3c ea 56 36 bd
       0.011655466 0.07536372 0.028886657 -0.04451648
000260 a3 81 43 3d da f9 94 3d fb 47 73 3d 1b 06 d3 bc
       0.047731053 0.07274218 0.059394818 -0.025759747
000270 ee 7c 26 3d e8 c0 ac 3a 0f b8 91 3d 7f 62 8d bc
       0.040646486 0.0013180049 0.071151845 -0.01725888
000280 a0 6e e5 3d 66 ab b6 bd 29 41 9d 3c e5 1a 0e 3e
       0.11202741 -0.089194104 0.01919611 0.13877447
000290 1d 71 44 ba ab b5 03 bd 1f 80 f9 3d ff c9 64 bc
       -0.0007493662 -0.032155674 0.1218264 -0.013964175
0002a0 52 df 22 3c c7 18 26 3d dc 41 a2 bd dc 56 24 3d
       0.009940939 0.040550973 -0.07922718 0.040121898
0002b0 1c ac 12 be 86 a4 70 bd c1 55 ae bd ef 87 11 3d
       -0.14323467 -0.05875065 -0.0851245 0.035530027
0002c0 3d 56 52 3d a4 1f 9d 3c e4 c1 91 3d 12 06 19 3c
       0.051351774 0.019180126 0.0711706 0.009339826
0002d0 b8 dc e9 3c 7a 83 d6 bc 19 29 38 ba 0f 5c c7 3d
       0.02854763 -0.02618574 -0.0007025167 0.09734356
0002e0 7c 94 97 3c 0b 56 05 bd 1a 93 21 bd a9 b7 bf 3d
       0.01850342 -0.03255276 -0.039446928 0.09361202
0002f0 8d 0c 31 bd 0b ea 7c bc ad ee 1b 3d 2e 7b 19 3d
       -0.04322486 -0.01543666 0.038069416 0.03747099
000300 3b b9 d1 bc 5b e7 8c bd cb fd 31 3b 45 82 58 bc
       -0.02560102 -0.06880065 0.002715933 -0.013214652
000310 ac 7a c8 3c 9f 81 11 be 57 2e 09 3b 08 d8 68 3d
       0.024472557 -0.14209603 0.0020932162 0.05684665
000320 82 5c 68 3c 41 6d 54 bc 5e 29 b2 3b 4d 11 e6 bc
       0.014182212 -0.012965501 0.0054370603 -0.028084422
000330 ce a1 80 bd 20 0b 6d bd 40 fd 48 3c 22 94 8b 3d
       -0.06280862 -0.057871938 0.012267411 0.068153635
000340 b3 ac 64 bd 1b 09 18 bc 0f 6c d2 bc f9 cb 09 bd
       -0.05582876 -0.009279515 -0.025686292 -0.03364179
000350 41 26 03 bc 5e 95 0c bd 65 fa 72 bd 5c aa 10 3b
       -0.008004726 -0.034322135 -0.059320826 0.0022074198
000360 6e 05 2e bd 63 72 8d 3d 1f 34 6b bc 2d 08 e5 bd
       -0.042485647 0.06906583 -0.014355688 -0.111832
000370 9b e2 86 bd 9b 1f b5 3c 71 bd 2c 3c dc 6c c4 3b
       -0.0658619 0.022109797 0.010543213 0.0059944224
000380 e6 e4 a8 bb 21 5d 10 be 06 22 e3 bc 33 ea 28 3d
       -0.00515424 -0.14098026 -0.027726185 0.041238975
000390 ff db c1 3c 33 37 be 3c 7f 62 ae 3c 84 30 90 3c
       0.023664473 0.02321968 0.021287201 0.017601259
0003a0 c7 9a 05 bd 6d fe 86 bd d2 e5 0e 3d dc 95 c0 3d
       -0.03261831 -0.065914966 0.034887142 0.094035834
0003b0 64 05 fb 3d a4 a9 01 bd c9 d8 c0 bc c9 43 3a bd
       0.122568876 -0.031655923 -0.023540871 -0.0454748
0003c0 63 ae 14 3d 8b 77 87 bc b3 28 df bb 76 10 78 3d
       0.03629912 -0.016536495 -0.0068102716 0.060562573
0003d0 f1 45 18 bd a3 ef 60 bc f5 a8 51 3b 7d 76 4b 3d
       -0.037176076 -0.013729009 0.0031991575 0.049673546
0003e0 05 c6 47 3d 69 54 8f bc 64 f6 4c bc 4d 8e 83 b9
       0.04877283 -0.017496305 -0.012509916 -0.0002509229
0003f0 59 9e 85 bc 09 cb a9 3c 3a ad 87 bd e6 ae 0c bc
       -0.016310858 0.020726698 -0.06624837 -0.008586621

convs.0.lin_l.bias f4 [128]
000000 64 bc 6b 3d 3c a8 00 be fc 03 00 3e 0f 81 10 bc
       0.05755271 -0.12564176 0.1250152 -0.0088198325
000010 84 b4 eb bc f5 a6 c8 3d c6 db 23 bd ec ec 62 bd
       -0.0287726 0.097974695 -0.040004514 -0.055401728
000020 05 e0 f0 bd 75 8f e0 3d 65 6b 8f 3d 7f 1e ad 3d
       -0.11761478 0.10964862 0.07002906 0.08453082
000030 5d e3 5d 3d 47 80 ab bc 37 40 80 bd 33 98 92 3d
       0.05417191 -0.02093519 -0.06262248 0.07157936
000040 43 e3 9a bd 48 25 11 3d cb a8 17 3e 98 49 bb 3d
       -0.07562878 0.035435945 0.14810483 0.09144896
000050 34 97 6e 3d f4 96 5c bd e7 84 a7 bd 9b 94 c7 3d
       0.058249667 -0.053854898 -0.08179646 0.09745141
000060 67 2e 0c be 8e a4 97 bc 10 0b f6 bd 59 89 16 3d
       -0.13689576 -0.018511083 -0.12013829 0.03675208
000070 42 80 27 3d 99 6a 12 3b f7 4e eb 3d 46 98 9b bd
       0.0408938 0.002234137 0.11489671 -0.07597403
000080 3f 70 de 3d 5c 87 63 3d 9b 38 23 3d b0 34 8e bc
       0.10861253 0.05554901 0.039848905 -0.017359108
000090 fe 5a 80 bb ef c2 6f bd c7 3c 7d 3c a9 eb 1e 3d
       -0.003917097 -0.058535513 0.015456385 0.03879896
0000a0 39 45 f9 3c e3 e7 77 3d 55 36 67 3c 02 99 5b 3d
       0.030428516 0.06052388 0.014112075 0.053612716
0000b0 4e 09 a3 3d 68 c5 6b 3d a7 5f fc 3d 33 ba 0b 3c
       0.07960759 0.05756131 0.12322932 0.00852828
0000c0 2d e4 25 3d 63 21 b0 3d b6 a3 a4 bc 80 87 85 3c
       0.04050081 0.08600118 -0.020097595 0.016299963
0000d0 fb 11 e6 3d 50 5a 00 3e 69 fc 83 3d 4c c0 39 bd
       0.11233898 0.12534451 0.06444628 -0.045349404
0000e0 8b b6 d0 bc 35 48 19 be 89 87 da bc da bb 07 bd
       -0.025477668 -0.14968951 -0.026675956 -0.033138134
0000f0 ed a6 8c 3d 4d 34 98 3d 10 51 9b bc 99 81 67 bc
       0.06867776 0.074318506 -0.018959552 -0.01413002
000100 c1 9d cb 3d c9 2a fc bc 23 92 1d 3e bc 77 cb 3d
       0.099421985 -0.03078212 0.15387778 0.09934947
000110 28 e3 a1 bd 21 af b1 3d 66 4d b6 3d d6 19 d3 3d
       -0.07904655 0.08675981 0.08901481 0.10307662
000120 85 6e 14 3d df 39 ac 3d 81 bc 58 bc 4d 84 91 3d
       0.036238212 0.084094755 -0.013228537 0.071053125
000130 91 d6 e3 3c 68 62 ba 3d 3c bb 4d bd ab a4 ca bd
       0.027812274 0.09100801 -0.05022739 -0.09894689
000140 0d d9 5d 3c ba 1e f9 3c 12 52 13 3c a7 b4 13 be
       0.0135405185 0.03041016 0.008991735 -0.14424382
000150 19 aa 06 3d 29 50 8d 3d 49 00 2b 3d b5 89 94 3d
       0.03287706 0.06900055 0.04174832 0.07252828
000160 b9 81 73 bd c2 16 7f 3d 16 13 c9 bc 5a 5f 90 3d
       -0.059449885 0.062277563 -0.024545234 0.07049437
000170 a6 7c 99 3d d0 d8 a3 3d 90 d0 df 3c b5 db 88 bd
       0.07494478 0.08000338 0.02732113 -0.06682531
000180 c1 de 67 3c a8 be 42 bc 90 fe a3 bd 9c 53 ba 3d
       0.01415223 -0.011886276 -0.08007538 0.090979785
000190 ab 23 61 bd 2e 13 90 3d c0 63 14 bd 0e 0f 6e bd
       -0.054965656 0.07034908 -0.03622794 -0.058119826
0001a0 09 75 29 bd 74 7e 9c 3c 65 25 d0 3c 36 13 17 be
       -0.04137138 0.019103266 0.025408456 -0.14753422
0001b0 f0 70 61 3d 0f 4d b2 3d 5b 10 9c bd 04 1a 2b 3e
       0.055039346 0.08706104 -0.07620307 0.16709143
0001c0 9f 80 8a bb 85 6d c2 3d 7f 95 fe 3d 71 4e b9 3b
       -0.0042267586 0.094935454 0.12430858 0.005655103
0001d0 fd 32 a1 3c b0 93 d6 3d 84 d0 35 3d 1b 84 e4 3d
       0.019677633 0.10477388 0.04438831 0.111580096
0001e0 53 d1 2c 3d 4b 23 03 be 93 57 1d 3d 7e 7e 64 bc
       0.042191815 -0.12806432 0.038413595 -0.013946174
0001f0 60 35 29 bd 25 a0 ef bd c0 bf 4a 3d 9f b1 b5 bd
       -0.041310668 -0.11700467 0.049499273 -0.08871769

convs.0.lin_r.weight f4 [128, 183]
000000 0a 1b 3f 3d 6f 12 78 bc 93 ab 08 3e d5 6b 2f bd
       0.046656646 -0.015141114 0.133467 -0.042827446
000010 a6 c4 e9 3b ad 00 24 bd 2f dd 45 bd d1 8b b4 3d
       0.007134038 -0.040039707 -0.04830664 0.0881573
000020 de 86 dc bc f3 bc 21 3d c6 38 3c bc 85 60 da 3b
       -0.026919778 0.039486837 -0.011488145 0.006664338
000030 4d fd 2b bc 61 9b dc 3c 73 79 a2 3d 22 e0 dc bc
       -0.010497403 0.02692956 0.07933321 -0.026962344
000040 0d 65 bd 3c 39 37 aa 3d 89 ad 15 3d 29 8a 03 3d
       0.023119474 0.08311314 0.03654245 0.03211418
000050 7d 70 b5 3d e4 b8 c8 3c d3 e2 de bd fd ec bf bd
       0.08859346 0.024502225 -0.10883107 -0.09371374
000060 67 d7 24 bd e7 5c 25 bb ad ce 40 3d f0 f2 28 bc
       -0.040244486 -0.0025232376 0.0470721 -0.010311827
000070 1a 31 e2 bd 34 48 e7 bd 61 c9 25 bc 24 47 b2 bc
       -0.11044522 -0.112930685 -0.010118813 -0.021762438
000080 5b ea 4d 3d 72 4b b1 3d ea a0 77 bd d6 c8 c2 bc
       0.050272327 0.08656968 -0.060456194 -0.023777407
000090 2f 8c 0c be 55 ca 13 3c 2f 55 fb bd f2 93 05 be
       -0.13725351 0.009020408 -0.12272107 -0.13044718
0000a0 7b d2 0a be c4 a3 2b be 69 36 97 bd 6e f7 d2 bd
       -0.13556854 -0.1676169 -0.07383425 -0.103011
0000b0 0e e7 22 bd b0 7a 96 bd 92 5c c4 bd c6 43 7a bd
       -0.039771132 -0.073476195 -0.09587969 -0.06109979
0000c0 9c c4 f0 bd 7a a0 f1 bd 6f b5 3a 3d b4 e0 82 3d
       -0.1175625 -0.117981866 0.045583185 0.06390515
0000d0 60 ef 77 3d 5e 88 f8 3d 62 1e 3e bd 2a 08 ff 3c
       0.06053102 0.12135385 -0.046415694 0.031131823
0000e0 7a b0 f1 bc fa 08 d2 3c 3b a3 2d bd 73 22 bb bc
       -0.029503096 0.025639046 -0.042391997 -0.022843575
0000f0 81 e7 c0 bd d8 e4 92 bd f3 ba 45 ba da 0b 07 3d
       -0.09419156 -0.07172555 -0.0007542811 0.032970287
000100 30 ce 9d bc c1 c9 56 bc 20 26 41 3c 1c 70 a7 bc
       -0.019263357 -0.013109625 0.011788875 -0.0204392
000110 53 0c c8 bc c1 fd 04 3d 67 c4 c8 3b 6f 3c ef bb
       -0.02441994 0.03246856 0.0061269286 -0.0073009054
000120 44 d9 3b 3c 4a bf 0d 3d b7 5b c5 bb 05 8b 26 bd
       0.011465374 0.034606256 -0.006022896 -0.040659923
000130 12 75 c5 bd af d6 5d 3b bc ef 9d 3c ca e6 9d 3c
       -0.0964147 0.0033849885 0.019279353 0.019275088
000140 af b2 9c 3c 5c fa ea 3c 0d ec 46 bd 44 11 0a bc
       0.019128172 0.028683834 -0.04856496 -0.008426968
000150 9e 17 b7 bd fb 2f b1 bd 48 61 c0 bd 46 f8 f1 bd
       -0.089400515 -0.0865173 -0.09393555 -0.118149325
000160 bd 94 e4 bc 80 38 22 3d 08 9e 0a 3d b6 c7 cf 3c
       -0.027902955 0.039604664 0.033842117 0.025363784
000170 ba a2 b8 bd c9 9b 59 bd d6 f5 9c bb bc aa a1 3b
       -0.09015413 -0.053127084 -0.004790048 0.004933683
000180 3d 6e 74 3d 33 31 d3 3c 5e df fa bd 82 f2 86 bd
       0.059675444 0.025780296 -0.12249635 -0.065892234
000190 a2 4f 63 3d 3e 48 2d 3c 27 15 40 3d 95 6e 92 3c
       0.055495866 0.010576306 0.046895172 0.017874995
0001a0 82 78 7a 3c 21 a7 9e bc 87 be 16 3d 77 2c c4 3d
       0.01528752 -0.019366803 0.036802795 0.095787935
0001b0 2d a9 87 3d 00 05 64 3d 3d a1 2b bd 65 58 84 3d
       0.066240646 0.05566883 -0.041901816 0.064621724
0001c0 0b b6 6c bb 94 03 0c 3d ff 08 cb bc 0d c6 39 3d
       -0.0036119248 0.0341831 -0.024784563 0.04535489
0001d0 2c 05 c0 3c 85 a9 b5 bc fe 8a 86 3c f2 49 b0 3d
       0.023439966 -0.02217556 0.016423699 0.08607854
0001e0 b9 ef 8d 3d e7 9f 94 3d e0 97 c8 bd 2d 84 a8 bd
       0.06930489 0.072570615 -0.09794593 -0.082283355
0001f0 ab fe 2a 3b c4 cd 49 3d f7 a0 8a 3d 05 67 c0 bd
       0.0026091735 0.0492685 0.06768983 -0.093946494
000200 7f 55 a4 bd 40 0a b0 3c 28 3f 90 be a1 8a 27 bd
       -0.080241196 0.021489263 -0.28173184 -0.04090369
000210 22 30 9d 3d b7 d0 26 bd 2b 24 70 3d 21 40 23 bb
       0.07675196 -0.04072639 0.058628242 -0.002491005
000220 f2 d2 a3 3c a9 af 8f bd 31 91 0e bc e5 0d d3 3c
       0.019998048 -0.070159264 -0.0087016085 0.025763461
000230 7a 8b c2 3d 93 a9 48 3d 06 ed 68 3d 99 c1 58 3d
       0.09499259 0.048989844 0.05686667 0.052919004
000240 9b 63 4a 3d d1 ae 9d 3d e0 34 89 3c a1 e2 64 bc
       0.049411397 0.07699359 0.016748846 -0.013970048
000250 96 32 b2 bd 5e 08 bb 3d d4 5f 20 bc 76 2e 37 3d
       -0.08701055 0.09132455 -0.009788472 0.044722043
000260 b4 cc 7d be f8 8e 3a be 11 5b 45 3c 63 23 2b bd
       -0.2478512 -0.18218601 0.012045638 -0.041781794
000270 83 8e b8 3c 48 08 a2 bd 16 64 08 3e b3 00 4c 3d
       0.022528892 -0.07911736 0.1331943 0.049805354
000280 00 5b 98 3c 66 b1 49 bc a1 74 ac 3d a7 ce 63 3d
       0.01859808 -0.0123103615 0.08420683 0.055617
000290 8f 49 2c 3e da 5c 16 3e f9 7a 7c 3d ae ca ee 3c
       0.16824935 0.14683858 0.061640713 0.02914938
0002a0 37 97 3c 3d 36 3c ec 3d 73 59 cb bc 60 ec 8c bd
       0.046042647 0.11534922 -0.024822926 -0.068810225
0002b0 e2 50 25 3d 7d 90 ff 3c 7a 4b 84 3d d2 4e b8 3d
       0.04036034 0.031196827 0.064597085 0.08999409
0002c0 52 e2 88 3d 94 4c b5 bc 89 db e0 bd 68 b8 01 bd
       0.06683792 -0.022131242 -0.10979373 -0.031670004
0002d0 33 c3 bd 3c 47 52 c0 bd 42 c3 b8 bb d9 a2 0d 3c
       0.023164367 -0.09390693 -0.005638511 0.008644783
0002e0 b8 83 22 3d a3 bb 86 bd 88 5d ba 3c aa 25 ad 3c
       0.039676398 -0.065787576 0.022749677 0.021136124
0002f0 c8 0a 26 be 62 69 b9 bc 46 84 b1 3d 95 d0 62 3d
       -0.1621505 -0.022633258 0.08667807 0.0553747
000300 cf b2 46 3d 07 8d 5e bc f4 dd bf bc cf dc 1e 3d
       0.04851037 -0.013583428 -0.023421265 0.0387848
000310 ca 89 dd 3c 2f 58 3f be c5 96 9f 3d d5 29 b6 3d
       0.027043242 -0.18685983 0.07792429 0.088946976
000320 fa f8 c3 3d a2 d5 13 3d e7 21 f2 3c 21 c5 41 3d
       0.09568973 0.036092408 0.029557182 0.047307137
000330 e0 ee 9e 3c 65 cd c8 3d 3f 28 e0 3d 75 2a 86 3d
       0.019401014 0.09804801 0.10945176 0.06551067
000340 7f 01 ec bc b9 9f ef bc d1 f1 81 3d df 64 4f 3d
       -0.028809307 -0.029250966 0.06344951 0.050633308
000350 ac 94 12 3d 86 39 f8 3d 7a bf e8 bb 56 8f cd 3c
       0.035786316 0.12120347 -0.007102904 0.025092762
000360 69 c6 00 bd 36 9b e4 3d 45 c0 80 3d e2 f2 b3 3c
       -0.03143922 0.11162417 0.062866725 0.021966401
000370 98 17 49 3c cb d2 bc bc 6b ed c1 3d 5d f1 e5 bc
       0.012273692 -0.023049733 0.09469112 -0.028069193
000380 7d 65 71 3d 3a 6d 98 bb 5b 9c 05 bd 6c 4c 90 3c
       0.058934677 -0.0046516927 -0.032619815 0.017614566
000390 e7 1d 0f 3d 71 38 b5 3b 67 07 14 bc 15 58 57 3d
       0.034940626 0.00553041 -0.009034968 0.052574236
0003a0 ab 68 41 3d 17 59 ca bc 58 5d b7 3d 92 a5 38 be
       0.04721896 -0.024700684 0.08953351 -0.1803191
0003b0 de 4d 42 be f4 6d 34 bd 8a d4 68 be 9d ce 37 bd
       -0.18975016 -0.044050172 -0.22737327 -0.044874776
0003c0 31 41 a3 3d 26 0e 8b bd 77 16 5f bd 33 c3 74 3c
       0.07971419 -0.06789808 -0.054464784 0.014939117
0003d0 83 32 e1 3c ca 49 f7 3b 9c 5f 95 3d 98 aa cf bd
       0.027489906 0.007546638 0.07293627 -0.1013996
0003e0 0e 16 ad 3c fa cf 05 3d 36 4e 33 3d d1 61 45 3d
       0.02112868 0.032669045 0.04377576 0.048188988
0003f0 f5 a8 30 bb 41 b4 6a 3d 30 ca 2d bc 1d c7 44 bc
       -0.0026956175 0.05730081 -0.010607287 -0.012010363

convs.1.lin_l.weight f4 [128, 128]
000000 90 a0 1d bd 9b b5 ee 3a c4 c8 16 3d b1 d7 77 bc
       -0.038483202 0.0018212082 0.03681256 -0.015127108
000010 48 5a 6a 3d f1 bc 80 bc 0a cc 92 3d f8 bf 0a 3e
       0.057215005 -0.015715094 0.071678236 0.13549793
000020 82 b8 81 3d 3c 3e 98 3c 57 59 b6 bd 67 a2 a6 3d
       0.0633402 0.018584363 -0.08903759 0.081364445
000030 6d 0d 1c bc d2 24 b4 3d f8 76 a5 bd d6 a6 b9 bc
       -0.009524685 0.087960854 -0.08079332 -0.022662561
000040 d8 7b 05 3c 3b 91 1a 3d 2f f2 b5 3c 11 3d cb bc
       0.008147202 0.03773616 0.022210209 -0.024809392
000050 59 e4 7a 3d 4b ff 89 3d 7c 5d e3 3d 63 74 2b 3d
       0.061252926 0.067381464 0.11101815 0.041859042
000060 09 14 1d bd d3 a7 c7 3c 5f dd ae 3d 1b ee 82 bd
       -0.038349185 0.024372017 0.08538317 -0.06393071
000070 94 1b b3 bd d6 ac 93 3d 43 4a 55 bd 43 7e 07 3d
       -0.087454945 0.072107 -0.052072775 0.033079397
000080 79 6e 20 3d 01 c6 b8 3d d8 c0 78 3d 05 fc 36 bd
       0.039167855 0.09022141 0.060730785 -0.04467394
000090 c0 c1 61 bc e8 bd c4 bd 32 45 07 3d 47 26 d8 3b
       -0.013779104 -0.09606534 0.033024974 0.00659636
0000a0 3b 79 a6 3d 93 2f 80 bd 7f f5 cc bc 15 e1 64 bd
       0.081285916 -0.06259074 -0.025019405 -0.055878717
0000b0 d8 b4 13 3e c8 42 38 3d 50 54 b6 3c cc eb 79 bd
       0.14424455 0.044985563 0.022257 -0.06101589
0000c0 26 67 86 3d a7 68 33 bb fe 43 11 3d fc c2 52 3d
       0.06562643 -0.002737561 0.035465233 0.051455483
0000d0 4b 0e 7b 3d c3 b1 18 3d c1 7a bc bd 7e d8 67 bd
       0.061292928 0.0372789 -0.09203101 -0.056602947
0000e0 31 3c 30 bd e6 06 02 bc e7 18 3e bd 6b f1 b2 3d
       -0.043026153 -0.007936215 -0.046410467 0.08737453
0000f0 a5 99 f8 3c 92 5c 88 3d c3 c8 23 bd 68 b0 e3 bc
       0.0303467 0.066582814 -0.039986383 -0.027794078
000100 75 15 9f bd 8e 55 23 bd 14 73 fc 3b 2e de 04 bd
       -0.077677645 -0.039876513 0.007704148 -0.03243845
000110 4f 70 50 bd 05 83 cf 3b ae 81 aa 3d 40 6d 4c bd
       -0.050888356 0.0063327574 0.08325516 -0.049908876
000120 d1 28 5d 3d ae 27 98 bb ec 59 9f 3c 81 1c d8 3c
       0.053994004 -0.004643402 0.019452058 0.02638078
000130 be d4 2d 3d ff 64 97 bd dd c0 d7 bb bc b9 02 3e
       0.042439215 -0.0739231 -0.0065842704 0.12766165
000140 d0 6e 58 3d 4c 42 28 bb fa 2f 6c 3d f3 f8 39 3d
       0.052840054 -0.0025674282 0.05766294 0.045403432
000150 fb 34 f4 bb 3f 29 45 bd 8a cc a7 3d 72 e0 08 3d
       -0.007452605 -0.04813504 0.081933096 0.033417173
000160 6e 8e 06 bc 41 28 27 bd 08 9e b3 3d ba 57 0f bd
       -0.008212669 -0.040809873 0.087703764 -0.034995772
000170 97 59 ff 3c ef cd ef bc 3f db d9 3c 7b cb 8b bd
       0.03117065 -0.029273001 0.026593802 -0.0682592
000180 33 4b db bc 40 11 ae bc 2f 49 fc 3d 83 b6 f8 3c
       -0.026769256 -0.02124846 0.12318646 0.030360466
000190 25 11 cb bd 52 ab d6 bc 2a b1 b2 3d 77 b2 29 3d
       -0.099153794 -0.026204739 0.087251976 0.041429963
0001a0 7f 3a fb 3c 6f b4 b0 3d 2a 1c 2d bc 50 12 89 3d
       0.030667542 0.08628165 -0.010565797 0.06692946
0001b0 b0 08 d0 bd ae 8b 2d bd c8 9b a9 3c 60 48 4a 3d
       -0.10157907 -0.042369537 0.020704165 0.04938543
0001c0 7d 38 0e 3d d9 3d 91 bd 5c e3 6c bd 7d 61 9a bd
       0.03472184 -0.07091875 -0.057834014 -0.07538126
0001d0 f0 66 53 bd f6 6b 8c 3c be 94 c8 3c db 5a 5e bc
       -0.05161184 0.017141324 0.024484988 -0.013571466
0001e0 67 3b 31 3c 90 1c 81 3d e2 89 97 3d e8 6b 4d bd
       0.010817385 0.06304276 0.07399346 -0.050151736
0001f0 0c e5 bb 3c 1f 28 7a bd 7c 06 71 3d 59 24 a7 bd
       0.022936366 -0.06107342 0.058844075 -0.0816123
000200 7c 17 03 bd cd 2f 0b bd 8d cf 8d 3d fd d2 d7 bb
       -0.03200482 -0.033981133 0.06924353 -0.006586431
000210 f4 12 c2 bc 08 6c 92 bc d0 4f 78 bd bb 04 08 bd
       -0.023690678 -0.017873779 -0.06062299 -0.033207636
000220 d3 20 ba bc 63 8e 3d 3c 6e 5e 36 bd f0 e5 73 3c
       -0.02272073 0.011569592 -0.04452365 0.014886364
000230 70 ad f6 bc 8f e4 ae bd d5 c4 47 bd 02 93 86 3d
       -0.030111998 -0.08539688 -0.048771698 0.06571008
000240 8c c7 a5 3b 62 2f 14 3c 76 f1 1c 3d e3 d1 21 3d
       0.005059188 0.0090445 0.038316213 0.039506804
000250 d1 bb 5a 3d 2c 33 14 bc 61 7f fe bb 9b 28 c5 bd
       0.053401772 -0.009045403 -0.0077666496 -0.096268855
000260 ef e4 8e 3d 02 95 ca bc b3 57 82 3d 82 03 a3 3c
       0.06977259 -0.024729256 0.063643835 0.019899134
000270 47 8b 9b 3d 08 f0 36 3d 08 db 77 3d 18 cd 94 3d
       0.075949244 0.044662505 0.06051162 0.07265681
000280 92 a7 d1 bd 42 e6 f9 bb d6 a1 92 3c 1b 3b 27 3d
       -0.102370396 -0.007626326 0.017899435 0.04082785
000290 c8 62 70 3d 7b ac a4 bd 7f 53 8f 3d 8e 35 b3 3c
       0.058687955 -0.080407105 0.069983475 0.021876123
0002a0 06 92 7b bb f3 e2 9f bc 27 a6 66 3c 9f 45 6b 3d
       -0.0038386597 -0.019517398 0.0140777 0.057439443
0002b0 ea 5c 11 3c 61 b1 45 bd 5d 87 d6 3d aa b9 14 bd
       0.00887225 -0.048264865 0.10475037 -0.036309876
0002c0 fd 85 30 3d df 2d 57 b9 d4 fe 86 bc 1d 5d 95 3d
       0.04309653 -0.00020521086 -0.016478933 0.072931506
0002d0 2c fa 91 bc cd b0 ba 3c f8 60 56 3d 4d 51 d3 3c
       -0.017819487 0.022789383 0.05233857 0.025795603
0002e0 76 4e 6c bd aa 16 63 bd 74 00 61 3d 27 cc e2 3c
       -0.057692014 -0.055441536 0.054932073 0.027685238
0002f0 89 49 8e 3c d9 3b 9e bd f2 42 9d bc d8 fb 65 bd
       0.017369049 -0.07726259 -0.019196961 -0.05614838
000300 06 c8 c3 bd 26 1a f7 bb d6 9d 87 3c b9 e3 76 3b
       -0.09559636 -0.007540959 0.016554754 0.0037672354
000310 fb d7 88 bd 01 ac bc bd e9 b2 b5 3d e3 e4 e1 bd
       -0.0668182 -0.09212495 0.08872015 -0.11029985
000320 ec 18 99 3b a3 80 df bd ba 09 44 3d a0 db 50 ba
       0.0046721604 -0.109132074 0.04786084 -0.0007967297
000330 47 63 7e bd f2 0a 1d 3d 52 10 ac bc 88 f2 db bc
       -0.062106397 0.038340516 -0.021003876 -0.026849046
000340 ca d2 5c bb 41 fd ca bb 02 54 89 bb 9a 7f 13 3d
       -0.0033694976 -0.006194741 -0.0041909227 0.036010362
000350 33 a5 3a bd 61 47 6c bd d5 b4 5f 3d e0 f3 0f 3d
       -0.045567703 -0.05768526 0.054615814 0.035144687
000360 6d f3 da bc 17 9a a9 3d 61 dc de 3a 05 88 63 3d
       -0.026727403 0.082813434 0.0017002934 0.05554964
000370 9c 3b 74 3c 51 88 99 3d 38 e6 f9 bc e3 3b 3e bb
       0.01490679 0.074967034 -0.030505285 -0.0029027394
000380 5d 7e 81 3c 8c f0 fb 3c f0 ec f4 bc ac d1 3d 3d
       0.015807325 0.03075435 -0.029898137 0.046342537
000390 35 28 da bc 95 17 ba bd c2 fd f4 3c 2b 1e 8a 3d
       -0.0266305 -0.09086529 0.029906157 0.06744035
0003a0 e3 bf 1e 3c ab 2f b9 3d 52 9e 61 bd 8a 17 c0 bd
       0.009689304 0.09042295 -0.055082627 -0.0937949
0003b0 ba 99 43 bc cd 50 e2 bc 53 76 9e 3c c6 6f 3b bd
       -0.011938507 -0.02762642 0.01934353 -0.045760892
0003c0 03 86 b4 3c be 1d 42 3d f1 06 86 bd ba 56 61 bc
       0.022036558 0.047391646 -0.06544293 -0.013753587
0003d0 49 6d d1 bb a1 a5 ab bd 37 61 c8 3d 4c 62 d1 3d
       -0.0063912016 -0.083812006 0.09784167 0.10223827
0003e0 44 a9 2e bd 57 4e 1f bc 93 d2 e6 bd cc c8 1e bd
       -0.042641893 -0.0097232675 -0.112706326 -0.038765714
0003f0 ad 4e 6d 3d e6 0f fb ba 8d 9d 99 3c 4a c9 3a 3d
       0.05793636 -0.0019154518 0.018751884 0.04560212

convs.1.lin_l.bias f4 [128]
000000 6d 6f 1f bd 04 47 97 3c 5b fb b0 3d 29 b6 b3 3c
       -0.038924623 0.01846648 0.08641692 0.021937447
000010 1b 00 3c 3d da a7 d4 bc 49 02 44 bd 67 43 44 3c
       0.045898538 -0.025958944 -0.04785374 0.011978961
000020 b9 e8 90 3d 9c 4b 8e 3d 0e 6a 0e bd 16 b5 86 bd
       0.07075638 0.06948015 -0.03476911 -0.06577508
000030 5b b1 d3 3d 21 f7 e2 bc 84 fd 08 bd c5 c5 e7 3d
       0.10336562 -0.02770573 -0.033444896 0.113170184
000040 5e 51 a5 bd f5 1e b3 3d d5 be e7 3c 15 f2 e9 3b
       -0.0807216 0.08746139 0.028289238 0.007139454
000050 6d 1c 5d bd 8d ba 87 39 ef de 1b bc 3b 30 74 3d
       -0.053982187 0.00025888198 -0.009513601 0.05961631
000060 c4 d6 4e 3d 36 b2 2b bd dd d4 9e bc 65 3d 6a bd
       0.050497785 -0.041918002 -0.01938861 -0.057187457
000070 be db 3c 3d b2 ee 62 3d c3 4f bd bd 06 4e 43 bd
       0.046108 0.05540342 -0.09243729 -0.04768183
000080 68 27 67 3c ed ab 45 3d 6b ed 96 bc 83 91 f9 3c
       0.014108516 0.048259664 -0.018423757 0.030464893
000090 22 3c 95 3d f6 50 b0 bd 48 dc f8 3c 37 0a 80 bd
       0.0728686 -0.08609192 0.030378476 -0.06251948
0000a0 aa bd 16 3d 48 a2 b0 3d 47 c3 b7 ba b0 59 49 3c
       0.03680197 0.08624703 -0.0014019989 0.01228945
0000b0 52 95 7e bc e6 08 7b bd 00 13 89 bc f4 d6 0c 3c
       -0.01553853 -0.061287783 -0.016732693 0.008596171
0000c0 1a 9a 3c 3a 11 b5 c4 ba a2 5f 49 3b ba fa 9f bc
       0.0007194594 -0.0015007575 0.0030727168 -0.019528735
0000d0 2b 45 67 3d 08 4f 8c 3b 1d 7d 2c bd 1e 81 b3 bd
       0.056462448 0.004281882 -0.042111505 -0.087648615
0000e0 55 ae 99 bd 26 cf 30 ba 3c d1 8a 3d 0b 1f 82 3d
       -0.07503954 -0.0006744735 0.067781895 0.06353577
0000f0 45 e4 fd 3c a9 ed 13 3d b9 eb 6b bc fe 68 e5 3d
       0.030992636 0.036115322 -0.014399462 0.11201666
000100 7b e4 0f 3d 6f f2 8c 3d e2 53 73 3c 0d 6a 52 3c
       0.035130005 0.06882178 0.014851542 0.012842667
000110 ca fe 8d 3d 26 ab 64 bd 44 97 b1 bb 1d 65 c6 bc
       0.06933363 -0.055827282 -0.0054196436 -0.024218136
000120 70 3d 18 3d 11 ca 96 bc cc e8 a5 3d 3f 3c f3 bb
       0.037167966 -0.0184069 0.08101043 -0.0074229534
000130 46 0f 45 bd db 2e 94 3d 9f d1 da bd b6 97 59 bb
       -0.04811027 0.072354995 -0.10684513 -0.0033202
000140 55 f6 c3 3d b6 0e 41 bd 96 4f 69 3d 2a 33 e6 bc
       0.095684685 -0.04713317 0.056960665 -0.028100569
000150 84 6e 62 bd e0 53 c4 3c e7 68 2c 3c 92 eb 07 3d
       -0.055281177 0.023965776 0.010523058 0.03318364
000160 86 a8 aa bc ea 37 29 bd c9 9e af 3d 80 dc d0 3c
       -0.020832311 -0.04131309 0.08575208 0.025495768
000170 6a 4e 11 bc 14 73 45 3d b4 ca 9c 3c c4 79 7b bd
       -0.008868793 0.04820545 0.019139625 -0.06139542
000180 ce fa 0b 3d 12 26 a6 3d bd 63 2e bc b7 a5 16 bc
       0.034174733 0.0811273 -0.010643897 -0.009194783
000190 2b 16 b9 3c e7 b7 d4 3c cd 9c 3d bd b5 be 85 bd
       0.022593578 0.025966598 -0.046292115 -0.06530515
0001a0 4e 6b b5 3d 52 45 90 3d 36 a9 63 3d ed 50 e6 bc
       0.08858357 0.07044472 0.055581294 -0.02811476
0001b0 a4 1c c3 bc 3f 01 03 3d 06 08 8b bd 86 f3 96 bd
       -0.023817368 0.03198361 -0.0678864 -0.07370667
0001c0 fd 85 6e bd 47 17 f2 bd f3 49 0e 3d ec 12 a3 3d
       -0.05823325 -0.11820846 0.034738492 0.079625934
0001d0 f2 51 f9 3c 91 2f bc 3c af 2d dc bd c7 d3 10 bd
       0.030434582 0.0229719 -0.10750901 -0.035358217
0001e0 fd 00 c7 3c 2e 16 51 3d 98 0b 8b 3c 67 c2 36 3d
       0.024292463 0.051046543 0.016973302 0.04461899
0001f0 39 8b 43 3d 8e 6d 9e bd 88 24 f3 3d 6e 9a 2c bd
       0.047740195 -0.0773574 0.11872202 -0.042139463

convs.1.lin_r.weight f4 [128, 128]
000000 74 26 e4 3d 93 40 35 bd 78 c7 8d bd 1a 55 8b 3d
       0.11140147 -0.044251036 -0.06922811 0.06803341
000010 bf 6b 56 bc a9 0e 7e 3d 89 7b 46 bb 30 a5 8d 3d
       -0.013087212 0.0620257 -0.0030286035 0.06916273
000020 a0 a5 d3 bc a7 e1 81 3d 0e 87 c1 3c 52 e6 e8 ba
       -0.025835812 0.06341868 0.02362397 -0.0017768836
000030 6c e7 10 bc a8 5b 00 3e 41 c2 70 3b df af 52 3d
       -0.008844238 0.12534964 0.0036736878 0.051437255
000040 06 6d a8 3d ae f5 b3 3d 6f 81 17 3c 2b 01 59 3d
       0.082239196 0.08787094 0.009247168 0.05297963
000050 d3 ef 06 3e 0e 56 16 3d 99 a4 82 3d c7 f6 0e bb
       0.13177423 0.036703162 0.06379051 -0.0021814571
000060 4c 4b 0d 3c 38 45 0b 3d ce 74 13 3d bf 69 92 bd
       0.008623909 0.03400156 0.036000066 -0.07149076
000070 2a cd 76 3d 64 49 c3 3d 34 1a 20 3d 24 63 bd 3d
       0.060254253 0.095354825 0.03908749 0.09247425
000080 55 5d 33 bd b3 b1 6d 3d 33 18 b1 3d fb c7 c6 3c
       -0.04379018 0.058030795 0.08647194 0.02426528
000090 9f 1a 00 3e 97 8d 7e 3c df 27 00 3c 26 d8 63 3d
       0.12510155 0.015536687 0.007822006 0.055626057
0000a0 7f 38 bc 3c 1e 24 c6 bc 8c b2 ad 3d f7 f4 b6 bd
       0.022976158 -0.024187144 0.08481321 -0.08933442
0000b0 ba 64 91 bc c0 0c 8d 3c d7 4c 5e 3d 56 f1 e7 bd
       -0.017748225 0.017217994 0.0542725 -0.11325328
0000c0 cd 0e 89 3c d4 70 92 bc f8 25 14 bd aa 99 f1 ba
       0.01673069 -0.017876066 -0.036169022 -0.0018432636
0000d0 6c e6 b8 3c 93 41 47 3d 09 52 fa bc 75 44 e7 3c
       0.022570811 0.04864652 -0.030556696 0.028230885
0000e0 b1 ba 5b 3c da da 6a bd 54 3a 35 bb b7 8a f6 3c
       0.01341121 -0.05733762 -0.0027653174 0.030095441
0000f0 70 a9 33 3d ed fc e8 3c bb a1 98 3c 3d 77 29 3e
       0.04386276 0.028440917 0.018631807 0.16549392
000100 68 40 1b 3d 7f 57 0a 3d 6b 0b 31 3c e3 ba 28 bd
       0.03790322 0.03377485 0.010805945 -0.041193854
000110 07 be 3c 3d 9b 9e 9b 3d d5 45 95 3c 20 90 19 bc
       0.04607966 0.07598611 0.018221775 -0.009372741
000120 0b f9 9c bb bc 24 e9 bc bb b5 c7 bd 03 5b 68 bd
       -0.0047904304 -0.0284599 -0.09751459 -0.05672742
000130 46 88 1a 3d 1b 1e 5a ba ff d5 46 3d 0d c0 d9 bc
       0.037727617 -0.0008320526 0.048543926 -0.026580835
000140 9e b7 19 3d e4 b2 48 3c 16 36 1e 3e 87 e1 40 bd
       0.037528627 0.012249682 0.1545032 -0.04709008
000150 56 ce ba bc d5 9b 31 3e bb d6 9e 3c 79 db b5 bd
       -0.022803467 0.17344601 0.0193895 -0.08879752
000160 ec 44 52 bd 1a d3 4d bd 29 de 07 3e 90 56 b4 3b
       -0.05133526 -0.05025015 0.13268341 0.005503483
000170 b7 5e 19 3d 63 51 86 3d d9 9e 58 3c ff 53 7d bd
       0.037443843 0.06558492 0.013221466 -0.061847683
000180 b0 83 be 3c 33 e4 d3 3d ef d0 1e bd 76 0b c0 3d
       0.023256153 0.1034626 -0.038773473 0.09377186
000190 41 a4 66 bc 59 22 5c 3d 9d c1 11 3e 6f 60 20 bc
       -0.014077247 0.053743694 0.14234014 -0.009788617
0001a0 ec e7 d2 3d 25 2c 81 3d db 73 b1 3d df 5a 0d bd
       0.10298142 0.06307248 0.08664676 -0.03451049
0001b0 61 03 3c 3d ad 38 02 bd ae 72 35 bd 91 24 03 3e
       0.04590166 -0.03179233 -0.04429882 0.12806918
0001c0 4e 86 8d bc ae cb c8 bb 2f 56 e4 3d f3 d8 a4 3d
       -0.017275956 -0.006127796 0.11149251 0.08049192
0001d0 3b 48 73 3d f8 40 ad bd 91 90 51 bc 65 b9 aa bc
       0.059395056 -0.084596574 -0.012790815 -0.020840356
0001e0 e9 6e 9a 3c 41 b0 25 bc 42 6e ed 3d 83 6e e7 3a
       0.018851714 -0.010112823 0.11593296 0.0017656836
0001f0 86 90 5d bd b7 8e 34 3d 79 58 2d bd 76 d8 7e 3c
       -0.054092906 0.044081416 -0.042320702 0.015554538
000200 19 49 c5 3d f3 9d d5 38 c9 9d 3f bd b1 f8 86 3d
       0.09633083 0.00010186052 -0.046781335 0.06590403
000210 cb 04 f2 bd 63 8a 74 3e 7d 47 0f be a2 0f 45 3d
       -0.118173204 0.23880915 -0.13992114 0.04811061
000220 64 ca 8d bd 60 38 72 3c 83 35 84 3d b8 6b 61 bc
       -0.069233686 0.014783949 0.06455519 -0.013758592
000230 b7 23 57 3c 6c c5 8d 3d fa 80 5b bd 21 c3 42 bd
       0.013131074 0.06922421 -0.0535898 -0.04754937
000240 b0 57 20 3d c2 7d 6f bd e5 8d 6d bd 0b b6 9a bc
       0.039146125 -0.05846954 -0.05799665 -0.018885633
000250 13 a8 d3 3c 02 c1 91 3c e0 39 ff 3c a9 ea e1 3a
       0.02583698 0.017792229 0.031155527 0.0017236072
000260 fb ee 07 3d 15 f4 c3 bc 64 34 8d bd ef 26 45 bd
       0.033186894 -0.023920098 -0.06894758 -0.048132833
000270 84 23 ac bc 3c 36 f0 ba 99 06 90 bd 0c 8d 53 bc
       -0.021013029 -0.001832671 -0.070325084 -0.012912046
000280 54 65 dd 3d 8e b5 9f 3d bd 8e 11 3d b8 42 c1 b9
       0.108103424 0.07798301 0.035536516 -0.00036861538
000290 9d 0a f9 bd e6 ea 64 bc eb 15 22 3d 0c c8 9d bd
       -0.121602274 -0.01397202 0.039571684 -0.077041715
0002a0 bb 0d 43 bd 8f 4b e1 3d c3 eb 1f 3d 80 14 eb bc
       -0.047620516 0.1100074 0.0390432 -0.028696299
0002b0 90 a6 b1 3d 2e 8f a0 3d 0b cb a2 bc 0c b7 87 bd
       0.086743474 0.07839809 -0.019872209 -0.0662671
0002c0 a0 40 dc bc ec 68 29 3e ac 55 bf bd c3 b3 9f 3d
       -0.026886284 0.16543931 -0.093425125 0.07797959
0002d0 4a 10 e9 bc 32 c9 f7 3d 99 fa a3 3d 83 7b ec bd
       -0.02845015 0.12098922 0.08006782 -0.115469955
0002e0 18 df 11 3d fd e5 6d bd e3 0a a1 3d 8e 30 9b bd
       0.03561315 -0.058080662 0.078634046 -0.075776204
0002f0 2e be 1b 3e d7 20 06 3e 04 93 b9 bc 60 47 a3 3d
       0.15209267 0.13098465 -0.02265311 0.07972598
000300 1f 5b 78 3d fd 8f 11 bd a7 d0 32 3e 58 49 e7 3d
       0.060633775 -0.03553771 0.17462407 0.11293286
000310 06 5a 48 bc 15 30 05 3d 6b 91 31 3c c9 af 95 3d
       -0.0122284945 0.032516558 0.010837893 0.07308919
000320 b4 25 9f 3d 84 e3 5c 3c 1b 09 dc bd 9a 30 88 3d
       0.07770863 0.013481978 -0.10743924 0.06649895
000330 eb 76 43 3d 53 c1 b1 3c 2f 8f 20 3e 78 2d c2 bc
       0.04772083 0.02169863 0.1567962 -0.023703322
000340 30 ec b1 3d 50 7c 6e bd 6d be 88 3d 8b c2 3c bc
       0.08687627 -0.058224022 0.06676946 -0.011520992
000350 ba e1 8d 3d 5e 5c 29 3e 18 89 01 bc d3 af d0 3b
       0.069278196 0.16539142 -0.007906221 0.006368616
000360 8b 63 cf bc 02 21 44 3e b6 31 5c 3c c0 a5 3b bc
       -0.02531602 0.19153216 0.013439586 -0.011453092
000370 bf d1 7b 3d ae ba 9b 3d fa 1c be 3c 55 f1 5a 3c
       0.061479326 0.07603966 0.023207176 0.013363202
000380 37 44 a3 3d e9 26 eb bc d3 df ad bc 76 8e 16 3d
       0.07971995 -0.028705077 -0.021224892 0.036756955
000390 60 9d a9 ba 47 01 c6 3d c5 53 bb 3c cd 3f 84 3c
       -0.0012940578 0.096682124 0.022867093 0.016143704
0003a0 78 6a d5 bc 82 cb fd 3c 5d 94 d0 3c 2f 44 8f bd
       -0.026051745 0.03098083 0.02546137 -0.06995427
0003b0 02 74 bc 3d a3 5a 02 bd 8b 2e 32 3c 0d a6 12 bb
       0.09201814 -0.03182472 0.0108753545 -0.0022376806
0003c0 5b ff 3a 3d 11 98 3c 3d 1b 72 07 3e 31 39 8f 3c
       0.045653682 0.04604346 0.13227122 0.017483326
0003d0 c5 25 9e 3d d5 b8 05 3d 8f 86 79 3d 4a 65 2c 3e
       0.07722048 0.032646973 0.06091934 0.16835514
0003e0 d5 ac 35 3d 05 07 b3 bd 65 80 97 bd b9 ac 64 3b
       0.04435428 -0.08741573 -0.07397536 0.003489299
0003f0 42 3b 94 bd 4f f5 18 bd a3 01 23 3d 01 9a be bd
       -0.07237865 -0.03734332 0.039796483 -0.09306718

convs.2.lin_l.weight f4 [128, 128]
000000 7c b8 0c bd 71 00 da 3c 2b 4c ec bc 01 97 9e bd
       -0.034355626 0.026611539 -0.028844913 -0.077436455
000010 63 2d d4 3c 12 4d 10 bc bb 72 24 bd 5b b8 2b 3d
       0.025900548 -0.0088074375 -0.040148478 0.041923862
000020 08 1c 05 3d 29 8b d3 3c 10 68 09 bd 7c 54 b9 bb
       0.032497436 0.025823193 -0.033546507 -0.0056558233
000030 52 48 48 bc 4a 6b 10 3d f0 e0 80 bc 76 06 a7 3d
       -0.012224274 0.03525857 -0.015732259 0.08155529
000040 be b9 9c 3c 13 d0 31 bb 84 d3 8e 3c 92 bd 99 3b
       0.019131538 -0.0027132079 0.017434843 0.004691788
000050 be d5 24 bd 26 5a f5 3c c0 c2 11 bd 6b 03 c8 bb
       -0.040242903 0.029950213 -0.03558612 -0.006103923
000060 c1 bd 96 3c c0 f9 07 bd 70 7c 5b 3c 9a 93 aa bb
       0.018401029 -0.033197165 0.013396367 -0.0052055838
000070 97 3e e5 bb ba ae 94 bd 03 2c 58 bd 0c 36 39 bd
       -0.0069959867 -0.07259889 -0.052776348 -0.04521756
000080 5d 3a b4 3b b0 ae 92 3d 54 30 cb 3d 06 1c c3 bd
       0.0055001215 0.07162225 0.09921327 -0.095268294
000090 51 5b e2 bb 29 a7 8f bd 3f 61 71 3d a4 97 eb 3c
       -0.0069078584 -0.07014305 0.05893063 0.028758831
0000a0 b8 b0 8f 3d f3 30 f3 bc da c3 fa 3b 97 08 bb bd
       0.07016128 -0.029686427 0.007652742 -0.09132498
0000b0 55 53 29 bd 6b 03 a0 3d 71 0c fd 3b 76 43 6e bd
       -0.041339237 0.07813152 0.0077224304 -0.058169805
0000c0 9e c9 44 bd c4 d5 88 3d 43 54 95 3c 27 e2 36 bd
       -0.04804384 0.066813976 0.018228656 -0.04464927
0000d0 2d 67 41 bd 2f db 59 bc 56 3d 15 bd 06 67 35 ba
       -0.047217537 -0.013296886 -0.036435448 -0.0006919954
0000e0 65 06 a8 bc 8e a6 73 bd 0a 20 ec bc 05 42 ef bd
       -0.020510862 -0.05948501 -0.028823871 -0.11682514
0000f0 41 93 49 bd 95 bf 22 bc 1c 85 1e bc 3f 6d e0 bd
       -0.049212698 -0.009933372 -0.00967529 -0.10958337
000100 bd 09 cb bd 0a 95 a8 bc 0c 1d 40 3d 02 6f dc bc
       -0.09913967 -0.02057888 0.0469027 -0.026908401
000110 3e 91 e2 bd ac f1 aa bd 31 23 49 3d d0 f4 17 bd
       -0.11062859 -0.083468765 0.049105827 -0.037098706
000120 4b e7 74 bc f1 7b 8f 3d 24 72 a2 3d 11 4e 01 3d
       -0.014947723 0.07006062 0.07931927 0.03156859
000130 5b b3 b7 3c d3 56 49 3d 01 b9 2b bb 6f e5 ec bd
       0.02242439 0.049155068 -0.00262028 -0.115671985
000140 cd 2a 20 bc f8 9e 63 bd 99 7a ba bd 8b 24 49 bd
       -0.0097758295 -0.055571526 -0.09105415 -0.049107116
000150 40 b8 37 bd ff 78 84 bd 19 4d 09 3c ef ac f3 bc
       -0.04485345 -0.06468391 0.008380198 -0.029745547
000160 70 cc b2 3d 5a 0a 68 bd 98 93 04 3d d6 d1 81 3c
       0.087303996 -0.056650497 0.03236732 0.015847128
000170 69 f6 78 bd ce cb 69 bd 64 e3 a0 bd 70 6b 1f 3d
       -0.06078187 -0.05707913 -0.07855871 0.03892082
000180 07 2a 73 bd 55 0b 24 bc 4c e7 a5 bd bc fd 48 3d
       -0.059366252 -0.010012467 -0.08100757 0.049070105
000190 32 fd 17 3c a9 85 70 3d c6 b8 17 bc d0 0b 3c bd
       0.009276675 0.05872122 -0.009260362 -0.045909703
0001a0 5c 47 3f bc d6 24 08 bc 99 83 01 be 73 11 ad bd
       -0.011674728 -0.008309564 -0.12647857 -0.08450594
0001b0 f8 59 9c bc 84 80 69 3d e6 c0 9b bd 33 fc 99 3d
       -0.01908587 0.057007328 -0.07605152 0.07518806
0001c0 8f ea 0e 3d 2d 52 2d 3b 63 1e f6 bb 3f 37 80 bd
       0.03489166 0.0026446686 -0.0075109466 -0.06260537
0001d0 49 d9 db bd e7 74 d1 bd 60 66 10 3c 92 7c aa bb
       -0.10734803 -0.102273755 0.008813471 -0.005202838
0001e0 76 0e 66 bd 55 a5 ef bc 81 fc b6 bd db bc dd 3b
       -0.056166135 -0.029253641 -0.0893488 0.006766898
0001f0 0d b1 1d 3d 7d 92 00 3d 41 94 90 bd b9 6e 1a 3c
       0.038498927 0.031389702 -0.07059527 0.009425812
000200 3c c1 b1 3a f4 b7 99 3d fb 11 b1 3d f7 e2 e5 3c
       0.0013561617 0.075057894 0.086460076 0.028062327
000210 1a 38 49 3a d7 a3 1b bc 9b 5a 21 3c 39 b5 dd b9
       0.0007675901 -0.009499512 0.009848262 -0.00042287426
000220 f4 7b eb bc 4a 60 77 bd 0e 7c 1c bd 8e 72 46 bd
       -0.028745629 -0.060394563 -0.038204245 -0.04844909
000230 0e 9f 7a bc 02 8c 13 bd 1f d7 22 bd 81 02 90 3d
       -0.015296711 -0.036022194 -0.039755937 0.070317276
000240 1e ed 29 bd 30 99 e0 bb 66 5e 09 bc b9 8c 06 3d
       -0.0414859 -0.006854199 -0.008384323 0.032849047
000250 6a cb 73 bd 6a d2 b6 bd b7 a6 46 bd e0 6d 99 3c
       -0.059520163 -0.08926852 -0.048498835 0.01872915
000260 ca 7d 72 3d ae 7c 84 3d 3e 71 ca 3d 29 8c 61 bc
       0.059201993 0.06469093 0.098848805 -0.013766327
000270 de 7b 1d bd 23 5e 98 3d 4c 3e 0b bd d4 33 18 3d
       -0.038448207 0.0743983 -0.033994958 0.037158802
000280 59 e5 a8 3d fd 47 9b 3d 15 ac 96 3b 25 89 b2 3c
       0.082468696 0.0758209 0.0045981505 0.021793911
000290 49 05 d6 3c 1f 21 5c 3c a7 97 8b bc 67 31 9d bc
       0.026125567 0.013435631 -0.017040087 -0.019188596
0002a0 4c 9d bf 3d be df 50 bd 03 89 05 3d 02 d3 93 3c
       0.09356174 -0.050994627 0.032601368 0.018044952
0002b0 06 78 e2 3d 57 ce 62 bb 9f 66 0c 3d 3f e2 a8 bd
       0.11058049 -0.0034607851 0.034277555 -0.08246278
0002c0 1f 06 69 3c 11 55 77 bc 54 68 d3 bb d9 76 87 bc
       0.014222651 -0.015095965 -0.006451646 -0.016536163
0002d0 be 04 b9 3c a5 d2 52 3d 88 af 6d 3d 4c d6 2c 3d
       0.022585269 0.051470418 0.058028728 0.042196557
0002e0 68 13 3b bd dc 6e d8 3c 2b 42 9f 3c 08 77 5b bc
       -0.045672804 0.02642005 0.019440731 -0.0133950785
0002f0 fd 4a e5 3c fb a2 a3 bc 3b ee e7 3c de 83 cc 3d
       0.027989859 -0.019975176 0.02831184 0.09986089
000300 3d 00 81 bd bc 30 1b 3e 3e b1 a0 bd 76 5d 90 3d
       -0.062988736 0.1515531 -0.07846306 0.07049076
000310 f2 3f f1 bc 2f 9b 61 bd 3f f3 18 3d 42 95 1f bd
       -0.029449437 -0.055079635 0.037341353 -0.038960703
000320 bc 40 6a bd 51 de 33 3d fd ae 66 3d d1 ff e5 3c
       -0.05719064 0.04391319 0.056319226 0.028076084
000330 ce cf 85 3d 29 d5 ed 3c b3 b4 de bc fd 6c 2b 3d
       0.06533776 0.029032307 -0.027185773 0.041851986
000340 cf c5 64 3d 4c 13 76 bd 10 e2 95 3d c0 5d a8 bb
       0.055852707 -0.060076997 0.073185086 -0.005138129
000350 fe 05 a8 3b 49 5d ae 3c 55 d8 2a 3d c7 6c df 3d
       0.0051276674 0.021284716 0.041710217 0.109094195
000360 6e 67 e1 3c 68 01 61 bc eb c4 c7 bd 19 e3 07 3d
       0.02751514 -0.013733245 -0.09754356 0.03317556
000370 53 7d 0c bd 93 e3 7c bc 9b ec b4 3d ce 50 10 3d
       -0.034299206 -0.015435117 0.088341914 0.03523331
000380 8f 41 36 3d ba a4 24 3d 0a 2b 44 3d 6c df 82 ba
       0.044496115 0.040196158 0.047892608 -0.0009984798
000390 ad 3b a8 3c 6e 28 f1 3d f0 02 d5 3d 40 a3 c7 3d
       0.020536268 0.117752895 0.10400951 0.09747934
0003a0 d8 87 b6 3d 49 4d ff 3c 55 9a df bc c3 ae 91 3d
       0.08912629 0.031164782 -0.027295271 0.07113411
0003b0 d9 68 1a 3d e9 f7 81 bd 50 a7 a7 bd 92 c2 c3 3d
       0.037697647 -0.06346113 -0.08186209 0.09558596
0003c0 43 23 5a bc 83 a9 01 3d 91 6c ce 3c 9e ae db 3d
       -0.013314071 0.0316558 0.025198253 0.10726665
0003d0 b5 5c 22 bd 2b 7a d7 3d c3 43 18 3d be 24 99 bd
       -0.039639194 0.105213486 0.037173998 -0.07477711
0003e0 c7 b1 a8 bc 8c c3 17 bd f6 43 4c 3d b4 bd 62 b9
       -0.020592583 -0.037051722 0.0498695 -0.0002162371
0003f0 b0 b1 ad bd 78 2e cb bc 19 01 7a bd 0e 97 0a 3e
       -0.08481157 -0.024802431 -0.061036203 0.13534185

convs.2.lin_l.bias f4 [128]
000000 7c 23 fa bc 12 2f dc 3b 3e 21 91 3d 9b c4 0b bd
       -0.030534498 0.0067194784 0.070864186 -0.034123044
000010 a7 5c d5 3d 0f 50 3c bd f7 21 bf 3d 4a 87 97 3c
       0.10418063 -0.045974787 0.0933265 0.018497128
000020 a7 05 2b 3c 7b 51 81 3c a8 3a 17 3c 17 a1 80 bd
       0.010438359 0.015785923 0.009230293 -0.062807254
000030 06 46 71 3d 06 98 30 bd c7 cc d2 3d 35 a6 b7 3d
       0.05890467 -0.04311373 0.102929644 0.08967248
000040 7d ad 26 3d 68 0b e0 ba af 70 be bc 66 43 0a bd
       0.040692795 -0.0017093243 -0.023247091 -0.033755682
000050 91 8a 53 bd ab 24 96 bd b6 db d3 bc aa 7f 5d bd
       -0.05164582 -0.073312126 -0.025861602 -0.054076828
000060 cd d1 cc 3c 0e ca c8 bb ae cc 2b 3c 60 8e b0 3c
       0.025002385 -0.0061276024 0.010485811 0.021552265
000070 5c 92 b4 3d 26 64 de bc 17 1d 42 3d 42 76 09 3d
       0.08816978 -0.027147364 0.047391023 0.033560045
000080 e4 d9 13 3d 7c 20 65 3d 84 df 95 bb ca 40 65 bd
       0.03609647 0.055939183 -0.0045737643 -0.05596999
000090 b0 b0 57 3d fd 69 57 3c ee ff 5b 3d c9 13 d4 bc
       0.052658737 0.013147828 0.05371087 -0.02588834
0000a0 1a 7a 1d bc d2 2f 95 bc 3f a9 87 3d 1d a7 72 bc
       -0.009611631 -0.018211279 0.06624078 -0.014810351
0000b0 b3 84 ae bd 3a 34 4b bb 6d a4 41 bd 0d a1 87 3c
       -0.08521404 -0.0031006471 -0.04727595 0.016556287
0000c0 c8 2f 6b 3c 21 fa 32 3b 9a 78 b6 3d 99 d3 89 bc
       0.014354654 0.0027309733 0.08909722 -0.01682453
0000d0 e9 74 5e 3d d4 ef 5b bd f9 5b c3 3b bc 5e 8c 3d
       0.054310713 -0.053695515 0.0059618917 0.06854007
0000e0 75 b8 0a 3d 52 17 8a 3d d4 26 59 bd be 89 28 bd
       0.03386732 0.06742729 -0.053015545 -0.041146986
0000f0 3c 75 53 3d d8 d7 5b 3d f7 9f 90 bc 5a 68 a3 bd
       0.051625475 0.05367264 -0.017654402 -0.07978888
000100 af 0a cc bc 74 c9 94 bd c7 88 6a 3d c7 ab 44 bd
       -0.024907438 -0.07264987 0.057259347 -0.048015382
000110 08 b0 a1 3d 0c fb a1 bc 41 89 a2 3d 2a 42 a3 bc
       0.078949034 -0.019773029 0.07936335 -0.01992901
000120 c1 0c a3 bc fd 41 9c bc 33 a6 a5 3d 9a b8 5d 3d
       -0.019903542 -0.019074434 0.080883406 0.054131128
000130 73 05 35 bc 38 6b cb bc 91 f5 18 bd 03 2b 36 3d
       -0.0110486625 -0.0248314 -0.037343565 0.044474613
000140 f4 0f 7c bd cd df 84 bd 4c e0 d8 bc 91 f3 d4 3d
       -0.06153865 -0.06487999 -0.02647414 0.10398019
000150 8a 66 7f 3d 86 a1 d6 3d a5 00 26 bb 90 7e af bc
       0.06235365 0.10480027 -0.0025329974 -0.021422654
000160 f6 5c 03 3d 30 39 8c 3c 56 63 13 bd a7 f6 a3 3d
       0.032071076 0.017117113 -0.035983406 0.080060296
000170 43 5b c8 3d aa 6b b0 bd 11 23 a0 3d 0a b5 9a 3d
       0.09783032 -0.08614285 0.078191884 0.07554062
000180 aa 73 d6 3b 1d 10 46 3c 5d 1e 89 3b f8 4a af 3b
       0.00654455 0.012088803 0.004184528 0.005349513
000190 63 b4 26 bb 3d 2b be bd 1e 15 3d 3d 81 13 1a bd
       -0.0025437109 -0.09285591 0.046162717 -0.037616257
0001a0 35 2d 44 bd a5 ea a8 3c 48 2f bc bd 1f 91 81 3c
       -0.047894675 0.0206197 -0.09188706 0.01581627
0001b0 55 ce f2 bc 0d 59 a0 bc ea 92 c8 bc 78 10 46 bd
       -0.029639402 -0.019573713 -0.024484117 -0.04835555
0001c0 5a e2 fd bc 0d 2e 0d 3d 7e cc 4c bd 93 95 45 bc
       -0.030991722 0.034467746 -0.049999706 -0.012059587
0001d0 2f 96 3a bb a7 7b 00 bc 7d dd 8b 3d 2b e3 3f 3d
       -0.0028470864 -0.007841981 0.06829355 0.046847504
0001e0 49 75 f8 3c 33 da 50 3d 67 25 09 3d 89 c8 b7 bd
       0.030329363 0.05098934 0.033482935 -0.08973796
0001f0 77 3e d1 3c db 0b 65 bd 5c 07 98 3d 1c e3 64 bd
       0.02554248 -0.05591951 0.07423279 -0.05588065
