src/jupyter/GCN_best_loss_sage_model_weights.pth (torch, 915287 bytes, 13 tensors)

convs.0.lin_l.weight f4 [256, 183]
0	0xbb8a0ce9	-0.004212965
1	0x3bb7ad0d	0.005605346
2	0xbd83d536	-0.06437151
3	0x3a994f7e	0.0011696664
4	0x3ca50aa0	0.020146668
5	0x3d0b7dfc	0.034055695
6	0x3d88d8da	0.06681986
7	0xbd1dd004	-0.038528457
8	0x3c87da24	0.01658351
9	0x3d086943	0.03330351
10	0xbad04995	-0.001589107
11	0xbac2b944	-0.0014856239
12	0xbd642e6b	-0.05570833
13	0x3d891024	0.06692532
14	0xbd274f61	-0.040847186
15	0x3d9996d0	0.07499468
16	0x3d4b30af	0.049606975
17	0xbc4bf7b3	-0.012449193
18	0x3d1f5e62	0.03890837
19	0xbc4db6d3	-0.012555796
20	0x3d3abdaf	0.045591053
21	0x3cddb0d8	0.027061865
22	0xbcc6072a	-0.024173338
23	0x3c235074	0.009967912
24	0xbcd463b5	-0.02592645
25	0xbcba23df	-0.022722183
26	0x3c85bc12	0.01632503
27	0xbb1953d4	-0.0023395913
28	0xbd0250bc	-0.031815276
29	0x3d7bdb75	0.061488587
30	0xbd2c6008	-0.04208377
31	0xbc918939	-0.017765628
32	0x3c0b79a4	0.008512888
33	0x3cc3b73b	0.023891082
34	0xbd91e7ba	-0.071242765
35	0xbcad66e3	-0.021167224
36	0x3d68ca7b	0.056833725
37	0xbb314278	-0.0027047675
38	0xbca786ed	-0.02045008
39	0x3cf9d09e	0.030494984
40	0xbd84fd1d	-0.0649359
41	0xbd38eb0b	-0.04514603
42	0xbd3ca5a2	-0.046056397
43	0xbd77ec66	-0.06052818
44	0xbda43cef	-0.08019435
45	0x3ca0454e	0.019564297
46	0xbcf58d96	-0.02997474
47	0xbc2e19a0	-0.010626227
48	0xbd2c2cbe	-0.042034857
49	0xbc72df7e	-0.0148237925
50	0xbda4d401	-0.08048249
51	0x3d1c60ae	0.03817814
52	0x3d27751c	0.04088317
53	0x3bf6deff	0.0075339074
54	0xbc3dc656	-0.0115829315
55	0xbc3c7c8c	-0.011504304
56	0xbd8a4066	-0.06750564
57	0xba9516e1	-0.0011374616
58	0xbd52276e	-0.051307134
59	0xbd7808f5	-0.060555417
60	0xbbd0ab9f	-0.006368115
61	0x3d06ef2d	0.03294294
62	0xbd8b8b53	-0.06813683
63	0x3cbc5e1c	0.022994094
64	0x3d90ddd2	0.07073559
65	0xbd61f49d	-0.055164922
66	0x3d2dda13	0.0424443
67	0xbc8c0c49	-0.017095702
68	0xbd2229b7	-0.039590564
69	0x3cc6731c	0.02422481
70	0xbcfd6fe1	-0.030937137
71	0x384328ed	4.6529738e-05
72	0xbc84180a	-0.016124744
73	0x3d7408ae	0.05957859
74	0xbae19d35	-0.0017212989
75	0x3cbeda7f	0.023297546
76	0xbbb594c2	-0.005541415
77	0xbd851f1b	-0.065000735
78	0x3bb72700	0.005589366
79	0xbb2601c0	-0.0025330633
80	0xbcbcc1b6	-0.023041587
81	0x3d953b80	0.07286739
82	0xbd73ee9b	-0.059553724
83	0xbd083a3a	-0.033258654
84	0xbd78c894	-0.06073816
85	0x3d59e112	0.05319316
86	0xbd31eedc	-0.043440685
87	0x3d61e85d	0.05515324
88	0x3d2757b4	0.040855125
89	0x3d66b76a	0.05632726
90	0x3d1af197	0.037828054
91	0xbd14bc11	-0.036312167
92	0x3d20085a	0.039070465
93	0x3c02caf7	0.007982961
94	0xbc398213	-0.011322516
95	0x3d4378cc	0.047722623
96	0x3ca0a438	0.019609556
97	0xbd5ac8f5	-0.053414304
98	0x3ca9e4cc	0.020738982
99	0x3c4b15c0	0.012395322
100	0x3da506d2	0.080579415
101	0xbbb1287f	-0.005406439
102	0x3d357a3b	0.04430602
103	0xbc6077b1	-0.013700412
104	0xbd8d01f6	-0.0688514
105	0x3d2e54e0	0.04256141
106	0x3c8d183a	0.017223466
107	0xbca52f57	-0.020164175
108	0xbd01c173	-0.03167863
109	0xbd5f99b9	-0.05458996
110	0x3cb90848	0.022586957
111	0xbd355c28	-0.04427734
112	0xbcde66b2	-0.027148578
113	0xbd19b0d8	-0.037522167
114	0x3d9170ca	0.07101591
115	0x3d9c6669	0.07636721
116	0xbc2fb55d	-0.010724393
117	0x3d1cc231	0.038271133
118	0xbd08f91b	-0.03344069
119	0x3c74a4f6	0.014931908
120	0x3d2d6c71	0.042339746
121	0x3d371fbe	0.044708006
122	0xbc0740ad	-0.008255166
123	0xbcb1fd03	-0.02172709
124	0x3c374996	0.011186978
125	0x3ca40b7d	0.02002501
126	0x3cdfd6e2	0.027324144
127	0xbcac27a1	-0.02101499
128	0xbddf4b01	-0.10902978
129	0x3caea05b	0.021316698
130	0x3c8fd373	0.017556882
131	0xbd2c7581	-0.042104248
132	0x3d763143	0.060105573
133	0x3c9d33f1	0.019189807
134	0xbd601639	-0.054708693
135	0xbd6d6081	-0.05795336
136	0x3b533fa5	0.003223398
137	0xbc450b24	-0.012026582
138	0xbd275f8c	-0.040862605
139	0xbd304e49	-0.04304341
140	0xbd0e1062	-0.034683593
141	0x3d1a520f	0.037675913
142	0xbc945e39	-0.018111335
143	0xbd08f8f9	-0.033440564
144	0xbccb890e	-0.024845626
145	0xbb800aec	-0.003907552
146	0xbcee6b81	-0.029103996
147	0x3d6d2f79	0.0579066
148	0xbca56bb2	-0.020192955
149	0x3d433171	0.047654573
150	0xbcddb5a5	-0.027064154
151	0xbcd5a1d9	-0.026078152
152	0xbd3dac37	-0.046306815
153	0x3cd85fec	0.026412927
154	0x3d93a26a	0.072087124
155	0x387ffefd	6.1034214e-05
156	0x3cfff6e8	0.031245664
157	0x3d1233d8	0.035693973
158	0x3c9e052d	0.019289577
159	0x3cf4d035	0.029884437
160	0x3d739da7	0.05947652
161	0xbcdc9ea4	-0.026931114
162	0xbcc66adf	-0.024220882
163	0x3c4e7ac7	0.012602515
164	0x3c8df88b	0.017330429
165	0xbce6b37e	-0.02816176
166	0x3cdfe852	0.027332459
167	0x3ccd7aa2	0.02508289
168	0x3ce08492	0.027406964
169	0x3b9e5727	0.0048321667
170	0xbcec6187	-0.028855098
171	0xbd8323a8	-0.06403285
172	0x3d850960	0.06495929
173	0xbc2b147d	-0.0104418965
174	0xbd9c046b	-0.0761803
175	0xbd2a2218	-0.04153642
176	0xbca25c8e	-0.019819524
177	0x3d5dbe34	0.05413647
178	0x3b359f1b	0.0027713242
179	0xbc32009a	-0.010864401
180	0xbcf1ff83	-0.029540783
181	0x3d8972bd	0.06711338
182	0xbd902cf8	-0.07039827
183	0xbd3e60ff	-0.04647922
184	0xbd6b9d81	-0.057523254
185	0x3d27c263	0.040956866
186	0xbd2a0771	-0.041511003
187	0x3d450588	0.048100978
188	0x3c14e4ae	0.009087725
189	0x3d38389b	0.04497586
190	0xbc6d3edf	-0.014480322
191	0x3d93dc7b	0.07219788
192	0xbd6d3f6b	-0.05792181
193	0x3d5dd28f	0.054155882
194	0x3b102eb1	0.0022000486
195	0x3a701faa	0.0009159992
196	0x3cfde7bd	0.03099429
197	0x3c89ed2e	0.016836729
198	0x3d97aec4	0.07406381
199	0xbd3ae3f8	-0.045627564
200	0xbd2e9614	-0.042623594
201	0x3c81ff25	0.015868733
202	0x3cacd77f	0.02109885
203	0x3cc74173	0.0243232
204	0x3c995d0d	0.018721128
205	0xbd14af64	-0.036300078
206	0xbd90d1a9	-0.070712395
207	0x3c5f7aa7	0.013640082
208	0xbc65eec9	-0.014033982
209	0x3d20ed12	0.039288588
210	0xbd569c76	-0.052395307
211	0x3d117f8f	0.03552204
212	0xbd8d6d7a	-0.069056466
213	0x3d164b23	0.03669275
214	0xbc770f50	-0.015079334
215	0xbd3de840	-0.04636407
216	0x3d30f219	0.043199632
217	0xbd976db3	-0.0739397
218	0x3d44e449	0.048069272
219	0x3c135521	0.008992464
220	0xbd6d3c6d	-0.057918955
221	0x3d92e38d	0.07172308
222	0x3db2d07b	0.08731171
223	0x3d8f258b	0.06989583
224	0xbd7ff436	-0.062488757
225	0x3c636345	0.013878648
226	0xbd7efd77	-0.06225344
227	0xbd3e01ec	-0.04638855
228	0xbbf26909	-0.007397775
229	0xbd72ab90	-0.059245646
230	0xbd5f3a9c	-0.054499254
231	0x3d6fe469	0.05856744
232	0xbcab55cb	-0.020914933
233	0x3d7a976a	0.061179556
234	0x3afb8e3c	0.001919217
235	0x3d28d6b1	0.04122037
236	0xbd1383a9	-0.036014233
237	0x3d18820e	0.037233405
238	0xbd23d1b7	-0.03999492
239	0xbcdd9488	-0.027048364
240	0x3c4f9291	0.0126692215
241	0x3d816726	0.06318502
242	0x3c96075e	0.01831406
243	0xbcda37f9	-0.026638018
244	0x3bbf3e80	0.005836308
245	0x3c437c2a	0.0119314585
246	0x3d88e3c6	0.06684069
247	0x3d6f486d	0.05841868
248	0x3da74bf2	0.08168782
249	0x3d089d86	0.03335335
250	0xbd63eb4a	-0.05564431
251	0x3d81650d	0.06318102
252	0xbcfe4f56	-0.03104369
253	0x3d928fa5	0.07156304
254	0xbc3b3886	-0.01142705
255	0xbd498b05	-0.049204845

convs.0.lin_l.bias f4 [256]
0	0x3d26d36b	0.040728968
1	0x3db08d19	0.08620662
2	0xbc9b1ca4	-0.018934555
3	0x3cad41b6	0.021149497
4	0xbc98ceeb	-0.018653354
5	0x3caf9b8c	0.021436475
6	0x3bfb95db	0.0076777763
7	0xba9526ea	-0.0011379395
8	0x3c8078b5	0.015682558
9	0x3d562df0	0.052289903
10	0x3d411e68	0.04714814
11	0x3d1936df	0.037405845
12	0x3d72cb6b	0.059276026
13	0xbd1bea04	-0.03806497
14	0x3cdbad6f	0.026816098
15	0xbdb32b57	-0.08748501
16	0xbcd7920e	-0.026314761
17	0xbd34f517	-0.04417905
18	0x3d50a00f	0.050933894
19	0x3d657a64	0.056024924
20	0x3c98d61b	0.018656781
21	0xb9eb12e1	-0.0004483676
22	0x3bb75519	0.005594861
23	0x3d1b665c	0.037939414
24	0x3d3eb44a	0.046558656
25	0x3d11702e	0.035507374
26	0xbd5faea5	-0.054609913
27	0x3d96e1e3	0.07367303
28	0x3d7b3f0b	0.06133942
29	0x3c913cc8	0.017729178
30	0x3d647fed	0.055786062
31	0x3d6dd6a8	0.05806604
32	0x3cb7fc71	0.02245924
33	0x3c078c24	0.008273158
34	0x3cc6bcc4	0.024259932
35	0xbd85d760	-0.0653522
36	0xbcb6a8d0	-0.022297293
37	0x3d2a7fd7	0.041625824
38	0x3c58198e	0.013189686
39	0x3c1dafd7	0.009624443
40	0x3cdfbb89	0.027311103
41	0xbd76c081	-0.06024218
42	0xbcd34f49	-0.025794642
43	0x3d372cbb	0.044720393
44	0xbc580fc7	-0.013187355
45	0x3cfbf2b0	0.03075537
46	0x3cdfdc5c	0.027326755
47	0xbd419c38	-0.047268122
48	0xbc9027ea	-0.017597158
49	0xbd5b919b	-0.053605657
50	0x3d03febe	0.032225363
51	0x3d5395f3	0.051656675
52	0x3cc567ee	0.02409741
53	0x3d38a038	0.04507467
54	0x3d38f178	0.045152158
55	0xbd82b44e	-0.06382047
56	0x3d2bc805	0.0419388
57	0x3d8d879d	0.06910632
58	0x3bd407b2	0.006470644
59	0x3d6b2829	0.057411347
60	0x3d837218	0.06418246
61	0xbc0f5e9b	-0.008750583
62	0xbd6cf903	-0.057854664
63	0xbd4a6c10	-0.049419463
64	0x3c1f2755	0.009713967
65	0x3cbb8bc6	0.022893798
66	0xbc368926	-0.011141097
67	0xbbec4ae9	-0.0072110784
68	0xbc229050	-0.009922102
69	0x3d8e1d5c	0.069391936
70	0x3d235f87	0.039886024
71	0x3bcd979d	0.006274177
72	0x3cee95ab	0.029124102
73	0x3d3ee294	0.0466028
74	0x3d770e73	0.060316514
75	0xbd01071e	-0.031500928
76	0x3ca407bd	0.020023221
77	0xbc4f60b5	-0.012657334
78	0x3d913430	0.07090032
79	0x3ce96efc	0.028495304
80	0xbc99b6fd	-0.018764013
81	0xbd3c1222	-0.04591573
82	0x3d65ea71	0.056131784
83	0x3d8b2280	0.0679369
84	0x3cdc193f	0.026867507
85	0xbd3cb50d	-0.0460711
86	0xbc8dc973	-0.017307973
87	0x3ce7575e	0.028239902
88	0x3d299b5d	0.04140793
89	0xbd0e139b	-0.034686666
90	0xbd3cff42	-0.04614187
91	0x3d4bd17b	0.049760323
92	0xbbb12e4f	-0.0054071317
93	0xbbb7284c	-0.0055895206
94	0x3da2dbfa	0.079521134
95	0x3d4620e4	0.04837121
96	0xbd03f242	-0.032213457
97	0x3c2e0732	0.010621833
98	0x3c934b34	0.017980196
99	0xbcadf4ea	-0.021234948
100	0xbd352b04	-0.044230476
101	0xbd5401aa	-0.0517594
102	0xbca0b5ee	-0.019618
103	0xbd8f9f35	-0.07012788
104	0xbc9387e8	-0.018009141
105	0x3d2310de	0.039811008
106	0xbc7b0b46	-0.015322512
107	0x3c6b970a	0.014379272
108	0x3d93e069	0.07220537
109	0x3d7038ff	0.058648106
110	0x3d4d53a8	0.05012861
111	0x3d858420	0.065193415
112	0x3c58ff22	0.013244422
113	0xbc5146c6	-0.012773221
114	0x3d18c84f	0.037300404
115	0x3a3b08d1	0.00071347976
116	0x3d07ae75	0.03312536
117	0xbc4d1640	-0.012517512
118	0x3ceb895b	0.02875202
119	0x3c4b30a2	0.012401732
120	0xbc4e867e	-0.012605308
121	0xbbd680ba	-0.006546107
122	0xbd19ad99	-0.03751907
123	0xbcb75279	-0.022378193
124	0xbd0b257d	-0.0339713
125	0xbd90d9da	-0.07072802
126	0x3d911f75	0.07086078
127	0xbcf6f817	-0.030147595
128	0xbd78ec7f	-0.060772415
129	0x3cbd960a	0.023142833
130	0xbbaecd1c	-0.0053345095
131	0x3c008168	0.007843353
132	0xbd6f7eb5	-0.058470447
133	0xbcab2094	-0.020889558
134	0xbd03802a	-0.03210465
135	0xbc8796ed	-0.01655146
136	0x3c8ee7d9	0.017444538
137	0x3d0d17a2	0.034446366
138	0x3c496a3b	0.012293394
139	0x3d0f5fe8	0.035003573
140	0x3d8ae825	0.06782559
141	0x3d561f85	0.052276153
142	0xbc3ac343	-0.011399093
143	0xbd0c02f4	-0.034182504
144	0x3dc10f39	0.094267316
145	0x3cfcdaf3	0.030866122
146	0xbd0e622d	-0.034761596
147	0x3c388ead	0.011264485
148	0x3db42fc0	0.0879817
149	0xbd5bfde1	-0.053708915
150	0xbbf907bb	-0.0075997985
151	0x3cb170a7	0.021660162
152	0xbd5c7ca4	-0.053829804
153	0x3d8152bf	0.06314611
154	0xbd845da8	-0.06463176
155	0xbd68e4ba	-0.056858756
156	0xbd753ef3	-0.059874486
157	0x3cd092ae	0.025460567
158	0xbd305fc0	-0.043060064
159	0xbd4e3e7f	-0.05035257
160	0x3d1afb7b	0.037837487
161	0xbc9a9c03	-0.01887322
162	0xbd855feb	-0.065124355
163	0xbc9c1bf0	-0.01905629
164	0x3c92108c	0.017830156
165	0xbd6983a1	-0.057010297
166	0x3c9c29ce	0.019062903
167	0x3d6a66f0	0.057227075
168	0x3daa3e26	0.08312635
169	0xbd5453e3	-0.051837813
170	0xbc65da54	-0.014029104
171	0x3d956a4b	0.072956644
172	0x3d8b75de	0.06809591
173	0x3d2fbba6	0.042903565
174	0xbd5d8875	-0.054085214
175	0x3bca9a58	0.00618295
176	0x3d2a4c30	0.041576564
177	0x3d36835a	0.04455886
178	0x3d12b441	0.035816435
179	0xbd4abce5	-0.04949655
180	0x3cb4a7ed	0.02205273
181	0xbda43ec2	-0.080197826
182	0xbcd971b1	-0.02654347
183	0x3aa63a00	0.001268208
184	0xbcf537a7	-0.029933764
185	0x3d1db134	0.038499072
186	0xbc2f3efd	-0.01069617
187	0xbd83b485	-0.06430916
188	0x3d88496f	0.06654631
189	0x3db12bed	0.08650956
190	0x3d882d54	0.06649271
191	0xbd3f86fb	-0.046759587
192	0xbd2f8b38	-0.04285738
193	0x3b24a8cc	0.0025125025
194	0xbd8fa2bc	-0.07013461
195	0xbcbb124b	-0.022835871
196	0x3cc52c18	0.024068877
197	0x3d6e3111	0.058152262
198	0x3da6cec1	0.08144904
199	0x3daa46cd	0.083142854
200	0x3d3b6490	0.0457502
201	0xbd55bb92	-0.052180834
202	0x3d35f653	0.044424366
203	0xbcb6907f	-0.022285698
204	0xbaacf425	-0.0013195319
205	0xbd44ad5e	-0.0480169
206	0x3ca24d55	0.019812265
207	0xbd28127e	-0.04103326
208	0x3c9cc148	0.019135132
209	0xbd0cccf2	-0.03437514
210	0xbce2161d	-0.027598435
211	0xbcdf814d	-0.027283335
212	0x3c597cc9	0.01327438
213	0x3ca4effc	0.020133965
214	0xbd9bc258	-0.076054275
215	0x3d6f1f8a	0.058379687
216	0xbd824c26	-0.063621804
217	0x3c272fd6	0.010204276
218	0xba12e7f1	-0.000560402
219	0xbd7354b4	-0.05940695
220	0xbcffb8bf	-0.031216023
221	0xbd2118e3	-0.039330374
222	0x3d0a93d6	0.033832394
223	0xbbfe08ed	-0.007752529
224	0x3ca4a36e	0.02009746
225	0xbd8fc44d	-0.07019863
226	0x3cee24d9	0.029070305
227	0xbcc44c2c	-0.023962103
228	0x3cf3b6c1	0.02975023
229	0xbc6bbfa4	-0.014388952
230	0x3d55c12f	0.052186187
231	0xbca46f47	-0.020072592
232	0xbcd31952	-0.02576891
233	0x3d4b2e8e	0.049604945
234	0xbd1a1bff	-0.037624355
235	0x3d834387	0.06409364
236	0x3ce82416	0.02833752
237	0xbd423f9b	-0.04742394
238	0x3cd727a2	0.026264016
239	0xbcc8addc	-0.024496965
240	0x3d571fbb	0.052520495
241	0xbd367c12	-0.044551916
242	0x3d3a35e8	0.045461565
243	0xbd0cf38a	-0.034411944
244	0xbd4bb828	-0.049736172
245	0x3d8948cf	0.0670334
246	0xbd1e57dc	-0.038658008
247	0xbb44cb66	-0.0030028461
248	0xbcbe4fcb	-0.023231408
249	0x3d5b40c5	0.053528566
250	0xbd6ef525	-0.058339257
251	0x3c52b9aa	0.012861649
252	0x3d5d0efb	0.053969365
253	0x3d4d779f	0.050162908
254	0x3ae006f3	0.0017091915
255	0x3cf35335	0.029702762

convs.0.lin_r.weight f4 [256, 183]
0	0x3d8855cc	0.066569895
1	0xbd7991b5	-0.060929973
2	0x3b578071	0.0032882954
3	0x3cc8f90c	0.024532817
4	0x3da3f32b	0.08005365
5	0x3cc4257a	0.023943651
6	0x3d83dfb9	0.06439156
7	0x3d6b2664	0.05740966
8	0xbd21e114	-0.03952129
9	0x3cd7a5a4	0.0263241
10	0xbcafe7ae	-0.021472778
11	0xbc89da5b	-0.016827753
12	0xbd6d7b87	-0.057979133
13	0x3d756d6d	0.05991881
14	0x3cee66f8	0.029101834
15	0xbd2e933e	-0.04262089
16	0x3d6cb56f	0.057790216
17	0x3d12c523	0.035832535
18	0xbd100592	-0.035161562
19	0x3d46aa55	0.048502285
20	0xbd516644	-0.05112292
21	0xbcb275f3	-0.021784758
22	0x3cc5b108	0.024132267
23	0xbd9d6fe2	-0.076873556
24	0x3c99f222	0.018792216
25	0xbcbfcb84	-0.023412473
26	0xbd09efe3	-0.03367604
27	0xbd6c1206	-0.057634376
28	0x3c84bc00	0.016202927
29	0xbd026d94	-0.031842783
30	0x3c9adb48	0.01890339
31	0x3d6e4630	0.058172405
32	0x3d1844b9	0.037174914
33	0xbd6b0471	-0.057377283
34	0x3d7304a9	0.059330616
35	0xbd3b9c20	-0.04580319
36	0xbb0a62b5	-0.0021115963
37	0x3d01b48a	0.031666316
38	0x3d0df8f4	0.03466125
39	0x3d376f67	0.044783976
40	0x3d18aaa4	0.03727211
41	0xbca94d8e	-0.020666864
42	0xbd1577c7	-0.03649118
43	0x3d121445	0.03566386
44	0xbd9dac18	-0.0769884
45	0xbd8543eb	-0.06507095
46	0xbc2e3b72	-0.01063429
47	0xbd9853e7	-0.07437878
48	0xbca444f5	-0.020052413
49	0x3d7ffc65	0.06249656
50	0xbda61bf4	-0.081108004
51	0xbd81fd8e	-0.0634719
52	0x3b135677	0.0022481957
53	0x3d84503b	0.06460615
54	0x3d624531	0.055241767
55	0x3c3456ae	0.011006994
56	0x3c9a09e4	0.018803544
57	0xbcfdd7f9	-0.030986773
58	0xbd84dc40	-0.06487322
59	0x3d45e889	0.048317466
60	0x3c8a2277	0.016862137
61	0x3d800989	0.06251819
62	0xbda12d8e	-0.07870017
63	0x3c8d4de3	0.017249053
64	0xbcb47f46	-0.022033345
65	0x3d77ac4b	0.060467046
66	0x3d73e127	0.059540894
67	0xbc09caab	-0.008410136
68	0xbd95b216	-0.07309358
69	0xbce2693d	-0.027638072
70	0x3d4c77c1	0.049918894
71	0x3cde8a87	0.027165664
72	0x3bf74f01	0.00754726
73	0x3baea3cd	0.005329585
74	0xbd4bf8c8	-0.049797803
75	0x3d3e7e55	0.0465072
76	0x3d864117	0.06555384
77	0x3d0e393c	0.03472255
78	0xbbb4b6ce	-0.005514956
79	0xbd83e186	-0.064394996
80	0xbd37a677	-0.044836488
81	0xbc6653cc	-0.014058065
82	0xbd6300df	-0.055420753
83	0xbd9378d9	-0.07200784
84	0x3be79220	0.00706698
85	0x3c397000	0.011318207
86	0x3ca93709	0.020656126
87	0x3d240d3f	0.040051695
88	0x3be62e56	0.0070245666
89	0xbd0fb607	-0.035085704
90	0xbd5ba456	-0.05362352
91	0x3c7380aa	0.014862219
92	0xbc8da631	-0.01729116
93	0xbd5921e4	-0.053010836
94	0xbd83deef	-0.064390056
95	0xbd308cf5	-0.043103177
96	0x3d6c9f7e	0.05776929
97	0x3c02ec86	0.007990962
98	0x3d45f522	0.04832948
99	0xbdb5b4e0	-0.0887239
100	0xbccbb294	-0.024865426
101	0x3d897f40	0.06713724
102	0x3ce6c826	0.02817161
103	0x3cda1e1a	0.026625682
104	0x3c791f98	0.015205286
105	0xbd7aabce	-0.061199002
106	0xbd1b713e	-0.037949793
107	0x3d6df210	0.058092177
108	0x3d5ab15c	0.0533918
109	0x3ca65ab1	0.020306917
110	0x3cfbb688	0.030726686
111	0x3d267fb8	0.040649146
112	0xbcac7a37	-0.02105437
113	0xbca98103	-0.0206914
114	0x3c7acd2a	0.015307704
115	0xbce52b01	-0.027974607
116	0xbbfcabf7	-0.0077109295
117	0x3cf01e21	0.029311242
118	0x3d30950a	0.043110885
119	0x3c080eee	0.008304341
120	0x3d0346d3	0.032049965
121	0xbd2659bb	-0.040612917
122	0x3d0e7174	0.034776166
123	0xb98dc623	-0.0002704124
124	0x3c6a70ca	0.014309118
125	0x3c6d25d8	0.014474355
126	0x3ce718e8	0.028210118
127	0xbd83c040	-0.06433153
128	0xbc49192e	-0.01227407
129	0xbd81c2f0	-0.063360095
130	0x3d19dd53	0.037564587
131	0xbc6ce88e	-0.014459742
132	0xbca7512c	-0.020424448
133	0xbd922ce9	-0.07137472
134	0xbc550a26	-0.013002908
135	0xbd8f5583	-0.06998732
136	0x3dafc2d6	0.08582084
137	0x3d6a3bd4	0.057185963
138	0xbc422da9	-0.011851707
139	0x3cec1e24	0.028822966
140	0x3d713a0a	0.05889324
141	0x3d6873f9	0.056751225
142	0x3c67613e	0.014122305
143	0x3d0343a9	0.032046948
144	0xbc018258	-0.0079046115
145	0xbcc25627	-0.023722721
146	0x398545d8	0.00025419774
147	0xbc10d15c	-0.008838978
148	0x3a127bf9	0.00055879314
149	0x3d478e56	0.048719727
150	0x3cae3717	0.021266503
151	0xbda3e792	-0.08003153
152	0xbb48ee2c	-0.003065954
153	0xbd9824ee	-0.07428919
154	0x3d232bae	0.039836578
155	0x3c8628c1	0.016376855
156	0x3d920592	0.07129969
157	0x3d2123a9	0.03934065
158	0x3c6ffbb6	0.014647415
159	0x3cbc5121	0.022987904
160	0x3daf1fc5	0.085509814
161	0xbd825cec	-0.0636538
162	0x3c8c150c	0.01709988
163	0x3d500fe8	0.05079642
164	0x3d4e43b5	0.05035754
165	0x3dadfb22	0.084951654
166	0xbd594ba2	-0.053050645
167	0x3d0242d8	0.03180203
168	0x3d3896d4	0.045065716
169	0xbd456713	-0.048194002
170	0x3c40f27f	0.011776566
171	0xbd77aa06	-0.06046488
172	0xbc125188	-0.008930571
173	0x3d88bb05	0.06676296
174	0x3d9f8b50	0.077902436
175	0xbd196c30	-0.03745669
176	0x3d0734e3	0.03300942
177	0x3d21a201	0.03946114
178	0x3d6e7e66	0.05822601
179	0xbd77e4b0	-0.060520828
180	0x3d94ea47	0.07271247
181	0xbcc7b0b6	-0.024376255
182	0xbd82d478	-0.063881814
183	0x3d548ce1	0.051892165
184	0x3d7f3297	0.062304106
185	0xbd89852e	-0.06714855
186	0x3db1b6ff	0.08677482
187	0x3c9ee7a8	0.019397572
188	0xbca20711	-0.01977876
189	0xbd00711f	-0.03135788
190	0xbd96553c	-0.07340476
191	0x3d3ac4be	0.045597784
192	0xbcb5a415	-0.022172967
193	0x3bf3799c	0.0074302685
194	0x3c9976e7	0.018733455
195	0xbcfb6f17	-0.03069262
196	0xbcc5662a	-0.024096567
197	0xbda506e1	-0.08057953
198	0xbce9dd1c	-0.028547816
199	0x3bd7569c	0.006571604
200	0xbcc80cfb	-0.024420252
201	0xbc561599	-0.013066673
202	0x3c7718bf	0.0150815835
203	0xbd3d9963	-0.04628886
204	0xbd1e18be	-0.038597815
205	0x3c393cac	0.011305969
206	0xbd1f48e5	-0.038887877
207	0x3c1ae22a	0.009453336
208	0xbdb71c47	-0.0894094
209	0xbcf7716a	-0.030205447
210	0x3d866b81	0.065634735
211	0xbd6f89da	-0.058481075
212	0xbc20bc72	-0.009810554
213	0xbda5a596	-0.08088224
214	0x3d4370f5	0.047715146
215	0x3d83e7a2	0.06440665
216	0xbd23fc70	-0.040035665
217	0xbd71c9ee	-0.059030466
218	0xbd9a177e	-0.07524012
219	0x3d0ffa9f	0.03515112
220	0xbd81af73	-0.063322924
221	0x3ccbae84	0.024863489
222	0xbd83411d	-0.06408904
223	0xbc4006ef	-0.011720403
224	0xbb55f4bc	-0.0032647094
225	0x3cf1c1c8	0.029511347
226	0x3d5b6747	0.05356529
227	0x3a96839d	0.0011483316
228	0x3d918fc7	0.071075015
229	0x3d63b044	0.055588022
230	0xbcb1450e	-0.021639373
231	0xbd19c327	-0.037539627
232	0xbdb7af8d	-0.089690305
233	0xbb7dd45f	-0.003873132
234	0x3d11018a	0.03540186
235	0x3c2dd87e	0.010610698
236	0x3d7e4270	0.06207508
237	0x3caf8b7e	0.02142882
238	0x3d85d4ea	0.06534751
239	0xbc81cca0	-0.015844643
240	0xbc39e017	-0.011344931
241	0x3d1be7b0	0.03806275
242	0x3b6fbf27	0.0036582442
243	0xbd8cbd71	-0.068720706
244	0xbd462a9b	-0.048380475
245	0xbc15a69a	-0.009133959
246	0xbb455179	-0.0030108376
247	0xbd6fcfa1	-0.05854762
248	0x3cf85b0b	0.03031685
249	0xbc647581	-0.013944031
250	0x3afaa73b	0.0019123325
251	0xbc80fb50	-0.015744835
252	0x3d8b3238	0.06796688
253	0x3d710cd0	0.05885011
254	0xbcbae41a	-0.022813845
255	0xbd2a0e87	-0.04151776

convs.1.lin_l.weight f4 [256, 256]
0	0x3cca88c8	0.024723426
1	0xbca30523	-0.01989991
2	0xbd032fa2	-0.032027848
3	0x3b8c20a0	0.00427635
4	0x3d03c3c6	0.032169126
5	0x3c504c71	0.012713538
6	0x3c5ee6a9	0.013604798
7	0xbce822ed	-0.028336966
8	0x3c25cae1	0.010119171
9	0x3d3ee5dc	0.04660593
10	0x3cde2fc2	0.027122382
11	0x3b2d62f1	0.0026456679
12	0xbd86368e	-0.06553374
13	0x3d72b42a	0.05925385
14	0x3d208ff5	0.039199788
15	0x3c8e6491	0.017381938
16	0x3d7cc32a	0.06170956
17	0x3d113e29	0.03545967
18	0xbc67abe5	-0.014140104
19	0xbd4ea9cc	-0.0504549
20	0x3d4aa5cf	0.049474534
21	0xbacd5eaa	-0.0015668471
22	0x3c325591	0.010884658
23	0x3cf99d27	0.030470444
24	0x3d158376	0.036502324
25	0xbca6a654	-0.020342983
26	0xbc7a28ae	-0.015268488
27	0x3cd64bcc	0.02615919
28	0x3c055f3e	0.008140383
29	0xbd229cde	-0.03970038
30	0x3a94cf8d	0.0011353359
31	0x3d578294	0.052614763
32	0x3c6bd1cf	0.014393284
33	0x3d35897c	0.04432057
34	0x3cc90326	0.024537634
35	0x3ac7e231	0.0015249905
36	0xbcadf69d	-0.021235758
37	0x3cb561a2	0.022141282
38	0x3d571d86	0.05251839
39	0xbce0b51b	-0.027430108
40	0x3b8ed125	0.004358428
41	0xbd395ea9	-0.04525629
42	0xbd2b7550	-0.041859925
43	0xbd42cffa	-0.047561623
44	0x3d70d7d5	0.058799583
45	0x3d2f0880	0.042732716
46	0xbd405e1d	-0.046964753
47	0x3d2cf7a9	0.042228375
48	0x3caa352e	0.020777311
49	0x3cfce40e	0.030870464
50	0x3cdc069a	0.026858617
51	0xbd6c1155	-0.057633717
52	0xbca5f52c	-0.020258509
53	0x3980709f	0.00024497972
54	0x3c384c58	0.0112486705
55	0x3d50ff99	0.051025007
56	0x3d69e2cd	0.05710106
57	0xbd44c73d	-0.04804157
58	0xbc8c4071	-0.017120572
59	0xbccc55fd	-0.024943346
60	0x3d6e92aa	0.05824534
61	0x3c63ba71	0.013899432
62	0xbd1c5737	-0.038169112
63	0xbb9a096c	-0.00470083
64	0xbd0e7d5f	-0.034787532
65	0x3bd2ff7a	0.0064391466
66	0xbd0f6655	-0.0350097
67	0xbd157157	-0.036485042
68	0x3d1ad9c3	0.03780533
69	0xbd1df9c2	-0.038568266
70	0x3c9487be	0.018131133
71	0xbc95e469	-0.018297391
72	0x3d9cdb49	0.07659013
73	0x3c814c19	0.015783357
74	0x3c7baf9b	0.015361692
75	0x3c9d30d3	0.01918832
76	0xbcd15583	-0.02555347
77	0x3d4bf56c	0.0497946
78	0x3d215792	0.039390154
79	0xbb076083	-0.002065689
80	0x3cfb96a9	0.030711489
81	0x3bfa475b	0.0076379008
82	0x3ceb6c7d	0.028738255
83	0xbd33c7f3	-0.04389186
84	0xbd31a37a	-0.043368794
85	0x3d475c07	0.04867175
86	0x3d2ab2e9	0.04167453
87	0x3cf78a41	0.030217292
88	0x3ccb7c1c	0.024839453
89	0x3ccded89	0.02513768
90	0xbd847ec4	-0.06469491
91	0x3d456eb3	0.048201274
92	0xbd237df6	-0.039915048
93	0x3d7222f8	0.05911538
94	0xbc77896c	-0.0151084475
95	0xbd11ecf3	-0.035626363
96	0x39b55d0b	0.00034592333
97	0xbc565d49	-0.013083764
98	0xbb47d153	-0.0030489757
99	0x3cf4f20f	0.029900579
100	0xbccf0a13	-0.025273358
101	0x3d1ac0e8	0.037781626
102	0xbc81a75e	-0.015826877
103	0xbca0493e	-0.019566175
104	0xbce2e198	-0.027695462
105	0x3b9daa9f	0.0048115994
106	0xbc9ae6a6	-0.01890881
107	0xbd0ca326	-0.034335278
108	0xbd83ab11	-0.06429113
109	0xbca1d1d3	-0.019753372
110	0xbd5aca0d	-0.053415347
111	0xbd3b3f93	-0.045714926
112	0x3cc27f2f	0.023742286
113	0xbc9d4cca	-0.019201655
114	0xbd1954cb	-0.03743438
115	0x3c8c291c	0.017109446
116	0x3d280186	0.041017078
117	0xbd386ffc	-0.04502867
118	0x3cfc0874	0.03076575
119	0xbcdea0d5	-0.0271763
120	0x3d0a0930	0.033700168
121	0x3d14179c	0.03615533
122	0x3c28255b	0.0102628125
123	0x3cb548b1	0.022129389
124	0xbb63eb90	-0.0034777857
125	0x3c7cf443	0.015439096
126	0xbd088ad6	-0.03333553
127	0xbd0abc68	-0.033871084
128	0xbd4b2cb7	-0.04960319
129	0xbd5fd3e6	-0.05464544
130	0x3d50451f	0.05084717
131	0xbb33b6be	-0.0027422155
132	0xbc7d2c95	-0.015452524
133	0x3d4d4498	0.050114244
134	0x3a8161d9	0.000987108
135	0x3d479d58	0.04873404
136	0xbc2a8c9a	-0.010409499
137	0x3bcd4173	0.0062639057
138	0x3cafa070	0.021438807
139	0x3d3e73bb	0.046497088
140	0xbc99dada	-0.018781114
141	0x3cdd5dce	0.027022269
142	0xbbf16ab6	-0.0073674573
143	0xbb6978f3	-0.003562507
144	0xbd4f4587	-0.050603416
145	0xbc1d0877	-0.009584538
146	0xbd424964	-0.047433272
147	0xbd315e61	-0.043302897
148	0xbd77cfb7	-0.060500827
149	0xbcc35a75	-0.023846844
150	0x3abc518e	0.0014367567
151	0x3c69fe73	0.014281857
152	0x3bdca026	0.0067329584
153	0xbbf5c05f	-0.007499739
154	0xbc6386dc	-0.013887133
155	0x3d08353d	0.033253897
156	0x3beb8f5a	0.0071887197
157	0x3d305cdd	0.04305731
158	0x3b946b2b	0.004529377
159	0x3c929705	0.017894277
160	0x3ca7d3cc	0.020486735
161	0xbbac7350	-0.0052627698
162	0x3d202236	0.039095126
163	0xbc3cba28	-0.0115189925
164	0x3ca2316b	0.019798955
165	0xbc3b809d	-0.011444238
166	0x3d12bdfd	0.03582572
167	0xbd1bc98d	-0.03803401
168	0x3d146bfe	0.036235802
169	0xbd5d900b	-0.05409245
170	0xbd162c21	-0.03666318
171	0x3d566e25	0.052351136
172	0xbd2dadc0	-0.04240203
173	0xbca24dbf	-0.019812463
174	0x3d3527a1	0.044227246
175	0x3cc34850	0.023838192
176	0xbd0f3eea	-0.03497211
177	0xbd112956	-0.03543981
178	0x3cf81c26	0.03028686
179	0x3bef9ee9	0.0073126447
180	0xbd30d4d3	-0.043171715
181	0x3d2a3db3	0.041562747
182	0x3d4327f6	0.04764553
183	0xbb97129b	-0.0046103722
184	0xbc22a6b5	-0.009927441
185	0xbccbc97a	-0.024876345
186	0xbd434fbe	-0.04768347
187	0xbca53f69	-0.020171838
188	0xbd4294f6	-0.04750534
189	0x3d14b053	0.03630097
190	0x3d39008e	0.045166545
191	0x3cc0b86f	0.023525445
192	0xbc15a436	-0.009133389
193	0xbc02e4c7	-0.007989115
194	0xbd098a9e	-0.03357946
195	0xbb7f4306	-0.0038949861
196	0xbd3ab184	-0.04557945
197	0x3c5d7eb2	0.013518976
198	0x3d6da77f	0.058021065
199	0x3c2dcfe1	0.010608644
200	0xbd541c18	-0.051784605
201	0x3d61fadc	0.05517088
202	0x3d1575aa	0.036489166
203	0x3d694ed3	0.05695994
204	0xbd0ef581	-0.0349021
205	0x3c74f20e	0.014950288
206	0xbd14a02e	-0.03628557
207	0xbce442b9	-0.027863847
208	0x3a6377e0	0.00086772256
209	0xbcf23ab3	-0.029569006
210	0x3d49d459	0.049274776
211	0xbcdc403e	-0.026886102
212	0xbcd42689	-0.025897281
213	0xbab145b4	-0.0013524801
214	0x3d2dcc3e	0.04243111
215	0x3c82cd52	0.015967045
216	0x3c0f83bf	0.008759438
217	0xbd573024	-0.052536145
218	0xbd13e527	-0.03610721
219	0x3ce1320a	0.02748968
220	0xbd79db72	-0.061000295
221	0x3d7521c2	0.059846647
222	0x3cd480e1	0.02594036
223	0xbd232e06	-0.039838813
224	0x3d7a943f	0.061176535
225	0x3d5d9453	0.05409653
226	0x3d381c59	0.04494891
227	0x3d2613c9	0.040546212
228	0xbd080779	-0.03321025
229	0xbc0f6d84	-0.008754138
230	0x3d5a46aa	0.053290047
231	0x3d0ed400	0.034870148
232	0x3c95af60	0.018272102
233	0x3c08abec	0.008341771
234	0xbc045e01	-0.008079053
235	0xbd806a40	-0.062702656
236	0x3c835bef	0.016035048
237	0x3d05d2ad	0.03267162
238	0xbc1c9627	-0.0095572835
239	0xbd8cded3	-0.06878438
240	0xbd65c3af	-0.05609482
241	0x3d37d5c0	0.044881582
242	0xbd298b5b	-0.041392665
243	0x3d61cbab	0.055125874
244	0x3c4b4209	0.012405881
245	0xbcfcc377	-0.030854924
246	0xbd5b452c	-0.053532764
247	0xbc041aca	-0.008063028
248	0x3d37dc0c	0.044887587
249	0x3d6258ff	0.055260655
250	0xbc8f5f40	-0.017501473
251	0xbc2c93bb	-0.010533269
252	0xbd32f418	-0.043689817
253	0x3d800b74	0.062521845
254	0x3c7a1b6e	0.015265329
255	0xbb973931	-0.004614972

convs.1.lin_l.bias f4 [256]
0	0x3b71da71	0.0036903883
1	0x3d32fdf9	0.04369924
2	0x393923f3	0.00017656367
3	0x3d6b5fae	0.057464294
4	0xbce0bb95	-0.027433196
5	0x3c90a9d7	0.017659111
6	0x3d38d105	0.04512121
7	0x3d6d1e2f	0.057890113
8	0xbd63fd15	-0.05566128
9	0xbca94277	-0.020661576
10	0x3bb87fea	0.005630483
11	0x3d3efc46	0.046627305
12	0xbd3e7746	-0.046500467
13	0x3bdd4642	0.00675276
14	0xbd05c3c6	-0.032657407
15	0xbc9168ad	-0.017750109
16	0x3d59d4a8	0.05318132
17	0xbca28184	-0.019837148
18	0xbc3b4bd7	-0.011431656
19	0xbc90dfcd	-0.017684842
20	0xbd2b0d9f	-0.041761037
21	0x3d072144	0.03299071
22	0xbd342878	-0.043983907
23	0x3cf0988e	0.029369619
24	0x3c16ca7c	0.0092035495
25	0x3d5f6a9d	0.054545034
26	0x3d4b86e6	0.049689196
27	0xbd4b1090	-0.049576342
28	0x3d3c39d0	0.04595357
29	0x3d7da348	0.061923295
30	0xbd312979	-0.043252442
31	0xbc712562	-0.014718385
32	0xbd31a1e6	-0.04336729
33	0x3bf38f30	0.0074328408
34	0x3c94480a	0.018100757
35	0xbc1da9d7	-0.0096230125
36	0x3d2789ad	0.040902782
37	0x3c256236	0.010094216
38	0xbca9d263	-0.020730203
39	0xbc3f09cf	-0.011660053
40	0x3c96f770	0.018428534
41	0x3c8b951f	0.01703888
42	0xbbfa1f7c	-0.0076331478
43	0x3d22f98c	0.039788768
44	0xbcf295f2	-0.029612515
45	0x3d817fe4	0.06323221
46	0xbd7e28f7	-0.062050786
47	0xbb7e8773	-0.0038838058
48	0x3d390a5b	0.04517589
49	0xbd79daa0	-0.060999513
50	0x3cd9375d	0.026515657
51	0xbd1f9e9f	-0.038969632
52	0xbd5f606a	-0.054535307
53	0x3d816911	0.06318868
54	0xbd275f3a	-0.0408623
55	0xbb57a9de	-0.0032907645
56	0xbd117884	-0.035515323
57	0xbc34cbaf	-0.01103489
58	0x3c4ddf2d	0.012565416
59	0x3c788022	0.015167268
60	0x3d64e71c	0.055884466
61	0x3d52fd96	0.05151137
62	0x3d2431ea	0.040086664
63	0x3c95a164	0.018265434
64	0x3cb27b1c	0.021787219
65	0xbd789bc0	-0.06069541
66	0x3d3aa728	0.04556957
67	0x3be56cf6	0.0070015145
68	0x3c9eb8e2	0.019375268
69	0x3d1d1535	0.038350303
70	0xbd59efb8	-0.05320713
71	0xbd06f940	-0.032952547
72	0x3d5f610e	0.054535918
73	0xbcc657bc	-0.024211757
74	0xbc8eb333	-0.017419433
75	0xbc8945d2	-0.016756926
76	0xbcd22ec7	-0.02565707
77	0xbc27fe1a	-0.010253454
78	0xbc72b6b0	-0.014814064
79	0x3c6bec04	0.014399532
80	0x3c9d0e8d	0.019171977
81	0xbd82e161	-0.06390644
82	0x3cf084e7	0.029360248
83	0x3d034413	0.032047343
84	0x3c9b0d20	0.018927157
85	0x3d247033	0.040146064
86	0x3d460326	0.048342846
87	0xbc304b69	-0.010760167
88	0xbc6c354f	-0.014417007
89	0xbd0fe06a	-0.035126127
90	0x3d6a7dab	0.057248753
91	0x3d36de19	0.044645403
92	0x3c959014	0.018257178
93	0x3d643372	0.055713125
94	0xbbe5ae43	-0.007009299
95	0x3d82368b	0.063580595
96	0xbc787442	-0.015164437
97	0xbce48c9b	-0.027899077
98	0xbcdcb236	-0.026940446
99	0xbcaf8b56	-0.021428745
100	0x3cbd90d8	0.023140356
101	0x3c9202d5	0.017823616
102	0x3ce94ef1	0.028480025
103	0xba3bfd7f	-0.0007171258
104	0x3d3465cb	0.04404239
105	0x3cc764e8	0.024340108
106	0xbbe70f12	-0.007051357
107	0xbd2ed438	-0.042682856
108	0x3cb36a38	0.021901235
109	0xbcd6c9d7	-0.026219292
110	0xbc8f230c	-0.017472766
111	0x3cf353d8	0.029703066
112	0xbd2f5171	-0.042802278
113	0xbca8932f	-0.020577995
114	0x3d26d4c0	0.040730238
115	0xbcb7c2c8	-0.022431746
116	0xbcf349c7	-0.029698266
117	0xbbe999f7	-0.0071289497
118	0x3d681e0c	0.05666928
119	0xbc70c0fc	-0.014694449
120	0x3ceb78c0	0.028744102
121	0xbbdf7244	-0.0068190414
122	0x3d117437	0.03551122
123	0x3c298b0f	0.010348096
124	0xbc829554	-0.015940346
125	0xbbffbe75	-0.0078046867
126	0xbd798cd3	-0.060925316
127	0xbd5deffc	-0.054183945
128	0x3be2b99e	0.0069191
129	0xbb523280	-0.0032073557
130	0xb88de3c7	-6.765831e-05
131	0x3bc7ad52	0.0060936594
132	0xbd16f209	-0.036851916
133	0x3cac33ab	0.021020731
134	0x3d6b4ced	0.05744641
135	0x3c84e3d4	0.016221918
136	0xbcda5b20	-0.02665478
137	0x3d3dddee	0.046354227
138	0xbc823870	-0.015896052
139	0xbd58b35a	-0.052905418
140	0xbd27882b	-0.040901344
141	0xbd7788b8	-0.06043312
142	0x3d285c55	0.04110368
143	0x3d483e55	0.04888757
144	0x3d670b48	0.056407243
145	0xbca8fd21	-0.020628514
146	0x3d890545	0.06690458
147	0xbd6e4827	-0.05817428
148	0xbd2854bb	-0.04109643
149	0xbd16083f	-0.036628958
150	0xbc58ee04	-0.013240341
151	0x3d15ebe9	0.036601935
152	0x3c3483ea	0.011017779
153	0x3d65ec28	0.05613342
154	0xbcc7e31f	-0.024400292
155	0xbc8ebb0f	-0.01742318
156	0x3c8f6ba1	0.017507376
157	0x3d4f497d	0.050607193
158	0x3ccd88fa	0.02508973
159	0xbd2f43a1	-0.042789105
160	0xbc0bd455	-0.008534511
161	0xbd706116	-0.05868634
162	0xbd63d3bd	-0.05562185
163	0x3d6c1db0	0.0576455
164	0xbd093d84	-0.03350593
165	0x3d327c8c	0.04357581
166	0xbcf2caba	-0.029637683
167	0xbd575f63	-0.052581202
168	0x3d5ddbe9	0.0541648
169	0xbd473220	-0.048631787
170	0xbccf5c5b	-0.025312593
171	0xbd33f314	-0.04393299
172	0xbd5cc2e9	-0.05389682
173	0x3d3e1b85	0.046412963
174	0x3cc2e45c	0.02379053
175	0xbafe8e14	-0.0019421005
176	0xbd3667df	-0.044532653
177	0xb84abcc1	-4.8336344e-05
178	0x3c91c859	0.017795729
179	0x3cfad959	0.030621218
180	0x3c4ca628	0.012490787
181	0xbd539735	-0.051657874
182	0x3d81b53a	0.06333394
183	0x3d46fca5	0.048580784
184	0x3d51b075	0.051193673
185	0xbd3a55b8	-0.045491904
186	0xbd4d95e7	-0.050191786
187	0x3ceb557e	0.02872729
188	0x3d7b6141	0.061372045
189	0x3ca7bf47	0.02047695
190	0xbcce7154	-0.025200523
191	0x3c3d7470	0.011563405
192	0xbd255bd9	-0.040370796
193	0xbd5620c1	-0.05227733
194	0xbd28fedc	-0.041258678
195	0x3d4a6838	0.049415797
196	0xbd1fb6b5	-0.038992602
197	0xbd6ec590	-0.05829388
198	0xbc7ac048	-0.0153046325
199	0xbd6b7531	-0.05748481
200	0x3d1698e4	0.0367669
201	0x3d1e9ece	0.038725667
202	0xbcf3adc9	-0.029745953
203	0x3d59c7a1	0.053168897
204	0xbcdab0aa	-0.026695568
205	0x3b8aca26	0.0042355238
206	0x3d4390aa	0.047745384
207	0x3bfde47c	0.0077481847
208	0xbd0fc159	-0.0350965
209	0x3d32b37d	0.043628205
210	0x3c61c9bf	0.01378101
211	0x3c68826d	0.014191252
212	0x3cc6788c	0.024227403
213	0x3a9ab13c	0.0011802088
214	0x3d04099d	0.03223573
215	0xbce11491	-0.027475627
216	0x3c502008	0.012702949
217	0xbd37525c	-0.04475628
218	0xbc41cd8d	-0.011828792
219	0xbd67db04	-0.056605354
220	0x3d88f321	0.06686998
221	0xbcf0992c	-0.029369913
222	0x3d5b1ccd	0.053494263
223	0x3c85a009	0.016311662
224	0x3d38560e	0.045003943
225	0x3d68f90f	0.056878146
226	0xbd69ddd9	-0.057096336
227	0x3d2c7677	0.042105164
228	0x3c7470b6	0.0149194505
229	0x3cc20ce3	0.023687785
230	0xbcef554d	-0.02921548
231	0x3d3f1a41	0.046655897
232	0x3d18bd58	0.037289947
233	0x3d113757	0.035453167
234	0xbbaf0eb9	-0.0053423312
235	0xbc3905f7	-0.011292926
236	0x3bf7faac	0.007567724
237	0x3d195685	0.037436027
238	0xbc7e167f	-0.015508293
239	0x3d7bd3a9	0.06148115
240	0xbd61e93c	-0.05515407
241	0x3aeb5a6a	0.0017956023
242	0x3c38592a	0.011251727
243	0x3a133f5b	0.00056170457
244	0x3cc5d826	0.02415092
245	0xbd05327b	-0.032518845
246	0xbcc1bf2e	-0.023650732
247	0xbd06839b	-0.032840353
248	0x3d20b5a2	0.03923572
249	0x3d1ceaa4	0.03830971
250	0xbc9e25ad	-0.019305075
251	0xbcd70bce	-0.026250746
252	0x3cf688e2	0.030094568
253	0x3d526288	0.051363498
254	0xbc228d70	-0.009921417
255	0x3d05ea51	0.032694165

convs.1.lin_r.weight f4 [256, 256]
0	0x3ca41bc4	0.020032771
1	0xbd12ef30	-0.03587264
2	0xbd212004	-0.039337173
3	0xbcc9c972	-0.02463219
4	0x3d49af7a	0.049239613
5	0xbbb43344	-0.0054992754
6	0x3cf19fb2	0.029495094
7	0x3d6bc2d4	0.05755885
8	0xbce5f31a	-0.028070021
9	0xbc09c556	-0.008408865
10	0xbd339030	-0.04383868
11	0xbd032603	-0.032018673
12	0x3c2ba110	0.010475412
13	0xbcda3802	-0.026638035
14	0xbd0e9f3c	-0.034819826
15	0xb89c4864	-7.4521435e-05
16	0x3d9d3f68	0.076781094
17	0x3d410880	0.047127247
18	0x3d343714	0.04399784
19	0x3d7d0f31	0.061782066
20	0xbd06955a	-0.032857276
21	0xbd4754ca	-0.048664846
22	0xbd550a0d	-0.05201154
23	0xbd42899a	-0.04749451
24	0x3c0ee13b	0.008720691
25	0xbbe2e00a	-0.00692368
26	0x3c705083	0.014667633
27	0x3c8ce26e	0.017197814
28	0x3cfd8b91	0.03095034
29	0x3d2c69ae	0.04209297
30	0xbd1d36a8	-0.038382202
31	0x3d236abc	0.03989671
32	0x3dba6e27	0.09103041
33	0xbd513cdc	-0.05108343
34	0xbd72c1b7	-0.059266772
35	0xbcac38ef	-0.021023242
36	0x3d222196	0.03958281
37	0xbbea1552	-0.007143655
38	0xbd0ec542	-0.03485609
39	0xbd12e9dd	-0.03586756
40	0xbcb33647	-0.021876467
41	0xbd39fdae	-0.045407943
42	0xbb9ba342	-0.0047496865
43	0x3d53152d	0.051533867
44	0xbd542721	-0.05179513
45	0x3d1f6e2f	0.03892344
46	0xbd0cd514	-0.034382895
47	0x3d1b6f36	0.037947856
48	0xbcce5af0	-0.025189847
49	0x3c8d13f5	0.01722143
50	0x3d9e854f	0.0774027
51	0x3d445fb3	0.04794283
52	0x3db00d51	0.0859629
53	0x3d9b7272	0.07590188
54	0x3cac7984	0.021054037
55	0xbcc420c4	-0.023941405
56	0xbd20cee5	-0.03925981
57	0xbb9147ea	-0.0044336217
58	0x3d90167a	0.07035537
59	0x3d023a37	0.0317938
60	0xbd2e7a7d	-0.042597283
61	0x3d42d0c9	0.047562394
62	0xbd5eb7f8	-0.054374665
63	0xbb546c5a	-0.0032413215
64	0x3ca9627a	0.02067684
65	0xbd27005e	-0.040771835
66	0xbcecdfb7	-0.02891527
67	0x3cf12fdb	0.029441765
68	0xbb7edbcf	-0.003888834
69	0x3d098fc1	0.03358436
70	0x3d0f2ce9	0.03495494
71	0x3d175fd2	0.036956616
72	0x3cf999a9	0.030468779
73	0x3d1f23eb	0.038852613
74	0x3da6a192	0.08136286
75	0x3b5001d7	0.0031739378
76	0xbb7fa0c7	-0.0039005743
77	0xbcb5223d	-0.022111053
78	0x3dcbe0c0	0.09954977
79	0x3d53b344	0.051684633
80	0x3c6ddcd5	0.0145179825
81	0x3ce36a40	0.027760625
82	0xbb951855	-0.0045500197
83	0xba18bf7d	-0.0005826874
84	0x3d315754	0.043296173
85	0xbc9ae93e	-0.018910047
86	0xbc9dba90	-0.019253999
87	0xbccb6fb0	-0.02483353
88	0x3d0136df	0.03154647
89	0x3dbefcea	0.09325583
90	0xbc01e523	-0.007928166
91	0xbc63ef79	-0.013912075
92	0x3d47b2f3	0.048754644
93	0xbc9a5f3d	-0.018844241
94	0xbd5705aa	-0.052495636
95	0xbbcfe6cb	-0.0063446513
96	0xbcd0f5f0	-0.025507897
97	0x3c2cd84f	0.010549619
98	0xbc993516	-0.018702071
99	0x3c23a1c5	0.009987299
100	0x3cf0839b	0.02935963
101	0x3d339d80	0.043851376
102	0x3d58dbe4	0.05294408
103	0x3c97b044	0.018516667
104	0x3d8268c1	0.063676365
105	0xbc99dc2f	-0.01878175
106	0x3d33a06d	0.043854166
107	0xbd25e878	-0.040504903
108	0x3d6fdb81	0.058558945
109	0xbcc63942	-0.024197225
110	0xbccb4fae	-0.024818268
111	0x3bf0a131	0.0073434343
112	0xbc401831	-0.011724518
113	0xbc3e8896	-0.011629244
114	0xbd2371f8	-0.03990361
115	0x3d86bbba	0.06578775
116	0x3c904129	0.017609196
117	0xbd377d0b	-0.044796985
118	0x3d3ae772	0.04563088
119	0x3cd64dc3	0.026160127
120	0x3dcd3641	0.10020114
121	0x3a83b923	0.0010049682
122	0x3d27408c	0.04083304
123	0x3d591ad9	0.05300412
124	0xbd0bbeee	-0.03411763
125	0xbd2570ca	-0.040390767
126	0x3d1db798	0.038505167
127	0xbc8c023e	-0.017090913
128	0xbc208991	-0.009798423
129	0x3d133e62	0.035948165
130	0xbd4ffe96	-0.0507799
131	0x3d8aa040	0.067688465
132	0x3d8aa2f9	0.06769366
133	0xbd414927	-0.047188904
134	0x3d2676b0	0.040640533
135	0xbc160c31	-0.00915818
136	0x3cf5e398	0.030015752
137	0xbd5a89c4	-0.05335404
138	0x3d12c649	0.03583363
139	0x3d92e94d	0.07173405
140	0x3cc0f8ff	0.02355623
141	0x3bc362b8	0.005962696
142	0xbc7a703e	-0.01528555
143	0x3c3a16e9	0.011358001
144	0x3d3dfb77	0.046382394
145	0xbca3bebb	-0.019988408
146	0xbd40954c	-0.04701738
147	0x3c946761	0.018115701
148	0xbc01f922	-0.007932933
149	0x3cf338fc	0.029690258
150	0xbb8b5e83	-0.00425321
151	0x3d67184f	0.056419667
152	0x3d544446	0.051822923
153	0x3d576a23	0.052591454
154	0x3d4f8279	0.050661538
155	0xbd6ab027	-0.0572969
156	0xbd13f28c	-0.036119983
157	0xbd240b6c	-0.040049955
158	0x3d4b99c7	0.0497072
159	0x3d7aac48	0.061199456
160	0x3d4fbb30	0.050715625
161	0x3d4567f8	0.048194855
162	0x3c59b9db	0.01328894
163	0x3d71f055	0.05906709
164	0x3d092cf1	0.033490125
165	0x3c121769	0.008916714
166	0xbc884285	-0.016633281
167	0xbb5cfc26	-0.0033719628
168	0x3d4c580b	0.04988865
169	0xbc922eb9	-0.017844545
170	0x3d50ea85	0.051004905
171	0x3cc1b872	0.02364752
172	0xbc16b473	-0.009198296
173	0x3d9d7e88	0.076901495
174	0x3d16a287	0.036776092
175	0x3caf9318	0.021432444
176	0x3cf32e92	0.029685292
177	0x3d98126d	0.074253894
178	0x3cb65b80	0.022260427
179	0x3cd9ff15	0.02661089
180	0x3cb321d1	0.02186671
181	0xbd815a34	-0.06316033
182	0x3c316f50	0.010829762
183	0x3c7c40e5	0.015396331
184	0xbcdffaa8	-0.027341202
185	0x3d827ab2	0.063710585
186	0xbce04416	-0.027376216
187	0x3bc16f10	0.0059031323
188	0x3d87d5b0	0.066325545
189	0x3c2a0d34	0.010379124
190	0x3d08fbb0	0.033443153
191	0x3c034e16	0.008014223
192	0xbbd4beef	-0.0064924876
193	0x3c88a735	0.016681293
194	0x3d0b9ba6	0.034083985
195	0x3c858664	0.016299434
196	0x3d665f5a	0.056243278
197	0x3d474c0a	0.0486565
198	0xbccbba4d	-0.024869109
199	0xbd0d13d5	-0.03444274
200	0xbc46e94b	-0.012140582
201	0xbd1eac83	-0.03873874
202	0x3cbb8a48	0.022893086
203	0x3d56aac7	0.05240896
204	0xbd489eb1	-0.048979465
205	0xbb0df4f0	-0.0021660887
206	0xbd592d9d	-0.053022016
207	0x3d47acb3	0.048748683
208	0x3d38a4c1	0.045078997
209	0xbd0b75ee	-0.034048013
210	0x3ab4fe49	0.0013808693
211	0xbc16e5ee	-0.009210093
212	0x3d87dc6d	0.0663384
213	0xbd429820	-0.04750836
214	0x3b72a06b	0.0037021886
215	0xbd1c9755	-0.03823026
216	0xbd57a1ad	-0.05264442
217	0x3d6e8bc5	0.058238763
218	0xbac3b391	-0.0014930834
219	0xbd5eb057	-0.05436739
220	0x3b9172dd	0.0044387416
221	0xbd0d5298	-0.034502596
222	0x3c86f0c1	0.016472222
223	0xbd25ee5a	-0.040510513
224	0xbcbf97eb	-0.02338787
225	0xbd129858	-0.035789818
226	0xba51e3e3	-0.0008006675
227	0xbc51fe0f	-0.01281692
228	0x3d0991d4	0.03358634
229	0x3ce6603b	0.028122058
230	0x3c931b4e	0.017957356
231	0x3d226476	0.03964659
232	0xbcf44530	-0.029818147
233	0x3d697dc2	0.057004698
234	0x3c8c0d33	0.017096138
235	0x3dacc317	0.08435648
236	0xbd6f375d	-0.058402408
237	0x3c89d279	0.016823994
238	0x3c716328	0.014733113
239	0xb8b8a767	-8.804985e-05
240	0x3d5ac6fb	0.05341242
241	0xbd4983f3	-0.049198102
242	0xbb3d17f2	-0.0028853384
243	0x3d96a115	0.07354943
244	0x3d4b2136	0.04959222
245	0xbcfebf29	-0.031097012
246	0xb9a7327c	-0.00031890336
247	0xbd0f8258	-0.035036415
248	0x3d4d4d73	0.05012269
249	0x3d5887fc	0.05286406
250	0xbd247091	-0.040146414
251	0x3d1e09dd	0.038583625
252	0xbc9d9ec0	-0.019240737
253	0xbc34bf54	-0.011031944
254	0x3cff8441	0.031190993
255	0x3c330b38	0.010927968

convs.2.lin_l.weight f4 [2, 256]
0	0x3ca5da41	0.020245673
1	0x3d3e3ae1	0.04644287
2	0xbcd53f64	-0.026031204
3	0x3cad5e2b	0.021163067
4	0x3cb41b97	0.021985812
5	0xbc11c603	-0.008897307
6	0x3d38b332	0.04509277
7	0xbcc0d66a	-0.02353974
8	0xbc896192	-0.016770158
9	0xbc83749c	-0.016046815
10	0xbcd5e784	-0.026111372
11	0xbcce6baa	-0.025197823
12	0xbd1ee363	-0.03879107
13	0x3d497afa	0.049189545
14	0x3d35d275	0.04439016
15	0xbc86905e	-0.016426262
16	0xbd1f4e93	-0.038893294
17	0xbd2da837	-0.04239675
18	0xbc4a417c	-0.012344714
19	0xbd0fecf5	-0.03513809
20	0xbd2cad5e	-0.042157523
21	0xbd13cc77	-0.036083665
22	0x3d210d79	0.03931949
23	0xbd2ba54e	-0.041905694
24	0x3c56c916	0.013109466
25	0xbceaa843	-0.028644687
26	0x3d563c32	0.0523035
27	0xbc7de9e5	-0.015497659
28	0x3af95962	0.001902383
29	0x3d7e024a	0.0620139
30	0xbd87af6a	-0.066252545
31	0x3cdc7aa6	0.026913952
32	0xbd102c26	-0.035198353
33	0xbbe91e96	-0.007114242
34	0xbc85b1a4	-0.016320057
35	0x3d3e69bd	0.04648756
36	0xbd657263	-0.05601729
37	0x3d38cf4d	0.045119572
38	0xbc69f727	-0.014280117
39	0xbd123322	-0.035693295
40	0x3c92c5f0	0.01791665
41	0x3d3f1302	0.046648987
42	0xbd559b12	-0.05214984
43	0xbcbaf27d	-0.022820706
44	0xbcc359fd	-0.02384662
45	0x3d609396	0.05482825
46	0xbd6ae12d	-0.05734365
47	0x3ac16ec0	0.0014757738
48	0x3d47f501	0.04881764
49	0x3d0d14c0	0.034443617
50	0x3cecea26	0.028920244
51	0xbbb856b3	-0.0056255697
52	0x3d16ec7a	0.036846615
53	0x3d39ca89	0.04535917
54	0x3d275408	0.040851623
55	0xbc4c3d47	-0.0124657815
56	0x3c789639	0.015172535
57	0xbca5c234	-0.020234205
58	0xbd6d29af	-0.05790108
59	0x3d343716	0.043997847
60	0xbcf79665	-0.03022308
61	0xbd217635	-0.03941937
62	0xbd0973fc	-0.033557877
63	0x3d3814e2	0.04494179
64	0xbd7cb8a3	-0.06169952
65	0xbca61695	-0.02027444
66	0xbd1de1ce	-0.038545422
67	0xbc09439d	-0.008377937
68	0x3ca8d802	0.020610813
69	0xbd180dcf	-0.037122544
70	0x3d3c309d	0.0459448
71	0x3cf1cec9	0.029517548
72	0x3cecd156	0.028908413
73	0x397d1514	0.00024135812
74	0xbc471d51	-0.012152986
75	0xbd319583	-0.043355476
76	0xbc6da517	-0.0145046925
77	0xbcf59414	-0.029977836
78	0x3cc5fe16	0.02416901
79	0xbc909002	-0.017646793
80	0xbd3769bd	-0.044778574
81	0x3c6d897f	0.014498114
82	0x3cdb8b57	0.02679984
83	0xbd4cfe11	-0.050046984
84	0x3d2fbab7	0.042902675
85	0x3d5a9872	0.05336804
86	0xbd3ba126	-0.04580798
87	0xbcbf9094	-0.02338437
88	0xbc6ebff5	-0.014572133
89	0x3cd16173	0.025559163
90	0x3ca6c116	0.020355742
91	0x3d2b9818	0.041893095
92	0x3c57de54	0.013175566
93	0x3d67022d	0.05639856
94	0xbd0f983b	-0.035057288
95	0xbc51b286	-0.012798911
96	0xbd30b22f	-0.04313868
97	0xbcb5630f	-0.022141961
98	0x3c32fd83	0.0109247
99	0x3d6ed046	0.058304094
100	0x3d3b57ef	0.045738157
101	0xbcd072bf	-0.02544534
102	0xbd5057f8	-0.050865144
103	0xbb7c5ab2	-0.0038506207
104	0xbce0f44c	-0.02746024
105	0x3d0372de	0.032091968
106	0x3cad23cd	0.021135235
107	0x3d3106e0	0.043219447
108	0x3c987599	0.018610762
109	0xbcd9e2e7	-0.026597453
110	0xbb1bd182	-0.0023776
111	0x3d1a116c	0.03761427
112	0xbd76b774	-0.06023355
113	0xbc6edb6b	-0.0145786805
114	0xbc611249	-0.01373727
115	0x3c382697	0.011239669
116	0xbd6ed328	-0.058306843
117	0xbd119523	-0.03554262
118	0x3d093c9d	0.03350507
119	0x3d60c921	0.05487931
120	0xbd0c7fa7	-0.034301426
121	0x3d212a28	0.039346844
122	0x3cfdc5d7	0.030978126
123	0x3d3bc945	0.045846242
124	0xbca77c57	-0.020445032
125	0xbd446635	-0.047949035
126	0xbcf71707	-0.030162347
127	0xbd01f25b	-0.03172527
128	0xbc914827	-0.0177346
129	0x3d1b9175	0.037980516
130	0x3b44bbba	0.003001912
131	0x3cb1e582	0.021715883
132	0x3d10e4c6	0.035374425
133	0xbcec66b0	-0.028857559
134	0xbcb095ef	-0.021555869
135	0xbc5485e4	-0.012971375
136	0xbd59dc34	-0.053188518
137	0xbd2d18b4	-0.042259887
138	0xbd698dbe	-0.05701994
139	0xbd2bff5b	-0.041991573
140	0xbd35e950	-0.044411957
141	0xbcc1c01f	-0.02365118
142	0x3bb52c40	0.0055289567
143	0x3d22d9fb	0.039758664
144	0x3c8828cb	0.016621014
145	0x3d517204	0.051134124
146	0xbcdc2eb0	-0.026877731
147	0x3b8f9aaa	0.004382451
148	0x3d4a4b7f	0.049388405
149	0x3d367c81	0.04455233
150	0xbcb0ffc9	-0.021606343
151	0x3d376862	0.04477728
152	0x3c75aee9	0.014995315
153	0x3d1f111f	0.038834687
154	0xbd5c7d81	-0.053830627
155	0x3d077621	0.03307164
156	0x3d433fbe	0.04766821
157	0xbbae93ce	-0.0053276783
158	0xbaeb8b79	-0.0017970643
159	0xbc31c221	-0.010849507
160	0xbc8580e8	-0.016296819
161	0x3cb3246e	0.021867957
162	0x3a448158	0.00074960804
163	0x3d0a521e	0.03376972
164	0xbd39d8d8	-0.045372814
165	0xbc882571	-0.016619416
166	0xbcae09a5	-0.021244833
167	0xbca7a4ba	-0.02046429
168	0x3ac68dd1	0.0015148466
169	0xbd25659e	-0.040380113
170	0x3c2abb06	0.010420566
171	0xbd59ed0f	-0.053204592
172	0xbb928996	-0.004471968
173	0x3c1bd13b	0.009510334
174	0x3c97345c	0.018457584
175	0x3cd948c1	0.02652395
176	0x3d5e6144	0.05429198
177	0xbd1c50c2	-0.038162954
178	0xbc4efdbc	-0.012633737
179	0xbd2b26e1	-0.041785125
180	0x3a819ab6	0.0009888026
181	0xbd40cdfb	-0.04707144
182	0x3d2b78fc	0.041863427
183	0xbd39bfff	-0.045349117
184	0xba1624ae	-0.00057275116
185	0xbcd37d7d	-0.025816673
186	0x3c7b0abd	0.015322384
187	0x3cee17f6	0.02906416
188	0x3cc6469d	0.024203593
189	0xbd4210fc	-0.04737948
190	0xbd000c30	-0.031261623
191	0xbbba62b9	-0.005688038
192	0xbd51b3cb	-0.051196855
193	0x3c507adf	0.012724607
194	0xbd2b2b2b	-0.041789215
195	0x3c932bcb	0.017965218
196	0xbd60cdab	-0.05488364
197	0xbd28ea0d	-0.041238833
198	0xbcea6458	-0.0286123
199	0x3d321e87	0.043486144
200	0xbd295b52	-0.041346855
201	0xbd088b99	-0.033336256
202	0x3cfc6fe5	0.030815074
203	0xbca93979	-0.020657288
204	0x3d373758	0.044730514
205	0xbcd27637	-0.025691135
206	0x3d185825	0.037193436
207	0x3d0e9a3e	0.034815066
208	0xbcaa5c04	-0.02079583
209	0xbd0b2cb6	-0.033978187
210	0x3b93754b	0.0045000664
211	0xbd265a70	-0.04061359
212	0xbd677ff1	-0.0565185
213	0x3c492b0c	0.01227833
214	0x3ce944be	0.028475162
215	0xbd5b15db	-0.05348764
216	0x3cc78985	0.024357567
217	0x3d823c28	0.0635913
218	0xbc5e68db	-0.013574804
219	0x3d625a49	0.055261884
220	0x3bb68e39	0.0055711535
221	0xbd07bef1	-0.03314108
222	0xbd5fa981	-0.05460501
223	0x3caea02a	0.021316607
224	0x3d5495d7	0.05190071
225	0xbca30d60	-0.019903839
226	0x3cd65fe4	0.026168771
227	0x3caf6e16	0.021414798
228	0xbd20ec56	-0.039287888
229	0x3d044d7c	0.032300457
230	0x3c184e7d	0.009296057
231	0xbd37859b	-0.04480515
232	0x3d1a7e8d	0.037718344
233	0xbb9f0248	-0.004852567
234	0x3d164bc9	0.036693368
235	0x3cf927b3	0.030414438
236	0x3c2ffba3	0.010741147
237	0xbc99e745	-0.018787036
238	0x3d71a728	0.058997303
239	0x3d64f167	0.05589428
240	0xbcb7687d	-0.022388691
241	0x3bcff30b	0.0063461117
242	0xbb6f082c	-0.0036473377
243	0xbc1e7de8	-0.009673573
244	0xbd5dd390	-0.05415684
245	0xbd8534f5	-0.065042414
246	0x3c850f50	0.016242653
247	0xbbb3ee18	-0.0054910295
248	0xbc3e3544	-0.011609379
249	0x3d0cce31	0.034376327
250	0xbc6862eb	-0.01418374
251	0x3c14761c	0.009061363
252	0x3ccf6019	0.025314378
253	0x3ccee657	0.025256319
254	0xbd659922	-0.056054242
255	0x3c5e4dba	0.013568336

convs.2.lin_l.bias f4 [2]
0	0xbcc8cde1	-0.024512233
1	0x3d73c110	0.05951029
