src/jupyter/GCN_best_f1_sage_neighborhood_model_weights.pth (torch, 461901 bytes, 15 tensors)

convs.0.lin_l.weight f4 [128, 183]
-0.030548574 -0.0066364803 -0.07761262 -0.044313658 0.024694808 -0.010656354 0.11622037 0.011515925
-0.0060598864 -0.00497056 -0.06423087 -0.0072833477 -0.014126654 0.08687075 -0.04329292 0.04353284
-0.017357668 0.053426374 0.068431064 0.0708707 -0.024034195 -0.023797743 -0.056700848 0.013509923
0.03947154 0.03322694 -0.045713507 -0.0049674697 0.004516311 0.06495963 0.03826508 -0.0050304756
-0.03490044 -0.055374347 0.0034325633 0.05366392 -0.025838522 0.032181993 -0.03310599 -0.06755004
0.027857263 0.032745678 0.08322693 -0.058467593 -0.033973698 0.06694679 -0.007897366 0.04645578
0.051786717 0.016241737 -0.08491105 0.057257913 -0.041366544 -0.09100907 -0.048332673 -0.0003278276
0.02551168 0.02156227 -0.009403394 0.03945775 0.00013054571 0.008395198 0.007548205 0.0920238
-0.051780853 -0.0032145667 0.017900588 -0.009609827 -0.0075154435 -0.009672953 0.038415205 -0.10526535
-0.032387663 -0.011691567 0.0009560917 -0.032644447 -0.06604902 -0.023052607 -0.06700612 -0.032619987
-0.043872464 -0.060596958 -0.1374319 0.0044595697 0.0061075813 0.036988948 -0.024365172 -0.08559277
-0.0141340345 -0.017912243 0.0119910035 -0.09152303 0.037457846 -0.029725945 0.09136386 0.056418154
-0.07581992 0.079822764 -0.02360077 0.1255278 -0.07730101 -0.031167382 0.022577837 0.021468712
0.015617418 -0.034437098 -0.068026595 0.0790517 0.06222096 -0.06587727 0.037556022 0.00027046364
0.045128524 -0.06749777 -0.056863036 -0.038887635 0.010730906 -0.090552986 0.014786598 -0.04617594
0.030226672 0.0059474637 -0.038085587 0.0044929385 0.07263547 -0.03237321 0.006227666 -0.00063034456
-0.046091184 0.038627643 -0.08739357 0.010598102 -0.0025363169 -0.024277778 0.009204137 0.057770316
0.007275854 0.020450419 -0.07044741 -0.014632685 0.0018204438 -0.030273862 -0.012280475 -0.013268183
0.038356647 0.03781494 0.015653303 0.0020495981 -0.021895543 0.08880576 0.09982397 0.0035187164
0.021890808 0.048165616 0.08772911 -0.0002719059 0.04460617 0.041031346 0.11179474 -0.006673942
0.0702337 -0.06441471 -0.01858597 0.03489089 -0.023985166 -0.038327478 0.073724344 -0.0112828985
0.04164781 -0.05090811 -0.024442296 0.08798834 -0.06890199 -0.0122601 -0.044767104 0.07718595
0.09434437 0.050886605 -0.019169603 0.03532585 0.0613072 0.04093855 0.031004414 0.09319211
0.015536669 -0.045180973 -0.022519916 0.077806875 -0.031752586 -0.018904425 -0.037754048 0.01519909
-0.037369058 0.034555852 -0.017203994 -0.02767349 0.02562128 -0.13033746 -0.02396583 -0.00679289
0.0131831495 -0.038976327 -0.037171014 -0.025452435 -0.070686124 -0.08209718 0.009712871 0.066151075
-0.07502233 0.004775014 0.02013404 -0.05786647 -0.010559218 -0.03632601 -0.078514375 0.016274253
0.0033229124 0.033893008 -0.02840524 -0.07789921 -0.09083729 -0.03525561 -0.027193556 -0.010032813
-0.008366923 -0.113200665 -0.04208084 0.044885524 0.03741115 0.0053018527 0.0113052055 0.03155035
-0.049167138 -0.06705129 0.054939713 0.09800994 0.14238095 -0.0033182583 0.0044237883 -0.044157464
0.039074183 -0.046126906 -0.01744005 0.038655322 -0.06340733 0.015777504 0.012771994 0.020082293
0.03814146 -0.039404575 -0.03874183 0.027648918 -0.009031448 -0.010191122 -0.06782338 -0.008998607
00000000: 0141 fabc d576 d9bb 5ef3 9ebd 3d82 35bd
00000010: c44c ca3c fd97 2ebc f204 ee3d 4aad 3c3c
00000020: 0392 c6bb 14e0 a2bb 798b 83bd 26a9 eebb
00000030: 7b73 67bc 4be9 b13d eb53 31bd 7e4f 323d
00000040: ab31 8ebc 9dd5 5a3d 9625 8c3d a824 913d
00000050: 5ce3 c4bc 7cf3 c2bc 263f 68bd b958 5d3c
00000060: e9ac 213d f918 083d 163e 3bbd 28c6 a2bb
00000070: 90fd 933b 8e09 853d d8bb 1c3d b0d6 a4bb
00000080: c4f3 0ebd 36d0 62bd dbf4 603b b3ce 5b3d
00000090: 4fab d3bc 44d1 033d 269a 07bd ad57 8abd
000000a0: ea34 e43c 5520 063d e172 aa3d b77b 6fbd
000000b0: 0128 0bbd 661b 893d f463 01bc 6a48 3e3d
000000c0: 4f1e 543d 640d 853c d8e5 adbd 4687 6a3d
000000d0: f76f 29bd f762 babd 7bf8 45bd 47e0 abb9
000000e0: dffd d03c 5ca3 b03c b110 1abc 739e 213d
000000f0: 19e3 0839 038c 093c ef56 f73b f976 bc3d
00000100: 2918 54bd 7bab 52bb 41a4 923c 8972 1dbc
00000110: 1c44 f6bb 4e7b 1ebc 4359 1d3d 5c95 d7bd
00000120: eda8 04bd fc8d 3fbc 3aa2 7a3a 2fb6 05bd
00000130: b544 87bd d2d8 bcbc 813a 89bd 899c 05bd
00000140: 9db3 33bd 8434 78bd f3ba 0cbe 9521 923b
00000150: 1b22 c83b b981 173d 7899 c7bc 434b afbd
00000160: 7092 67bc b2bc 92bc ea75 443c 6d70 bbbd
00000170: 666d 193d d383 f3bc fa1c bb3d b916 673d
00000180: 7947 9bbd 1e7a a33d 6756 c1bc 5c8a 003e
00000190: fe4f 9ebd bd52 ffbc 28f5 b83c 27df af3c
000001a0: 33e0 7f3c ea0d 0dbd 8751 8bbd dce5 a13d
000001b0: 68db 7e3d aaea 86bd 58d4 193d 04cd 8d39
000001c0: b0d8 383d 453c 8abd 37e9 68bd a448 1fbd
000001d0: afd0 2f3c d873 b9bd 7d43 723c fc22 3dbd
000001e0: ed9d f73c f1e2 c23b a2ff 1bbd 8039 933b
000001f0: e8c1 943d c599 04bd 7311 cc3b b53d 25ba
00000200: 1cca 3cbd 0538 1e3d 66fb b2bd a9a3 2d3c
00000210: 5638 26bb 31e2 c6bc f3cc 163c 91a0 6c3d
00000220: 496a ee3b a387 a73c bb46 90bd eebd 6fbc
00000230: f59b ee3a e400 f8bc 0c34 49bc cb62 59bc
00000240: dc1b 1d3d d7e3 1a3d 5b3b 803c 8d52 063b
00000250: 485e b3bc cbdf b53d 8270 cc3d 449a 663b
00000260: 5a54 b33c 4f49 453d 52ab b33d 988e 8eb9
00000270: f6b4 363d 7c10 283d a4f4 e43d 15b1 dabb
00000280: b0d6 8f3d dceb 83bd 9b41 98bc c0e9 0e3d
00000290: 8a7c c4bc 46fd 1cbd cafc 963d e8db 38bc
000002a0: e596 2a3d 0685 50bd 363b c8bc 3b33 b43d
000002b0: 7d1c 8dbd 96de 48bc b65d 37bd ab13 9e3d
000002c0: 9f37 c13d 796e 503d 9209 9dbc d7b1 103d
000002d0: 421d 7b3d 2eaf 273d f8fc fd3c 81db be3d
000002e0: 838d 7e3c af0f 39bd b07b b8bc 3659 9f3d
000002f0: 000f 02bd 74dd 9abc fda3 1abd 9b05 793c
00000300: 4c10 19bd 708a 0d3d 64ef 8cbc 84b3 e2bc
00000310: b8e3 d13c 2f77 05be fd53 c4bc e496 debb
00000320: 23fe 573c a4a5 1fbd a240 18bd a081 d0bc
00000330: e3c3 90bd 9122 a8bd bc22 1f3c 377a 873d
00000340: 4fa5 99bd b877 9c3b 24f0 a43c 6405 6dbd
00000350: 9200 2dbc 95ca 14bd 25cc a0bd 9551 853c
00000360: 38c5 593b 65d3 0a3d 1bb2 e8bc 9f89 9fbd
00000370: e708 babd 3068 10bd 05c5 debc ab60 24bc
00000380: 6b15 09bc c0d5 e7bd f55c 2cbd e2d9 373d
00000390: 6f3c 193d 2abb ad3b 7839 393c f13a 013d
000003a0: 7b63 49bd 3052 89bd 7708 613d 6fb9 c83d
000003b0: 50cc 113e 2377 59bb 6df5 903b 75de 34bd
000003c0: 400c 203d 91ef 3cbd 70de 8ebc 0b55 1e3d
000003d0: b4db 81bd d33f 813c a041 513c 9f83 a43c
000003e0: 383a 1c3d b166 21bd c1af 1ebd fc7f e23c
000003f0: a3f8 13bc aaf8 26bc fce6 8abd e56e 13bc

convs.0.lin_l.bias f4 [128]
0.052352715 -0.076525815 0.11235796 -0.0028114934 0.09787032 0.06424206 0.052484456 -0.025486246
-0.035086006 0.10344382 -0.02894843 0.042971153 0.0098851845 5.0777537e-05 -0.058728725 0.045042083
-0.06672322 0.040580902 0.083892785 0.127233 0.04736229 0.047006432 0.006563803 0.019233732
-0.009413039 0.018197382 -0.08317612 0.008722483 0.05265787 -0.018196026 0.030841297 0.09795636
0.02343492 0.009911103 -0.053954404 -0.01340449 -0.045081876 -0.02713222 0.03645557 0.056074373
-0.009208534 0.031217728 0.037251286 -0.012015939 0.081021205 0.0035365198 0.112926744 -0.06386163
-0.00458899 0.04205252 0.053425506 -0.06711586 0.11164047 0.12424528 -0.02312437 0.045542307
-0.13272676 -0.06458655 -0.05360478 -0.06166652 0.05686371 -0.00538224 0.013435052 -0.09291899
0.07991598 -0.088293515 0.076966114 0.029646259 -0.031329155 0.08042687 0.1002343 0.04557464
0.027598564 0.010415288 -0.10703033 -0.06206835 0.04114629 -0.015005337 -0.03542712 -0.014684493
-0.027259558 0.09046664 -0.02440934 -0.14403982 0.025777195 0.03977686 0.0005063633 -0.04261082
0.03177721 0.11774342 -0.028114703 0.059501085 0.11675807 0.0783625 0.08583354 -0.04439946
0.025042221 -0.06953042 0.057241138 0.037169293 -0.0060248077 0.040734597 -0.026689567 0.03179887
-0.13532326 -0.0010219486 0.0076707364 -0.057345785 0.037082557 0.08083019 -0.04256895 0.051047042
-0.024623493 0.052579567 0.106976084 -0.101524726 -0.035439674 0.07789454 0.0038965547 0.10185298
-0.038392555 -0.114872195 -0.083701104 0.036431607 0.009447794 -0.12762357 0.040882494 -0.0059284125
00000000: cd6f 563d 91b9 9cbd ee1b e63d 0841 38bb
00000010: 3c70 c83d 5791 833d f1f9 563d 88c8 d0bc
00000020: 58b6 0fbd 5ada d33d 4225 edbc 8502 303d
00000030: 78f5 213c f7f9 5438 888d 70bd 0c7e 383d
00000040: 2fa6 88bd 2938 263d fbcf ab3d 5e49 023e
00000050: f6fe 413d d189 403d 2c15 d73b 0f90 9d3c
00000060: 2639 1abc ad12 953c 3e58 aabd bfe8 0e3c
00000070: c7af 573d d50f 95bc e3a6 fc3c 589d c83d
00000080: 97fa bf3c 2e62 223c 4bff 5cbd 829e 5bbc
00000090: c6a7 38bd 6444 debc 7052 153d 3eae 653d
000000a0: 64df 16bc 52bc ff3c ce94 183d 80de 44bc
000000b0: 72ee a53d f5c4 673b 2346 e73d e3c9 82bd
000000c0: 3d5f 96bb 433f 2c3d b4d4 5a3d 0a74 89bd
000000d0: c2a3 e43d 4f74 fe3d 526f bdbc 928a 3a3d
000000e0: 86e9 07be f445 84bd b090 5bbd 0896 7cbd
000000f0: ece9 683d 805d b0bb b11e 5c3c 504c bebd
00000100: fdaa a33d 3bd3 b4bd 69a0 9d3d b6dc f23c
00000110: 0053 00bd d8b6 a43d a447 cd3d 79ac 3a3d
00000120: 6216 e23c e2a4 2a3c b832 dbbd 623b 7ebd
00000130: 0389 283d f2d8 75bc 071c 11bd 3a97 70bc
00000140: 704f dfbc 9346 b93d 19f6 c7bc 2d7f 13be
00000150: b22a d33c 10ed 223d 77bd 043a af88 2ebd
00000160: d228 023d 7623 f13d ce50 e6bc 69b7 733d
00000170: db1e ef3d 857c a03d 7fc9 af3d 35dc 35bd
00000180: 5825 cd3c f765 8ebd af75 6a3d d43e 183d
00000190: c06b c5bb 52d9 263d 14a4 dabc 883f 023d
000001a0: 2e92 0abe e8f2 85ba cd5a fb3b 6ae3 6abd
000001b0: e1e3 173d 4c8a a53d c85c 2ebd b416 513d
000001c0: 35b7 c9bc ac5d 573d 4716 db3d 32ec cfbd
000001d0: 3129 11bd 2c87 9f3d 575d 7f3b 4c98 d03d
000001e0: 8341 1dbd 1d42 ebbd 7c6b abbd 4f39 153d
000001f0: ecca 1a3c c1af 02be 6774 273d 2143 c2bb

convs.0.lin_r.weight f4 [128, 183]
0.076283306 -0.050155763 0.12107478 -0.059438612 0.03231393 -0.044585768 -0.009669741 0.01845599
-0.06143418 0.0061158706 -0.029703554 -0.029302616 -0.03727458 -0.017576586 0.0754189 -0.028727103
-0.005286507 0.057349715 0.03464186 0.036518097 0.050230697 -0.045626115 -0.08315885 -0.06538918
-0.0072346367 0.024548605 0.004600684 -0.044732623 -0.084771395 -0.08460541 0.02289027 0.005310783
0.007916292 0.05144524 -0.054218166 0.017150754 -0.08272293 0.03153337 0.015919354 -0.007468861
-0.025151178 -0.068955235 -0.06353199 0.00069002074 -0.03694725 -0.053826943 0.01400581 0.042292334
-0.086988024 -0.011683865 0.037145417 0.07391213 0.046737157 0.14986482 -0.013242606 0.037726093
-0.04575513 -0.014779133 -0.031482983 -0.009779361 -0.0782341 -0.054241583 0.017451262 0.035981707
-0.008368181 -4.4324766e-05 0.027747856 -0.0029545822 -0.013011575 0.028745148 0.023353694 -0.016385423
-0.011368222 0.01915399 0.036798 0.012528532 -0.05326733 0.037969925 0.058819305 0.061709337
-0.008469079 0.00013715569 -0.0066507743 0.05154287 -0.024808425 -0.020758843 -0.051092982 -0.074229024
-0.0138658285 -0.037180487 -0.0120762065 -0.005983312 -0.09772153 -0.053760964 0.044472586 0.047042556
0.07429417 0.07004721 -0.116981976 -0.045942314 0.07203625 0.032835968 0.10457383 0.03873737
0.066070884 0.06190004 -0.11929259 0.02842755 0.016457645 -0.059843924 -0.044696033 0.05528748
-0.092859305 -0.0019260638 0.07674831 -0.021513827 0.012984263 -0.058298144 -0.005349773 0.102884494
0.102005534 0.05887884 -0.08639268 -0.09574884 -0.006445825 0.023823876 0.02659283 -0.11861521
-0.04781762 0.021924075 -0.11688461 -0.030568115 0.07740466 0.010904387 0.04684916 -0.024811096
0.05321209 -0.06265664 -0.019344583 0.060529828 0.098773845 0.06495091 -0.0044764034 0.016487753
0.030335743 0.05563666 0.010354446 -0.012934798 -0.12883109 0.070559464 0.0721987 0.02072049
-0.07991644 -0.013254067 -0.013683273 -0.09405449 0.009504996 -0.08697351 0.094619356 0.030991318
0.0134715475 -0.021432444 0.0716734 0.041420426 0.17525128 0.1491557 0.030718962 0.098371714
0.01136559 0.102474846 -0.02312022 -0.043241005 0.035851322 -0.0029345686 0.03157746 0.054420322
0.031850807 -0.056809757 -0.13744596 -0.05709544 0.027950052 -0.080222264 -0.040315576 0.019613197
-0.013395482 -0.15104145 0.029915052 -0.0062108845 -0.121276036 -0.06245798 0.14889582 -0.0035982467
-0.00851894 -0.0033988652 -0.08381748 0.019325105 0.012958978 -0.14405574 0.027664011 0.02481218
0.039305706 -0.026201846 -0.03580861 0.021004304 0.019182377 0.07313335 0.09108538 0.04407417
-0.04925195 -0.0056437184 0.06255613 0.02571828 0.017415969 0.09975974 -0.02754699 0.04868219
-0.029684374 0.046269607 0.0702783 0.068045944 0.0041266554 -0.046132904 0.07777978 -0.008798288
0.07189107 -0.018916294 -0.018184163 -0.0021797933 0.0166661 0.02274661 0.00436583 0.040446036
0.060957875 -0.023409577 0.09225003 -0.14823802 -0.14121912 0.07943444 -0.18129434 -0.09206934
0.011791083 -0.06446153 -0.0632244 0.0022706941 0.015347973 -0.00264099 0.04693583 -0.09790231
0.012366041 0.01999746 0.031635895 0.05460904 -0.012505527 0.032260347 0.02475649 0.06156267
00000000: 6c3a 9c3d 2170 4dbd 0ef6 f73d e775 73bd
00000010: 9d5b 043d 919f 36bd d56d 1ebc 0431 973c
00000020: 68a2 7bbd a467 c83b de54 f3bc 0a0c f0bc
00000030: 3bad 18bd c6fc 8fbc 3975 9a3d 1a55 ebbc
00000040: 6f3a adbb 89e7 6a3d 9fe4 0d3d 0094 153d
00000050: b4be 4d3d 73e2 3abd 304f aabd c3ea 85bd
00000060: 8810 edbb 281a c93c 56c1 963b 8e39 37bd
00000070: a09c adbd 9a45 adbd 6084 bb3c 1406 ae3b
00000080: 56b3 013c 3eb8 523d de13 5ebd bd7f 8c3c
00000090: a46a a9bd 2329 013d 4e69 823c 59bd f4bb
000000a0: d809 cebc 6738 8dbd 0f1d 82bd 82e2 343a
000000b0: 0056 17bd a479 5cbd a078 653c ba3a 2d3d
000000c0: c726 b2bd af6d 3fbc cb25 183d 3e5f 973d
000000d0: 766f 3f3d 2a76 193e 84f7 58bc ad86 1a3d
000000e0: bb69 3bbd 2d24 72bc 4df4 00bd 9d39 20bc
000000f0: 3339 a0bd 6c2c 5ebd f3f5 8e3c 8e61 133d
00000100: b21a 09bc 5be9 39b8 794f e33c aaa1 41bb
00000110: 802e 55bc f27a eb3c 3f50 bf3c b93a 86bc
00000120: c741 3abc d4e8 9c3c 80b9 163d 7944 4d3c
00000130: d82e 5abd 5a86 1b3d 83ec 703d eec2 7c3d
00000140: e4c1 0abc 73d1 0f39 bdee d9bb 9e1e 533d
00000150: 0a3b cbbc 730e aabc e046 51bd 6305 98bd
00000160: 802d 63bc 914a 18bd 48db 45bc a90f c4bb
00000170: 3a22 c8bd 7534 5cbd e328 363d b2af 403d
00000180: 8b27 983d e974 8f3d 3f94 efbd 022e 3cbd
00000190: be87 933d 027f 063d ce2a d63d 14ab 1e3d
000001a0: 2c50 873d e58a 7d3d ac4f f4bd e5e0 e83c
000001b0: 2fd2 863c e71e 75bd 3013 37bd 2075 623d
000001c0: 052d bebd fa73 fcba 382e 9d3d c43d b0bc
000001d0: f2bb 543c 09ca 6ebd 264d afbb 1bb5 d23d
000001e0: 47e8 d03d f02a 713d a5ee b0bd f817 c4bd
000001f0: 8037 d3bb 4a2a c33c 35d9 d93c 88ec f2bd
00000200: 69dc 43bd 1e9a b33c 3361 efbd fc69 fabc
00000210: 5686 9e3d 50a8 323c e8e4 3f3d a440 cbbc
00000220: ecf4 593d 2052 80bd 8878 9ebc 20ee 773d
00000230: f149 ca3d fc04 853d cbae 92bb 5311 873c
00000240: aa82 f83c 44e3 633d b2a5 293c 7aec 53bc
00000250: 4cec 03be 7b81 903d e9dc 933d 04be a93c
00000260: 3bab a3bd 9627 59bc cf2f 60bc a49f c0bd
00000270: d8ba 1b3c 2b1f b2bd cbc7 c13d 81e1 fd3c
00000280: c4b7 5c3c 1893 afbc 81c9 923d 77a8 293d
00000290: 1275 333e 46bc 183e 55a6 fb3c 1c77 c93d
000002a0: bd36 3a3c 55de d13d 9e66 bdbc 7b1d 31bd
000002b0: d6d8 123d e451 40bb 5e57 013d d8e7 5e3d
000002c0: fe75 023d 59b1 68bd a2be 0cbe e8dc 69bd
000002d0: 82f7 e43c 924b a4bd f221 25bd dbab a03c
000002e0: b978 5bbc 9caa 1abe 6910 f53c ad84 cbbb
000002f0: 925f f8bd f0d3 7fbd 2578 183e 90d0 6bbb
00000300: 0693 0bbc 7fbf 5ebb 80a8 abbd af4f 9e3c
00000310: e551 543c 5983 13be a39f e23c ea42 cb3c
00000320: 05ff 203d 41a5 d6bc 0dac 12bd 3811 ac3c
00000330: 5c24 9d3c f0c6 953d f98a ba3d 1e87 343d
00000340: 6abc 49bd f1ee b8bb 6e1d 803d 24af d23c
00000350: efab 8e3c d64e cc3d 3aaa e1bc fa66 473d
00000360: a52c f3bc 3385 3d3d 12ee 8f3d ac5b 8b3d
00000370: e538 873b dbf5 3cbd 014b 9f3d b226 10bc
00000380: a03b 933d 58f6 9abc f4f6 94bc ddda 0ebb
00000390: 5887 883c 1957 ba3c 3d0f 8f3b beaa 253d
000003a0: f7ae 793d 71c5 bfbc 95ed bc3d b5cb 17be
000003b0: bf9b 10be 86ae a23d 39a5 39be da8e bcbd
000003c0: 632f 413c 6804 84bd cb7b 81bd edcf 143b
000003d0: 1176 7b3c 7614 2dbb c93f 403d 0281 c8bd
000003e0: ef9a 4a3c b7d1 a33c a494 013d bbad 5f3d
000003f0: fbe3 4cbc 6d23 043d 1fce ca3c 2329 7c3d

convs.1.lin_l.weight f4 [128, 128]
-0.08920032 0.017358415 0.048602346 -0.011866367 0.021941246 0.025504628 0.050151974 0.06533462
0.0528571 0.024912184 -0.10212061 0.13981058 3.7789243e-05 -0.0048104213 -0.089336425 -0.0925447
-0.026018966 -0.045581136 -0.024006862 -0.057560995 0.08215008 0.03711401 0.035225615 -0.008797805
-0.019294279 -0.06643851 0.07824028 -0.016087927 -0.0018435201 -0.0013974037 -0.050968338 -0.02898549
0.11507088 0.029140368 0.03465484 -0.07418869 -0.08580737 -0.08132112 0.08928161 0.008775932
0.051523395 -0.03600188 -0.049494985 -0.051788513 0.09651937 0.014374401 0.040195223 -0.09214204
0.075707234 -0.026124828 0.03755299 0.030258471 0.10905244 0.07292874 -0.009014657 -0.072914936
-0.059898004 0.0051211794 -0.033650007 0.021523567 -0.0059653386 0.04858127 -0.0116156675 -0.053253278
-0.04817851 0.08249743 -0.05058525 0.03717693 -0.10295709 0.018288948 0.0031680595 -0.048277006
0.032512147 -0.004602514 0.0034285034 -0.022811104 0.037181955 -0.061703455 0.057397164 0.07543411
0.007273061 -0.017644146 0.08598502 -0.012939685 -0.012485538 0.045709778 0.07953473 0.093593344
-0.025337053 -0.055692658 0.043169893 -0.026060484 0.09027145 -0.036247857 -0.0478711 -0.10077495
0.0074399323 -0.031179424 0.07112545 -0.034936503 0.024330882 0.008852121 0.09960159 0.09818063
0.01537858 0.05403172 -0.046032067 0.07426944 -0.07908113 -0.0019910852 0.04358691 -0.008845772
0.04298365 -0.064379185 -0.010364257 0.021027215 -0.06501819 0.031798538 0.014508439 -0.0035851419
0.025142943 0.07518863 0.10510955 -0.1165652 0.080035135 -0.02466826 -0.048740886 -0.06568213
-0.062788464 -0.0117922705 0.032836255 -0.036405243 -0.10149858 -0.16062841 -0.041390777 -0.037854675
-0.08384444 -0.011761902 -0.077545896 0.0750312 -0.13530315 0.031542644 0.073970616 -0.026329411
0.06342495 -0.041297764 0.01593898 -0.015023548 0.003701657 0.009105722 -0.027248168 -0.079333186
-0.003157744 -0.05281569 0.020667035 -0.028485704 0.025147248 -0.045247164 0.04525703 0.0594806
-0.07911805 -0.049518757 -0.074904785 0.08598286 -0.12216117 -0.05346473 0.05298492 -0.09112695
-0.053919893 -0.12913823 -0.07212082 0.055646922 -0.065341346 -0.041659813 -0.032139573 -0.023481159
-0.038281295 -0.047504947 -0.012047774 0.018309647 -0.11751058 0.052256126 0.06288514 -0.109244645
-0.028214859 -0.08079179 -0.068683855 -0.0003973396 0.05436671 -0.056541763 -0.04346373 -0.04373054
-0.10989715 -0.15256555 0.061475817 0.034621105 -0.03991369 -0.040915925 -0.009171282 -0.014855268
0.033233497 -0.067456305 -0.03644064 0.017197244 -0.12138501 0.07575361 -0.046490666 0.022473196
-0.07926977 -0.092678696 -0.14067633 0.053609893 -0.03983439 -0.008837561 0.021625223 -0.010308048
-0.104314916 0.09188727 0.09736627 0.011887054 -0.0553508 -0.02121039 -0.10204372 -0.03555042
-0.0006017253 -0.026070468 0.021066032 -0.027674004 -0.09895367 -0.09790126 -0.049048614 0.041830055
-0.08377837 0.037026685 -0.0684046 -0.07438087 0.0095356405 -0.082038626 0.057244632 0.0132143805
-0.0145411575 0.08734668 -0.06544364 0.014215841 0.053043082 -0.10868687 0.060597282 0.092628144
-0.1021685 -0.01003929 -0.071068764 -0.14340396 0.053850144 -0.096620604 0.05027385 0.07115782
00000000: a8ae b6bd 3c33 8e3c 4113 473d 276b 42bc
00000010: 21be b33c 15ef d03c 286c 4d3d 28ce 853d
00000020: b080 583d a314 cc3c 9c24 d1bd 812a 0f3e
00000030: e47f 1e38 bda0 9dbb 04f6 b6bd 1388 bdbd
00000040: ba25 d5bc 49b3 3abd 0aaa c4bc 14c5 6bbd
00000050: 4d3e a83d dc04 183d bc48 103d ab24 10bc
00000060: 090f 9ebc ea10 88bd 713c a03d d4ca 83bc
00000070: 45a2 f1ba 1629 b7ba 2dc4 50bd fa72 edbc
00000080: 48aa eb3d c8b7 ee3c 3cf2 0d3d 3df0 97bd
00000090: c6bb afbd b08b a6bd 47d9 b63d edc8 0f3c
000000a0: 320a 533d b576 13bd 41bb 4abd 3120 54bd
000000b0: f3ab c53d 9c82 6b3c bfa3 243d f7b4 bcbd
000000c0: 650c 9b3d bc03 d6bc 2ad1 193d 9de0 f73c
000000d0: e356 df3d aa5b 953d 36b2 13bc 6d54 95bd
000000e0: 9c57 75bd 91cf a73b 97d4 09bd 3152 b03c
000000f0: e378 c3bb 27fd 463d a44f 3ebc 1c20 5abd
00000100: d456 45bd 6af4 a83d 7b32 4fbd d646 183d
00000110: 2bdb d2bd b4d2 953c 389f 4f3b 1cbe 45bd
00000120: 752b 053d b0d0 96bb beb0 603b 5ade babc
00000130: 1b4c 183d c3bc 7cbd 4a19 6b3d 337d 9a3d
00000140: dc52 ee3b 758a 90bc ea18 b03d f900 54bc
00000150: 2490 4cbc 2d3a 3b3d 1be3 a23d dead bf3d
00000160: a78f cfbc fc1d 64bd ead2 303d cc7c d5bc
00000170: 3de0 b83d a278 14bd 7d14 44bd 1963 cebd
00000180: adca f33b fe6b ffbc 38aa 913d 9419 0fbd
00000190: 8f51 c73c 7d08 113c ebfb cb3d ed12 c93d
000001a0: 71f6 7b3c 5d50 5d3d 1f8c 3cbd 931a 983d
000001b0: 4af5 a1bd de7c 02bb 3088 323d dbed 10bc
000001c0: a00f 303d 3cd9 83bd d8ce 29bc 4441 ac3c
000001d0: 4228 85bd 2f3f 023d ceb4 6d3c b3f4 6abb
000001e0: 93f8 cd3c 7ffc 993d ad43 d73d bcb9 eebd
000001f0: 76e9 a33d 1715 cabc 86a4 47bd 5a84 86bd
00000200: 3d97 80bd 5e34 41bc 4f7f 063d aa1d 15bd
00000210: 7dde cfbd c67b 24be 6089 29bd 810d 1bbd
00000220: a2b6 abbd feb4 40bc 62d0 9ebd f5a9 993d
00000230: e98c 0abe dc32 013d e87d 973d c7b0 d7bc
00000240: f1e4 813d d827 29bd 7792 823c 5425 76bc
00000250: 8097 723b 2b30 153c 8d37 dfbc 7079 a2bd
00000260: 27f2 4ebb 4455 58bd ea4d a93c da5a e9bc
00000270: 9a01 ce3c 1755 39bd 6f5f 393d eea1 733d
00000280: a508 a2bd 2ed4 4abd ae67 99bd c817 b03d
00000290: a32f fabd d5fd 5abd b706 593d c4a0 babd
000002a0: 1bdb 5cbd d03c 04be 15b4 93bd 07ee 633d
000002b0: afd1 85bd 7ba3 2abd c9a4 03bd 8f5b c0bc
000002c0: d9cc 1cbd 8c94 42bd 0764 45bc 1dfe 953c
000002d0: 63a9 f0bd 850a 563d edc9 803d a8bb dfbd
000002e0: d922 e7bc 2a76 a5bd 1faa 8cbd 0552 d0b9
000002f0: a1af 5e3d 5698 67bd 0607 32bd cb1e 33bd
00000300: c211 e1bd 253a 1cbe 11ce 7b3d dcce 0d3d
00000310: 8a7c 23bd 7597 27bd 2543 16bc 8363 73bc
00000320: d91f 083d 8826 8abd c842 15bd 3ce1 8c3c
00000330: b498 f8bd b524 9b3d ff6c 3ebd b519 b83c
00000340: 3058 a2bd 54ce bdbd 750d 10be 0c96 5b3d
00000350: 6329 23bd 6bcb 10bc 6127 b13c 16e3 28bc
00000360: 0fa3 d5bd 652f bc3d f867 c73d ebc1 423c
00000370: 85b7 62bd 69c1 adbc 4cfc d0bd 519d 11bd
00000380: 1abd 1dba bc91 d5bc ac92 ac3c 98b4 e2bc
00000390: 39a8 cabd 7580 c8bd 33e7 48bd fe55 2b3d
000003a0: fe93 abbd 4ba9 173d b617 8cbd ff54 98bd
000003b0: 603b 1c3c de03 a8bd 5979 6a3d 2181 583c
000003c0: 093e 6ebc d1e2 b23d 5107 86bd 8fe9 683c
000003d0: b443 593d 3997 debd db34 783d d3b3 bd3d
000003e0: b83d d1bd d67b 24bc 808c 91bd 7dd8 12be
000003f0: f891 5c3d 06e1 c5bd f4eb 4d3d 31bb 913d

convs.1.lin_l.bias f4 [128]
-0.082617804 0.02716436 0.108975954 0.08183546 0.056407493 -0.023212288 -0.03144336 0.014136897
0.040762737 0.04032621 -0.050878156 -0.060670678 0.077781856 -0.016343411 -0.033969767 0.09938041
-0.08412255 0.059236486 0.010455071 -0.048427366 -0.05724682 -0.016984727 -0.02851575 0.09185779
0.03570092 -0.027135624 -0.05287394 -0.042815104 0.06383991 0.037828233 -0.09612588 -0.061602872
0.039378196 0.07749397 -0.07907726 0.010408002 0.046657845 -0.04810395 0.043506104 -0.022552626
0.017565638 0.07691939 -0.069632374 0.034408744 -0.05383404 -0.085284114 -0.024280254 0.06845228
0.04340928 -0.034566723 -0.026158798 -0.073535964 0.027736342 -0.034875866 -0.06256592 -0.06976827
-0.045731496 -0.0026239732 0.060101487 0.05312423 0.012057171 0.029125368 -0.033749327 0.09421092
-0.011022844 0.0817281 -0.032653626 0.028490955 0.0550039 -0.090778366 -0.037949633 -0.017015757
0.0730957 0.015924813 0.07699935 -0.052751023 -0.047403716 0.07458165 -0.046462253 -0.045599576
0.10026598 -0.07046911 0.04476181 -0.069786996 -0.02579688 0.010955798 -0.03727646 0.047022227
-0.032326937 -0.078209005 0.07850229 0.016715458 0.013119776 0.033431627 0.02787353 -0.06320764
0.025038939 0.076177776 -0.0587748 0.021237366 0.040559385 0.07797575 -0.02770454 -0.071228184
0.042011805 0.05405565 0.00044803778 0.01926697 -0.043294743 0.031854615 -0.06377422 -0.057519913
-0.06960463 -0.07732323 0.062318206 0.101807356 0.03500606 0.049693104 -0.094592705 -0.026096277
0.033821937 0.07410027 -0.023852672 0.049306855 0.03756091 -0.08867767 0.07319748 -0.02519874
00000000: 8633 a9bd cb87 de3c c92e df3d 5a99 a73d
00000010: 8b0b 673d b227 bebc c1ca 00bd 729e 673c
00000020: d4f6 263d 192d 253d 9d65 50bd d181 78bd
00000030: 184c 9f3d 9ee2 85bc e223 0bbd f587 cb3d
00000040: 7248 acbd f5a1 723d bf4b 2b3c c65b 46bd
00000050: a47b 6abd 8e23 8bbc dd99 e9bc f01f bc3d
00000060: 213b 123d 874b debc 5892 58bd e45e 2fbd
00000070: 80be 823d c7f1 1a3d a5dd c4bd 4b53 7cbd
00000080: 084b 213d 29b5 9e3d 42f3 a1bd 5386 2a3c
00000090: 4c1c 3f3d a608 45bd 7533 323d 49c0 b8bc
000000a0: d0e5 8f3c ea87 9d3d 6b9b 8ebd 2ff0 0c3d
000000b0: 1581 5cbd 70a9 aebd 62e7 c6bc b530 8c3d
000000c0: eecd 313d d695 0dbd fa4a d6bc 069a 96bd
000000d0: 5337 e33c ffd9 0ebd 9022 80bd abe2 8ebd
000000e0: f350 3bbd f7f6 2bbb fa2c 763d cb98 593d
000000f0: 718b 453c 5398 ee3c bc3c 0abd a8f1 c03d
00000100: 2999 34bc 1061 a73d cfbf 05bd dd65 e93c
00000110: c54b 613d 02ea b9bd 1371 1bbd a164 8bbc
00000120: 33b3 953d c174 823c d6b1 9d3d 7511 58bd
00000130: 662a 42bd 44be 983d 344f 3ebd 9fc6 3abd
00000140: 4058 cd3d 1c52 90bd 2958 373d 7cec 8ebd
00000150: fa53 d3bc f37f 333c 34af 18bd 619a 403d
00000160: 4069 04bd 0b2c a0bd cfc5 a03d dbee 883c
00000170: 54f4 563c 9aef 083d 0757 e43c 0273 81bd
00000180: 761e cd3c 1803 9c3d d8bd 70bd fcf9 ad3c
00000190: 9921 263d c0b1 9f3d a2f4 e2bc 15e0 91bd
000001a0: 9214 2c3d 7569 5d3d 9de6 ea39 c4d5 9d3c
000001b0: d455 31bd fc79 023d 0f9c 82bd 009a 6bbd
000001c0: df8c 8ebd a45b 9ebd 6041 7f3d 6080 d03d
000001d0: 8462 0f3d ff8a 4b3d d2b9 c1bd dcc7 d5bc
000001e0: df88 0a3d e2c1 973d ae66 c3bc fcf5 493d
000001f0: 78d9 193d a39c b5bd 8fe8 953d 976d cebc

convs.1.lin_r.weight f4 [128, 128]
0.010778212 -0.055227663 -0.056925654 0.03148159 0.0094630495 0.06805117 0.026898162 0.0539427
-0.022777067 0.02407904 -0.028114295 -0.03472391 -0.0016445509 0.03833081 -0.032865763 0.026714163
0.061050545 0.035341654 0.0355292 0.08675195 -0.008693617 0.064743176 0.08443539 -0.039850365
0.019823808 0.080978096 0.06693778 0.050424427 0.017606169 0.05519133 0.069643065 0.111016795
-0.08422214 0.09960207 0.087171 -0.030198243 0.03970629 -0.07670031 0.06832166 -0.055306386
0.042407483 -0.00805409 0.030220538 -0.033083007 0.019873006 0.08898834 0.09088011 -0.13300599
0.017032655 0.05709632 -0.047043737 0.027545327 0.041573465 0.105285905 -0.08312478 0.04797479
-0.0014474564 -0.03434454 0.08675443 0.008705469 -0.008812098 -0.056273647 0.0034143198 0.076030456
-0.050030418 -0.027129067 0.020916035 -0.032112267 0.0677504 0.03613435 0.011922575 -0.04070684
0.010066064 0.03519532 -0.051896565 -0.032131087 0.02631711 -0.06875602 0.04568833 -0.049479567
0.045642413 0.010778558 0.08985982 -0.13910374 -0.08198383 0.08192474 -0.017804066 -0.02164813
-0.014912177 -0.04159743 -0.0046294946 -0.020126045 0.049572557 0.034722805 0.03908218 -0.059909634
0.032878805 0.05770768 -0.010706778 0.060118366 0.0009059621 0.012740139 0.03176492 -0.013846069
0.06507771 0.062365755 0.012479985 -0.03906344 0.048073098 -0.096568376 0.009919532 0.05008479
-0.03437989 0.019279938 0.103205144 0.0368617 -0.015475449 0.003042062 0.012159262 -0.0017505768
0.009970524 -0.05387694 0.07897842 0.025465192 -0.06448596 0.044361155 -0.017322494 0.09081289
0.03723692 -0.08528248 -0.013551718 0.027654797 -0.025683422 -0.042337086 -0.014419535 0.07359817
-0.11285223 -0.041061047 0.11971457 0.02369774 0.03357414 -0.04000675 0.043836147 -0.004533646
0.09504191 -0.101437844 -0.011557281 0.0028367117 0.068383224 0.043755487 -0.08150812 -0.015770735
0.020432942 -0.10633673 -0.14964639 -0.14783797 -0.01617671 -0.08252833 -0.06933787 -0.025797896
0.026401464 -0.12721372 0.022392215 -0.1256435 -0.1560735 -0.056930903 0.061097864 -0.031664677
-0.06763206 0.00952134 0.04974461 0.06976241 -0.043160897 0.040791415 -0.13048099 -0.13506705
0.035833444 -0.03516091 -0.07611042 -0.032339625 -0.09996471 0.04449254 0.0971036 -0.14188103
0.0002139797 -0.08758247 0.0043947874 -0.024124425 0.023828806 0.15346478 0.101685725 -0.09465501
-0.0127537595 -0.15728681 0.046809092 0.17063832 0.021069642 -0.029165639 -0.08472611 -0.10627111
0.085468695 0.06022861 -0.037283346 0.066249155 0.01831695 -0.074656285 0.08345995 0.008927066
-0.04978588 -0.12618077 0.10961124 -0.08438287 0.03100114 0.042553242 0.040116094 0.04105862
0.006798529 0.09686662 -0.081078745 -0.0056319754 0.051831033 0.06114665 -0.05256103 0.03440012
0.0035302942 0.01638578 -0.1292846 -0.17476879 0.013656647 -0.07398758 0.018158218 -0.0021806576
-0.038320616 0.008055532 -0.011204803 -0.13127226 0.113666646 -0.052033525 -0.005076942 -0.021634964
-0.026270863 0.05618802 -0.111787215 0.11999414 -0.04526364 -0.052302253 0.022415038 0.095423475
-0.043974675 0.05963042 -0.019791007 0.0056784265 -0.062215757 0.04430616 0.055501018 -0.014578411
00000000: 1997 303c 6736 62bd e02a 69bd d7f2 003d
00000010: e80a 1b3c 695e 8b3d 8959 dc3c 05f3 5c3d
00000020: f996 babc 6841 c53c f34f e6bc a93a 0ebd
00000030: f98d d7ba c400 1d3d 409e 06bd a9d7 da3c
00000040: 2310 7a3d 69c2 103d 1187 113d 02ab b13d
00000050: ac6f 0ebc 1298 843d 76ec ac3d 233a 23bd
00000060: 8a65 a23c d8d7 a53d ad16 893d d889 4e3d
00000070: d03a 903c 4e10 623d 06a1 8e3d c65c e33d
00000080: a87c acbd 2cfc cb3d b686 b23d 4e62 f7bc
00000090: 10a3 223d 0d15 9dbd 3aec 8b3d f388 62bd
000000a0: 78b3 2d3d 4df5 03bc 1091 f73c 0c82 07bd
000000b0: b7cc a23c 853f b63d 5a1f ba3d b932 08be
000000c0: 1188 8b3c d5dd 693d efb0 40bd bda6 e13c
000000d0: f048 2a3d 23a0 d73d 533d aabd 3781 443d
000000e0: 94b8 bdba dcac 0cbd 4eac b13d 62a1 0e3c
000000f0: 9e60 10bc 327f 66bd c8c2 5f3b dbb5 9b3d
00000100: b2ec 4cbd c73d debc 1b58 ab3c 2788 03bd
00000110: b9c0 8a3d 9d01 143d e756 433c 37bc 26bd
00000120: 22ec 243c f828 103d 7e91 54bd e39b 03bd
00000130: fb96 d73c f5cf 8cbd b023 3b3d 16ab 4abd
00000140: 8af3 3a3d 8d98 303c 6d08 b83d 3671 0ebe
00000150: 23e7 a7bd 28c8 a73d d5d9 91bc 6b57 b1bc
00000160: 3452 74bc 1162 2abd 04b3 97bb 60df a4bc
00000170: 980c 4b3d 8039 0e3d a314 203d ce63 75bd
00000180: edab 063d e35e 6c3d 7b6b 2fbc ad3e 763d
00000190: 167e 6d3a 04bc 503c ef1b 023d 9fda 62bc
000001a0: 7647 853d 3c73 7f3d da78 4c3c fc00 20bd
000001b0: 4ce8 443d a4c5 c5bd 8885 223c b525 4d3d
000001c0: edd1 0cbd f6f0 9d3c 385d d33d 4bfc 163d
000001d0: bd8c 7dbc 555d 473b a437 473c 9c73 e5ba
000001e0: 695b 233c 11ae 5cbd 70bf a13d 619c d03c
000001f0: 3711 84bd 0bb4 353d e7e7 8dbc 1cfc b93d
00000200: be85 183d 95a8 aebd 0608 5ebc 508c e23c
00000210: 0a66 d2bc a769 2dbd ea3f 6cbc a3ba 963d
00000220: 121f e7bd a12f 28bd ea2c f53d c321 c23c
00000230: 0a85 093d 1ede 23bd 888d 333d fb8e 94bb
00000240: 55a5 c23d a5be cfbd c05a 3dbc 20e8 393b
00000250: 810c 8c3d f438 333d bbed a6bd a131 81bc
00000260: fc62 a73c 12c7 d9bd e73c 19be d662 17be
00000270: 0585 84bc 9d04 a9bd 0301 8ebd 1c56 d3bc
00000280: e247 d83c 5044 02be e16f b73c b1a8 00be
00000290: bbd1 1fbe 6130 69bd c141 7a3d d2b2 01bd
000002a0: ad82 8abd 65ff 1b3c 01c1 4b3d 98df 8e3d
000002b0: 7bc9 30bd e614 273d cf9c 05be 044f 0abe
000002c0: 17c6 123d e304 10bd c8df 9bbd 8e76 04bd
000002d0: 4cba ccbd cf3d 363d 41de c63d 4349 11be
000002e0: bd5f 6039 705e b3bd 2602 903b 96a0 c5bc
000002f0: a134 c33c df25 1d3e 9b40 d03d 7cda c1bd
00000300: 25f5 50bc cb0f 21be e4ba 3f3d d0bb 2e3e
00000310: 3e9a ac3c c7ec eebc e284 adbd aba4 d9bd
00000320: 360a af3d 46b2 763d 6cb6 18bd a3ad 873d
00000330: 6e0d 963c 65e5 98bd 0ded aa3d d442 123c
00000340: 47ec 4bbd 8835 01be dc7b e03d edd0 acbd
00000350: 1af6 fd3c 4f4c 2e3d c650 243d 152d 283d
00000360: 32c6 de3b 0262 c63d 9d0c a6bd 6f8c b8bb
00000370: c74c 543d e974 7a3d 3c4a 57bd 24e7 0c3d
00000380: 825c 673b 793b 863c 2f63 04be 97f6 32be
00000390: 21c0 5f3c cd86 97bd 8bc0 943c 5de9 0ebb
000003a0: 14f6 1cbd 5afb 033c 5a94 37bc 3c6c 06be
000003b0: 0fca e83d 1b21 55bd 7a5c a6bb cf3b b1bc
000003c0: fe35 d7bc 6925 663d b2f0 e4bd 7dbf f53d
000003d0: 5e66 39bd e33a 56bd be9f b73c 626d c33d
000003e0: ca1e 34bd 073f 743d c020 a2bc 1812 ba3b
000003f0: f3d5 7ebd 607a 353d 0955 633d 4ada 6ebc

convs.2.lin_l.weight f4 [128, 128]
0.033252314 0.029657066 -0.038840503 -0.07347484 0.04927901 -0.049879555 -0.06048894 0.03799233
0.04571656 0.021381617 -0.05058492 -0.009594148 0.044043858 0.053961236 -0.024823034 0.07757706
0.04542063 -0.009312945 0.033636082 -0.027867481 -0.05482 0.04662721 -0.034940798 -0.0067650233
0.029842306 -0.04678945 0.042212866 -0.005064048 0.00058713095 -0.057676055 -0.0425443 0.027226107
-0.027611218 0.080033645 0.06353031 -0.05483522 0.03716036 -0.10754741 0.054621033 0.048238985
0.08983425 -0.020163627 0.09518947 -0.056494948 -0.0312508 0.093390696 -0.005217998 -0.09169829
-0.02004782 0.09807145 0.083385274 -0.063026465 -0.03398193 0.02783371 -0.0046797213 0.014661516
0.00018251776 -0.059874926 -0.022091081 -0.06728318 -0.0382965 -0.012128491 0.009622046 -0.075939484
-0.117120326 0.015861794 0.07977427 -0.02080792 -0.08478792 -0.025785213 0.06235495 -0.11141512
-0.025752302 0.074874334 0.06958818 0.01909268 0.021308677 0.037784174 -0.0026549173 -0.07160193
-0.108863555 -0.012133582 -0.08819229 -0.036300864 -0.038059108 -0.0550458 -0.030391974 -0.08694763
0.05827118 -0.058343153 0.0691354 0.03661016 -0.09142029 -0.046149373 -0.09235614 0.040968355
-0.051975407 0.00083035 -0.06154286 0.033824485 0.018345576 0.06636813 0.005359855 -0.04922391
-0.0041951025 -0.001796676 -0.06692299 -0.112055905 -0.009153037 0.039139647 -0.04871568 0.091346025
0.020540312 0.036113724 -0.031722 -0.051248677 -0.044246014 -0.06574819 0.00905534 0.023705475
-0.0018567174 -0.016432067 -0.06082444 0.0066907876 -0.01640026 0.053663637 -0.0707779 0.050864164
0.0154033145 0.09620694 0.042550467 0.040426094 -0.0110067045 -0.014955932 0.0352676 -0.05840954
-0.095311545 -0.06562303 -0.063658215 -0.041929863 -0.060262993 -0.033495177 -0.009589111 0.06890346
-0.09581683 -0.010518305 -0.003488469 -0.003044124 -0.063349605 -0.064202026 -0.057088874 -0.018612178
0.03355354 0.07928853 0.04095868 -0.017768342 -0.05055684 0.014713194 -0.02058984 -0.014937123
0.04519411 0.03472128 0.024211016 0.005501973 0.026765866 0.04242142 0.02997781 -0.071332514
0.04968986 -0.043193173 -0.042509094 0.05435325 0.076923825 0.048842076 -0.0063257245 -0.024140602
0.016667536 -0.0375086 -0.046182055 0.026087547 0.009743617 0.08224031 0.07052781 0.07458485
-0.043298166 0.044082824 0.06466406 0.0030547243 0.04052229 -0.03163414 -0.045447096 0.08165261
-0.04853067 0.05841039 -0.059366073 0.026972877 -0.050910745 -0.07060355 0.008209354 0.0064893435
-0.07219128 0.047887444 0.036715373 0.070699364 0.053209454 0.05134013 -0.032140378 0.033740915
0.022759773 -0.09307241 0.081872046 -0.009539492 0.037225924 0.020345766 -0.045570433 0.10920685
-0.04941484 -0.05125195 -0.0803448 0.039212495 -0.005437972 -0.045219805 0.033104733 0.037650667
0.064037904 -0.006829292 0.009822944 -0.03313225 0.038297813 0.08408251 0.075073056 0.056875743
0.059304077 0.047412563 -0.03170917 0.11644186 0.009929744 -0.057407133 -0.084171906 0.058461975
0.012661723 0.027708497 0.022333417 0.078139536 -0.0509148 0.051883217 0.016860362 -0.08744119
0.06104182 -0.024240876 0.024175059 -0.00025787574 -0.06169954 -0.08212998 -0.07572773 0.07628555
00000000: 9433 083d 60f3 f23c 3817 1fbd fa79 96bd
00000010: cad8 493d 814e 4cbd 40c3 77bd d89d 1b3d
00000020: 4a41 3b3d 8028 af3c 2232 4fbd c630 1dbc
00000030: 5567 343d 7506 5d3d ad59 cbbc b9e0 9e3d
00000040: fc0a 3a3d 5395 18bc fdc5 093d 584a e4bc
00000050: f08a 60bd 2cfc 3e3d 151e 0fbd 21ad ddbb
00000060: da77 f43c 4ba6 3fbd 66e7 2c3d 50f0 a5bb
00000070: b1e9 193a ba3d 6cbd ef42 2ebd 4909 df3c
00000080: ec30 e2bc aee8 a33d 2e1c 823d e59a 60bd
00000090: 7635 183d d141 dcbd 4eba 5f3d 3e96 453d
000000a0: 05fb b73d 312e a5bc b2f2 c23d 3f67 67bd
000000b0: d700 00bd 9f43 bf3d bdfb aabb 50cc bbbd
000000c0: 533b a4bc afd9 c83d e6c5 aa3d 0514 81bd
000000d0: a330 0bbd 8503 e43c 5958 99bb db36 703c
000000e0: 3d62 3f39 693f 75bd 5bf8 b4bc c4cb 89bd
000000f0: cadc 1cbd 94b6 46bc c9a5 1d3c 2986 9bbd
00000100: c8dc efbd 98f0 813c b160 a33d 5f75 aabc
00000110: 4aa5 adbd 833b d3bc e767 7f3d 9c2d e4bd
00000120: 7ef6 d2bc b757 993d 3f84 8e3d 4168 9c3c
00000130: 898f ae3c 94c3 1a3d 1ffe 2dbb 08a4 92bd
00000140: dbf3 debd eecb 46bc 299e b4bd 37b0 14bd
00000150: dee3 1bbd b477 61bd 97f8 f8bc 9911 b2bd
00000160: c3ad 6e3d 3bf9 6ebd dc96 8d3d 89f4 153d
00000170: 903a bbbd 2007 3dbd 3725 bdbd 6fce 273d
00000180: 2ae4 54bd d8ab 593a 5e14 7cbd 8b8b 0a3d
00000190: 7649 963c 04ec 873d b9a1 af3b 039f 49bd
000001a0: 1277 89bb 717e ebba ec0e 89bd 917d e5bd
000001b0: 9ff6 15bc e550 203d 188a 47bd a013 bb3d
000001c0: 2844 a83c fceb 133d eeee 01bd 22ea 51bd
000001d0: 4f3b 35bd fda6 86bd d95c 143c fc31 c23c
000001e0: 195d f3ba 8b9c 86bc 0c23 79bd 653e db3b
000001f0: d759 86bc 67ce 5b3d 01f4 90bd f156 503d
00000200: 2f5e 7c3c 2508 c53d 6649 2e3d d595 253d
00000210: 7755 34bc ba09 75bc c274 103d d83e 6fbd
00000220: b332 c3bd 5e65 86bd 3d5f 82bd a6be 2bbd
00000230: 54d6 76bd 3d32 09bd a61b 1dbc 421d 8d3d
00000240: 9d3b c4bd f854 2cbc cc9e 64bb ed7f 47bb
00000250: 70bd 81bd 5a7c 83bd 06d6 69bd 9178 98bc
00000260: 706f 093d 0662 a23d 4ac4 273d ea8e 91bc
00000270: b014 4fbd 9c0f 713c 06ac a8bc d6ba 74bc
00000280: 761d 393d e737 0e3d 2e56 c63c e549 b43b
00000290: 1744 db3c 15c2 2d3d 0694 f53c c816 92bd
000002a0: 9887 4b3d 53eb 30bd 041e 2ebd 83a1 5e3d
000002b0: 3d8a 9d3d a10e 483d 0648 cfbb 83c2 c5bc
000002c0: 5b8a 883c 9ea2 19bd 6529 3dbd 8db5 d53c
000002d0: b1a3 1f3c 9c6d a83d e270 903d f1bf 983d
000002e0: 6b59 31bd 3190 343d 976e 843d c531 483b
000002f0: b3fa 253d cd92 01bd bc26 3abd 7c39 a73d
00000300: 19c8 46bd bc3f 6f3d d729 73bd 39f6 dc3c
00000310: c987 50bd 9898 90bd 8780 063c 8fa4 d43b
00000320: 06d9 93bd a025 443d dc62 163d d4ca 903d
00000330: 28f2 593d 074a 523d a1a5 03bd ea33 0a3d
00000340: b472 ba3c bf9c bebd 88ac a73d 884b 1cbc
00000350: 367a 183d 2aac a63c 10a8 3abd d7a7 df3d
00000360: 3767 4abd 91ed 51bd d18b a4bd 489d 203d
00000370: 0431 b2bb 6738 39bd d498 073d 9637 1a3d
00000380: 4e26 833d 41c8 dfbb 6af0 203c afb5 07bd
00000390: 2bde 1c3d 7333 ac3d e7bf 993d 8af6 683d
000003a0: d5e8 723d ad33 423d 7ae1 01bd 1279 ee3d
000003b0: 5db0 223c be23 6bbd 5262 acbd d375 6f3d
000003c0: 1e73 4f3c eefc e23c 92f4 b63c 9f07 a03d
000003d0: 0a8c 50bd 7f83 543d be1e 8a3c 5e14 b3bd
000003e0: fd06 7a3d cd94 c6bc c60a c63c 7f33 87b9
000003f0: a8b8 7cbd c333 a8bd 2417 9bbd 993b 9c3d

convs.2.lin_l.bias f4 [128]
-0.058565043 0.019229999 0.055921435 -0.010878367 0.08049532 -0.054667756 0.07610003 -0.0009665483
0.00065058836 0.0053812745 0.011630713 -0.06730497 0.05477613 -0.06731177 0.07052858 0.0646841
0.035459064 -0.018048342 0.00219906 -0.07803453 -0.057498764 -0.068752855 -0.01907468 -0.071112625
0.05964355 -0.028012345 0.0068558487 0.034630124 0.06372431 -0.038016044 0.06784543 0.013807291
0.014014788 0.06077288 0.007481123 -0.07166688 0.044529296 -0.012180841 0.03780812 -0.03082166
-0.03563793 -0.019113937 0.06857627 -0.0360471 -0.08894713 0.0028888395 -0.025642103 -0.0037197338
0.035228338 0.0023046988 0.07457562 -0.031943724 0.06879193 -0.06938584 0.003552691 0.04170179
0.029095553 0.042972535 -0.05344211 -0.0250855 0.07979591 0.00058005215 0.019441081 -0.06879099
-0.021496588 -0.061080385 0.07305711 -0.018536178 0.06113415 -0.042437777 0.05747609 -0.033957046
-0.036787435 -0.0039640483 0.05784988 0.058357805 -0.0030540228 0.007938473 -0.051908374 0.05152302
-0.075890794 -0.04896074 -0.020796921 0.08088718 0.07943482 0.075087145 -0.0063140146 -0.031502165
0.0208943 0.0381613 -0.056340568 0.05615312 0.070732616 -0.06934492 0.078640476 0.08844978
-0.0075316085 -8.265109e-05 -0.028348984 0.024763895 -0.0037409896 -0.0741801 0.0404434 -0.04679052
-0.034573898 0.0022648228 -0.07907318 0.02269932 -0.027431456 0.003958807 -0.067210354 -0.03646506
-0.042210814 0.018035138 -0.041972816 -0.0117759 0.020150982 -0.006608952 0.07636877 0.051914264
0.03452581 0.063626885 0.043470137 -0.07831783 0.06354767 -0.040470216 0.07451025 -0.06966436
00000000: e6e1 6fbd 3b88 9d3c e00d 653d 2e3b 32bc
00000010: bbda a43d 4ceb 5fbd 55da 9b3d f55f 7dba
00000020: 3f8c 2a3a 6755 b03b bf8e 3e3c 30d7 89bd
00000030: ef5c 603d c1da 89bd 4a71 903d 1979 843d
00000040: 863d 113d 1eda 93bc 1b1e 103b 91d0 9fbd
00000050: d383 6bbd 4cce 8cbd 8142 9cbc 7fa3 91bd
00000060: cc4c 743d 257a e5bc 07a7 e03b 51d8 0d3d
00000070: e481 823d b6b6 1bbd 8bf2 8a3d fa37 623c
00000080: 489e 653c fcec 783d 3524 f53b 16c6 92bd
00000090: 5a64 363d 2692 47bc b0dc 1a3d b57d fcbc
000000a0: 14f9 11bd d594 9cbc b771 8c3d 20a6 13bd
000000b0: ea29 b6bd af52 3d3b 630f d2bc c7c6 73bb
000000c0: 974b 103d 6e0a 173b 1abb 983d 6cd7 02bd
000000d0: c9e2 8c3d 2a1a 8ebd 44d4 683b 7fcf 2a3d
000000e0: cc59 ee3c f803 303d 1de6 5abd 1b80 cdbc
000000f0: 0a6c a33d a40e 183a e742 9f3c 4ae2 8cbd
00000100: 9d19 b0bc 6d2f 7abd f79e 953d 2fd9 97bc
00000110: cd67 7a3d 3cd3 2dbd 0c6c 6b3d 8b16 0bbd
00000120: 6cae 16bd d9e4 81bb fff3 6c3d 9808 6f3d
00000130: 0026 48bb 5e10 023c e09d 54bd cd09 533d
00000140: a26c 9bbd 0f8b 48bd 4e5e aabc 2ea8 a53d
00000150: b9ae a23d 4ac7 993d cbe5 cebb 6a08 01bd
00000160: 862a ab3c 064f 1c3d 5ec5 66bd d000 663d
00000170: 43dc 903d b604 8ebd 420e a13d 2925 b53d
00000180: b6cb f6bb f754 adb8 213c e8bc a7dd ca3c
00000190: 642b 75bb bceb 97bd fba7 253d 6ba7 3fbd
000001a0: 5c9d 0dbd 6c6d 143b 1ff1 a1bd edf3 b93c
000001b0: efb7 e0bc e1b8 813b 95a5 89bd 635c 15bd
000001c0: 3fe5 2cbd 6dbe 933c b0eb 2bbd b4ef 40bc
000001d0: ac13 a53c e88f d8bb 3b67 9c3d 0da4 543d
000001e0: f06a 0d3d d04e 823d be0d 323d 1965 a0bd
000001f0: 4825 823d 19c4 25bd d498 983d 30ac 8ebd

convs.2.lin_r.weight f4 [128, 128]
0.07503599 -0.084088735 -0.066195354 0.01651671 0.09200488 -0.074412495 -0.015797654 0.088240266
0.085091546 0.055315107 0.004651961 -0.009334369 -0.040464386 -0.011831563 0.041722547 0.05726959
-0.014607971 -0.047161605 0.047177903 -0.037314933 -0.12220086 0.040027816 0.09687993 -0.02907505
0.06002547 0.101180285 -0.032786608 0.03599326 0.096415356 -0.030367292 0.08779722 0.040795423
0.069775894 0.020168524 0.09230566 0.017602688 -0.009888011 -0.060012832 0.098731466 0.037545227
0.022142418 0.018391542 -0.06350144 0.02835371 0.052579973 0.030728621 -0.07147288 -0.04217115
-0.061528575 0.055821974 0.021917652 0.031063663 -0.036966953 -0.0015214111 0.021582482 -0.040984288
-0.005186457 -0.04754156 -0.021186264 -0.048311416 -0.027703336 0.06922514 -0.021488603 0.05193169
-0.007276895 -0.06958223 0.09989429 -0.06809746 0.06857725 0.06945888 -0.008449395 -0.071653835
0.068715595 -0.023956768 -0.024164744 -0.027103651 -0.08580007 -0.034690622 -0.012985333 0.0072845384
-0.048458673 0.06414587 -0.12477953 0.006052059 0.047291793 0.02243126 0.12481898 -0.07465275
-0.05886189 -0.052808627 0.079110794 0.006288693 -0.07333436 -0.011643606 -0.032856513 0.017854827
-0.045543518 -0.042029154 0.035191234 -0.049188502 0.099626325 -0.10603821 0.026103728 -0.09664239
0.036584493 0.00588002 0.09231222 -0.06738633 0.038918123 0.05088463 -0.053727463 -0.031385124
0.021494878 -0.0855752 0.00047551098 0.011254498 -0.07904179 -0.06764716 -0.031147217 0.029005311
-0.06686447 -0.03671721 -0.008910411 -0.07469323 -0.076648824 -0.060775038 -0.04295615 0.041605394
0.068941586 -0.0149220005 -0.09119239 -0.044435114 -0.0865933 -0.027599571 0.11190722 0.009110167
0.04376354 -0.0986135 -0.04884859 0.08550695 -0.08907778 -0.06547531 0.061879095 0.0502806
-0.007962773 0.0782813 -0.10965873 -0.023442222 0.096731536 -0.07938943 -0.09255395 0.094776854
-0.061526757 -0.09619747 0.021417016 -0.03421874 -0.0069314013 0.0379581 -0.03367444 0.04411898
0.021917416 0.044022005 0.030510502 0.032136034 0.08976151 0.03530302 -0.03582501 -0.08480013
0.008957605 -0.072251506 0.031864885 0.017143864 -0.031950932 0.018159434 0.07160792 -0.047413934
-0.04512004 -0.08496457 -0.020904597 0.09959329 -0.035513476 -0.033462834 -0.06552883 -0.078088574
-0.009124242 -0.066995226 0.008875747 0.038399674 -0.046757456 -0.022728005 0.030658154 -0.025334094
0.073730364 0.08891852 -0.036124088 0.037610453 0.03774703 -0.07275985 0.044604626 0.040675007
0.009710502 0.053811766 0.0678046 -0.06887964 0.102079466 -0.0765773 -0.0373147 -0.028866911
0.05956672 -0.09426163 0.12508532 -0.049984932 -0.09258125 0.014484093 -0.045607794 0.030220635
-0.08067303 -0.08730968 -0.091609806 0.024557117 0.012499798 -0.01257356 -0.090342686 0.030847533
0.030528842 0.05101405 0.05499005 -0.01657099 -0.08723947 -0.048344433 0.07468881 0.064159594
-0.10798061 0.036212124 -0.10075874 0.005699603 0.08032176 -0.010967977 -0.06528951 0.050793298
-0.07462279 0.042091478 0.086708084 -0.008567766 0.03489638 -0.08320528 0.06822641 0.020406926
-0.014845181 -0.0452144 0.049038734 -0.0873965 -0.036993694 -0.10108308 -0.025159338 0.020396475
00000000: 78ac 993d b736 acbd 6e91 87bd 0d4e 873c
00000010: 0e6d bc3d 9465 98bd 156a 81bc 50b7 b43d
00000020: 7a44 ae3d 1892 623d 7a6f 983b 2eef 18bc
00000030: fcbd 25bd 2cd9 41bc 43e5 2a3d 8593 6a3d
00000040: 4556 6fbc 872c 41bd 9e3d 413d 8bd7 18bd
00000050: 7244 fabd 35f4 233d fc68 c63d cd2e eebc
00000060: 44dd 753d 9c37 cf3d 404b 06bd ab6d 133d
00000070: 6a75 c53d d4c4 f8bc 07cf b33d 1a19 273d
00000080: aae6 8e3d 7638 a53c c00a bd3d 8333 903c
00000090: 5301 22bc 04d0 75bd b933 ca3d 06c9 193d
000000a0: 0464 b53c dca9 963c 0b0d 82bd 0a46 e83c
000000b0: 195e 573d 97ba fb3c 6060 92bd a8bb 2cbd
000000c0: 6305 7cbd 95a5 643d a68c b33c 3979 fe3c
000000d0: a96a 17bd 166a c7ba bfcd b03c 24df 27bd
000000e0: 28f3 a9bb f0ba 42bd d18e adbc 31e2 45bd
000000f0: 1bf2 e2bc e9c5 8d3d de08 b0bc 53b6 543d
00000100: 0573 eebb 2181 8ebd 6195 cc3d ae76 8bbd
00000110: 3b72 8c3d 7540 8e3d 556f 0abc 3fbf 92bd
00000120: c3ba 8c3d fc40 c4bc 24f5 c5bc 7a08 debc
00000130: f2b7 afbd c117 0ebd 6fc0 54bc 23b3 ee3b
00000140: 9a7c 46bd e95e 833d 698c ffbd 5a50 c63b
00000150: 0ab5 413d c3c1 b73c 18a1 ff3d 8ae3 98bd
00000160: 2a19 71bd dc4d 58bd d704 a23d 6111 ce3b
00000170: 5330 96bd d3c4 3ebc 8d94 06bd 4944 923c
00000180: d78b 3abd c326 2cbd af24 103d e279 49bd
00000190: e308 cc3d 902a d9bd 7cd7 d53c 72ec c5bd
000001a0: 9fd9 153d 2fad c03b 300e bd3d d801 8abd
000001b0: 9c68 1f3d 676c 503d 5411 5cbd b08d 00bd
000001c0: 0716 b03c 0d42 afbd 014e f939 c964 383c
000001d0: a9e0 a1bd 988a 8abd 7328 ffbc 8c9c ed3c
000001e0: 3df0 88bd c964 16bd f9fc 11bc c4f8 98bd
000001f0: 0ffa 9cbd 3fef 78bd caf2 2fbd 6b6a 2a3d
00000200: 3f31 8d3d 687b 74bc 13c3 babd 9801 36bd
00000210: d457 b1bd 7f18 e2bc 9d2f e53d cf42 153c
00000220: 6641 333d e0f5 c9bd 7615 48bd 451e af3d
00000230: 696e b6bd eb17 86bd ef74 7d3d 08f3 4d3d
00000240: 4a76 02bc f251 a03d c294 e0bd e709 c0bc
00000250: 2f1b c63d ed96 a2bd ed8c bdbd 5e1a c23d
00000260: 7b03 7cbd 2e03 c5bd bd72 af3c f328 0cbd
00000270: cf20 e3bb f479 1b3d 36ee 09bd 1bb6 343d
00000280: 278c b33c 6b50 343d 29f1 f93c 13a1 033d
00000290: e2d4 b73d e699 103d 3fbd 12bd b1ab adbd
000002a0: ebc2 123c 99f8 93bd c184 023d 4a71 8c3c
000002b0: fbde 02bd 18c3 943c 2ca7 923d 1d35 42bd
000002c0: cbcf 38bd e801 aebd 1e40 abbc 91f7 cb3d
000002d0: 9476 11bd 5310 09bd fb33 86bd e7ec 9fbd
000002e0: d87d 15bc cb34 89bd 956b 113c fa48 1d3d
000002f0: bf84 3fbd 1530 babc cf26 fb3c 7289 cfbc
00000300: f2ff 963d ea1a b63d daf6 13bd 6b0d 1a3d
00000310: a19c 1a3d 1e03 95bd 57b3 363d d69a 263d
00000320: cc18 1f3c ba69 5c3d 23dd 8a3d c510 8dbd
00000330: 0a0f d13d 8fd4 9cbd 4dd7 18bd 4d7a ecbc
00000340: 3cfc 733d 3e0c c1bd 5e16 003e 00bd 4cbd
00000350: 3d9b bdbd b04e 6d3c 3dcf 3abd 4491 f73c
00000360: e737 a5bd 6bcf b2bd ec9d bbbd 022c c93c
00000370: f4cb 4c3c 5501 4ebc 9605 b9bd f7b3 fc3c
00000380: 9f17 fa3c 1cf4 503d 3f3d 613d e3bf 87bc
00000390: 9baa b2bd d004 46bd 72f6 983d 1b66 833d
000003a0: f024 ddbd 2a53 143d 995a cebd bcc3 ba3b
000003b0: bc7f a43d 08b3 33bc 82b6 85bd a20c 503d
000003c0: d5d3 98bd 1d68 2c3d 0294 b13d d15f 0cbc
000003d0: 82ef 0e3d 8867 aabd 4aba 8b3d 6d2c a73c
000003e0: 3439 73bc bc32 39bd d7dc 483d f0fc b2bd
000003f0: b386 17bd a504 cfbd f51a cebc 8216 a73c
