src/jupyter/GCN_best_loss_sage_neighborhood_model_weights.pth (torch, 461949 bytes, 15 tensors)

convs.0.lin_l.weight f4 [128, 183]
0	0xbba08046	-0.004898104
1	0xbc63e51d	-0.013909605
2	0xbd10a556	-0.035313927
3	0x3cdaad51	0.026693972
4	0xbcf5d15d	-0.030007059
5	0x3d1204e0	0.03564918
6	0x3dab846f	0.08374869
7	0xbcc8c5ee	-0.024508443
8	0xbccc4d65	-0.024939248
9	0xbc87508f	-0.016517906
10	0xbce14cde	-0.027502473
11	0xbcc90fa9	-0.0245436
12	0x3b7d6e95	0.0038670648
13	0x3dcbd509	0.099527426
14	0x3b48083e	0.003052249
15	0x3d215969	0.03939191
16	0x3cbbd6fa	0.022929657
17	0x3d21cf1f	0.039504167
18	0x3d03de68	0.032194525
19	0x3d0d2071	0.034454767
20	0xbd18459d	-0.037175763
21	0xbd417a92	-0.047236033
22	0xbd803d45	-0.06261686
23	0x3cc334ff	0.023828981
24	0x3d552f0f	0.05204683
25	0x3cec5597	0.028849406
26	0xbcc66ccb	-0.024221798
27	0x3bb9d5e6	0.0056712506
28	0xbab6241e	-0.0013896262
29	0x3d9a2fb1	0.07528628
30	0x3d503fc6	0.05084207
31	0xbc19fea6	-0.009399092
32	0xbc5a66fa	-0.013330216
33	0xbd373e6a	-0.044737257
34	0xbd485371	-0.0489077
35	0x3c13d80f	0.00902368
36	0x3c84ae98	0.016196534
37	0xbc908cc9	-0.017645257
38	0xbd355d87	-0.044278648
39	0xbd90e647	-0.07075172
40	0x3d103427	0.035205986
41	0x3d214113	0.0393687
42	0x3d902a0f	0.07039272
43	0xbd51c918	-0.05121717
44	0xbccf51b8	-0.025307521
45	0x3d4a2899	0.049355123
46	0xbb7289eb	-0.0037008475
47	0x3d55162f	0.05202311
48	0x3d3a13bd	0.04542898
49	0x3ca93020	0.02065283
50	0xbd7b8b7c	-0.06141232
51	0x3d6f0471	0.058353845
52	0x3cad84e2	0.021181528
53	0xbd1d91e9	-0.03846923
54	0xbcc81c20	-0.024427474
55	0x3d7aeb22	0.061259396
56	0x3cf8bedc	0.030364446
57	0x3ccab57d	0.024744743
58	0xbc97abb6	-0.018514495
59	0x3d1825bb	0.037145358
60	0xbba5774b	-0.005049621
61	0x3b46236a	0.003023351
62	0xbb9d22b8	-0.0047953986
63	0x3dbe241c	0.09284231
64	0xbd796b72	-0.060893483
65	0xbbb517f9	-0.0055265394
66	0x3c5066a8	0.012719788
67	0xbc7579fa	-0.014982695
68	0xbc94217b	-0.018082371
69	0xbbbb5b50	-0.0057176724
70	0x3cbd3a16	0.023098987
71	0xbdb7bf0e	-0.08971988
72	0xbc46790a	-0.012113819
73	0x3c3069cd	0.010767412
74	0x3d44516e	0.04792922
75	0x3cb6644d	0.022264624
76	0xbd6e1b3b	-0.058131438
77	0xbbffb9f1	-0.0078041484
78	0xbd5761ec	-0.05258362
79	0xbc9c63fc	-0.019090645
80	0xbd2a8c5f	-0.041637775
81	0xbd3ae899	-0.04563198
82	0xbe03571c	-0.12826198
83	0x3c9cf683	0.019160515
84	0x3cab43d2	0.020906363
85	0x3d54689e	0.051857583
86	0xbc99065b	-0.018679788
87	0xbd764848	-0.060127527
88	0xbd34a940	-0.044106722
89	0x3d86a928	0.06575233
90	0x3d6b5fdb	0.05746446
91	0xbd8b892c	-0.06813273
92	0x3d3f71c5	0.04673936
93	0xbcb18de8	-0.021674111
94	0x3cb55d77	0.022139294
95	0x3adda2d0	0.0016909484
96	0xbc222565	-0.009896611
97	0x3c7f3cf1	0.015578494
98	0xbc97a5d7	-0.018511696
99	0x3e0b079d	0.13577123
100	0xbd747926	-0.05968585
101	0xbc3e7cf2	-0.011626469
102	0x3d794b59	0.060862873
103	0x3d247add	0.040156234
104	0x3bb0847b	0.0053868867
105	0xbd449011	-0.047988955
106	0xbd4e21c7	-0.05032518
107	0x3d4eef65	0.050521273
108	0x3d714342	0.058902033
109	0xbd18d34e	-0.03731089
110	0x3c9e99f2	0.019360516
111	0xbbfb0bba	-0.00766131
112	0x3d8c2c03	0.06844332
113	0xbd2436eb	-0.040091436
114	0xbcb92579	-0.022600876
115	0xbc4e97f0	-0.012609467
116	0xbcf66f93	-0.0300825
117	0xbe06019a	-0.13086548
118	0x3d53fd53	0.05175526
119	0xbd4d8886	-0.050179027
120	0x3d02c9d0	0.031930745
121	0x3d246bb4	0.040141776
122	0xbd00e89a	-0.031471826
123	0x3c6f602e	0.014610333
124	0x3dec31a5	0.115329064
125	0xbd4d1d40	-0.050076723
126	0xbb7968fc	-0.003805696
127	0x3d0ab8d2	0.033867665
128	0xbc18f099	-0.009334707
129	0x3dbd16d7	0.09232872
130	0xbdb18f39	-0.08669896
131	0x3d0632ac	0.03276317
132	0x3c05a399	0.0081566805
133	0xbc5774a3	-0.013150367
134	0x394759b0	0.0001901153
135	0x3ce7a002	0.02827454
136	0x3d06de47	0.032926824
137	0x3c9d5949	0.019207614
138	0xbdb4fc28	-0.088371575
139	0x3bdbfc8d	0.006713456
140	0x3cbc056a	0.0229518
141	0x3c7f733b	0.015591438
142	0xbc8578c7	-0.016292943
143	0xbcd28041	-0.025695922
144	0x3cae4415	0.021272698
145	0x3c62c280	0.013840318
146	0xbc9d77db	-0.01922219
147	0xbd0f8301	-0.035037044
148	0x3d4c2c8c	0.04984717
149	0x3de4d7ed	0.11173997
150	0x3d5a79c3	0.053338777
151	0x3d109ff9	0.03530881
152	0x3ddd0cbe	0.10793446
153	0x3e0d899a	0.13822022
154	0x3da33901	0.07969857
155	0x3b0a854f	0.0021136587
156	0x3d3f4136	0.04669305
157	0x3cca5a88	0.024701372
158	0x3dc7a21a	0.09747715
159	0xbc723159	-0.014782273
160	0x3d9b7401	0.07590485
161	0xbd2b5029	-0.041824494
162	0x3cb75501	0.0223794
163	0x3de48ef4	0.11160079
164	0xbd2aa890	-0.04166466
165	0xbd25a514	-0.040440634
166	0xbba46ea9	-0.0050180745
167	0x3d9003b3	0.070319556
168	0x3d0c99bb	0.034326296
169	0xbc0b1304	-0.00848842
170	0xbd31ff55	-0.043456394
171	0x3d07cc60	0.03315389
172	0xbcb80aaa	-0.022466023
173	0xbcff6120	-0.031174242
174	0xbd66d733	-0.056357574
175	0x3d754f13	0.059889864
176	0x3d9c01b5	0.07617513
177	0x3d32715b	0.043565135
178	0x3cad6c11	0.021169694
179	0x3caf0032	0.021362398
180	0x3ccbc1cf	0.024872689
181	0x3b972ccb	0.004613494
182	0x3cc2028d	0.023682857
183	0x3da803f6	0.082038805
184	0x393e91b4	0.0001817409
185	0xbdc5546f	-0.09635245
186	0xbd4d43fb	-0.05011366
187	0x3d9585ca	0.07300909
188	0x3cc840d4	0.024444975
189	0xbd273545	-0.040822286
190	0x3cc16e1a	0.02361207
191	0x3cac0a0b	0.021000883
192	0xbd30c7df	-0.043159362
193	0xbd80e83d	-0.06294296
194	0xbc6f1adf	-0.014593809
195	0xba9ddacf	-0.001204336
196	0x3d28c4b7	0.041203227
197	0xbd98618d	-0.07440481
198	0x3cb74d59	0.02237575
199	0x3c64a36b	0.0139549775
200	0xbaf11fb1	-0.0018396286
201	0xbd358ea4	-0.044325486
202	0xbd184984	-0.037179485
203	0x3cf03873	0.029323792
204	0xbc6aa894	-0.014322419
205	0xbd8868c5	-0.06660608
206	0x3d0359b6	0.032067977
207	0x3dc47e3c	0.0959439
208	0xbd609f67	-0.054839518
209	0xbba48979	-0.005021271
210	0x3cac2b6a	0.021016795
211	0xbd2d8d3a	-0.042371012
212	0x3c414591	0.011796371
213	0xbbd63214	-0.0065367315
214	0xbd6eeb4f	-0.058329877
215	0x3bd4385a	0.006476444
216	0x3b8abd14	0.0042339657
217	0x3d6e2600	0.05814171
218	0xbd134155	-0.035950977
219	0xbdb6e3e7	-0.08930188
220	0xbda7f05a	-0.0820014
221	0xbdb54ccd	-0.08852539
222	0xbd94ed8b	-0.0727187
223	0x3c4e9da7	0.012610829
224	0x3c86bbad	0.016446913
225	0xbdba6082	-0.09100439
226	0xbc8f784c	-0.017513417
227	0x3d40bbb8	0.047054023
228	0x3d66560e	0.056234412
229	0x3d0634bb	0.03276513
230	0x3d1d3267	0.038378146
231	0x3d4ec750	0.050483048
232	0xbcac5a76	-0.021039229
233	0xbd9fba05	-0.07799152
234	0x3d835393	0.06412425
235	0x3db1a4f4	0.086740404
236	0x3daad68a	0.08341701
237	0xbda42ec5	-0.08016733
238	0xbd086499	-0.033299062
239	0xbddb669b	-0.1071293
240	0xbcee4913	-0.029087579
241	0xbbe991f8	-0.0071279965
242	0x3c385f3b	0.011253173
243	0x3d94eac3	0.0727134
244	0xbcdc778c	-0.026912473
245	0x3cc6dadd	0.024274284
246	0x3d0c3370	0.034228742
247	0x3d71fe04	0.05908014
248	0x3d88dfc0	0.06683302
249	0xbbaf34c1	-0.005346865
250	0xbb133bd6	-0.0022466085
251	0x3d012ffd	0.031539906
252	0x3c18d72f	0.0093286475
253	0x3ce5c0bc	0.028046004
254	0xbc43c002	-0.011947634
255	0x3cf49095	0.029854098

convs.0.lin_l.bias f4 [128]
0	0x3d7d5d6f	0.061856683
1	0xbda3277d	-0.07966516
2	0x3e100790	0.14065385
3	0x3caabc6d	0.020841802
4	0x3e06517d	0.13117023
5	0x3d56652c	0.05234258
6	0x3d9751b9	0.07388634
7	0xbcf63598	-0.030054852
8	0xbcff2044	-0.031143315
9	0x3dd94dd1	0.106105454
10	0x3ca32906	0.019917022
11	0x3d8860f9	0.06659121
12	0x3d04b13c	0.032395586
13	0xbba56b6b	-0.0050482056
14	0xbd050409	-0.03247455
15	0x3dcb72a7	0.099339776
16	0xbd574f7e	-0.052566044
17	0x3dc1e22b	0.09466966
18	0x3d0429f5	0.032266576
19	0x3e07d34a	0.13264194
20	0x3d8d2fcd	0.06893883
21	0x3d489c75	0.048977334
22	0x3d029d31	0.03188819
23	0x3d9e22d0	0.07721484
24	0xbd560e7e	-0.052259915
25	0x3d34de59	0.04415736
26	0xbe02df79	-0.1278056
27	0x3d214298	0.03937015
28	0x3e11d3a5	0.14240892
29	0x3b6348fe	0.0034680958
30	0xbce049a1	-0.027378859
31	0x3d940f69	0.07229502
32	0xbbd3a074	-0.0064583365
33	0x3d09f58f	0.03368145
34	0xbc45339f	-0.012036233
35	0xba9eb435	-0.0012108149
36	0xbc55c90e	-0.013048423
37	0xbd137e1f	-0.03600895
38	0x3dd2ce2b	0.1029323
39	0x3d7900ea	0.060791887
40	0xbc6fa730	-0.014627263
41	0x3d1608f3	0.03662963
42	0x3d70e736	0.05881425
43	0xbd76f731	-0.060294334
44	0x3db84130	0.089968085
45	0x3c5f1db7	0.013617924
46	0x3da7e344	0.08197644
47	0xbdb52372	-0.08844651
48	0xbd5d9fa1	-0.054107312
49	0x3dac6fa3	0.084197305
50	0x3d08b8c6	0.03337934
51	0xbe0e5f53	-0.13903551
52	0x3e097602	0.13423923
53	0x3e13074a	0.1435825
54	0xbdc3126b	-0.09524997
55	0x3cbd9ecd	0.023147011
56	0xbe026a32	-0.12735823
57	0xbdabe7c4	-0.08393815
58	0xbc723e60	-0.014785379
59	0xbd3fd092	-0.046829768
60	0x3d664ee9	0.0562276
61	0x3c061f51	0.008186177
62	0xbca12573	-0.019671177
63	0xbde01eea	-0.109433964
64	0x3d946d69	0.07247431
65	0xbe19dbb3	-0.15025215
66	0x3db7a8d8	0.08967751
67	0x3d275fac	0.040862724
68	0xbd5b20ab	-0.05349795
69	0x3dc10f60	0.09426761
70	0x3d963da7	0.07335978
71	0x3d7b79da	0.061395504
72	0x3d8891e8	0.066684544
73	0x3d63592e	0.05550497
74	0xbe03f340	-0.12885761
75	0xbdbd2ddc	-0.092372626
76	0x3da944e0	0.0826509
77	0xbd12618f	-0.03573757
78	0xbd2a8001	-0.04162598
79	0xbd885821	-0.06657434
80	0x3c77a536	0.015115073
81	0xbca598da	-0.020214487
82	0xbc776907	-0.015100724
83	0xbd33394c	-0.043755814
84	0x3c5f529c	0.013630535
85	0x3c12f04d	0.008968425
86	0x3d27c759	0.040961597
87	0x3d21353d	0.039357413
88	0x3d0ed818	0.03487405
89	0x3e165b56	0.1468328
90	0x3ce29213	0.027657544
91	0x3db4a175	0.08819858
92	0x3dd07093	0.10177722
93	0x3dc5025e	0.09619592
94	0x3db3f7c2	0.087874904
95	0xbda69fa1	-0.081359155
96	0x3c85e093	0.016342437
97	0xbccf88a6	-0.025333714
98	0x3d36728b	0.04454283
99	0x3cffbcd7	0.031217976
100	0xbd3c6c7a	-0.04600189
101	0x3d1060e3	0.03524865
102	0xbd004219	-0.031313036
103	0xbd862c47	-0.06551414
104	0xbd17981d	-0.0370103
105	0x3d1206f9	0.03565118
106	0x3ba9f5a3	0.005186753
107	0xbda463c4	-0.08026841
108	0xbcb4e3fe	-0.022081371
109	0x3d8be7a2	0.0683129
110	0xbd536fe7	-0.05162039
111	0xbb8c79e6	-0.0042869924
112	0xba81aff3	-0.0009894356
113	0x3da287b8	0.079360425
114	0x3df1e36f	0.11810958
115	0xbe26e085	-0.16296585
116	0xbd086ae5	-0.033305068
117	0x3e04bae3	0.12961917
118	0x3be8b384	0.007101478
119	0x3de99697	0.11405676
120	0xbc845634	-0.016154386
121	0xbe00cb11	-0.12577464
122	0xbdfc0071	-0.12304772
123	0x3d4839de	0.04888331
124	0xbc232d49	-0.009959527
125	0xbe112b7a	-0.14176741
126	0x3d3c4766	0.04596653
127	0x3b8974f4	0.00419485

convs.0.lin_r.weight f4 [128, 183]
0	0x3d9446aa	0.072400406
1	0xbd2d304f	-0.0422824
2	0x3dada950	0.084795594
3	0xbdaa8a57	-0.083271675
4	0x3cc71025	0.02429969
5	0xbd41dffa	-0.04733274
6	0xbc8a190e	-0.01685765
7	0xbc485af4	-0.012228716
8	0xbd77dd5d	-0.060513843
9	0x3c440e0a	0.011966238
10	0x3be09a3a	0.0068543227
11	0xbcd8317f	-0.02639079
12	0xbce39e95	-0.027785579
13	0x3cd8a27c	0.026444666
14	0x3d949e37	0.072567396
15	0xbd46f137	-0.048569884
16	0x3c4c480c	0.012468349
17	0x3d825b45	0.063650645
18	0x3d19b50a	0.037526168
19	0x3d1ebf1d	0.03875648
20	0x3d777167	0.060410883
21	0xbd33dfdd	-0.043914665
22	0xbda3d309	-0.07999236
23	0xbd54e967	-0.051980402
24	0x3bfe4335	0.0077594765
25	0x3d08032d	0.033206154
26	0xbc0c836b	-0.008576254
27	0xbd4184aa	-0.04724566
28	0xbda720d8	-0.08160561
29	0xbd91d05b	-0.07119819
30	0x3d1b2c61	0.03788412
31	0x3c64d4ed	0.013966781
32	0xbbaad47d	-0.005213319
33	0x3d4925ca	0.049108304
34	0xbd4c92c6	-0.04994466
35	0x3c9c3e4d	0.019072676
36	0xbdae272d	-0.08503566
37	0x3d0a1bef	0.033718046
38	0xbcb3dbb1	-0.021955343
39	0xbd523890	-0.051323473
40	0xbd99b670	-0.075055
41	0xbde44b05	-0.11147121
42	0xbd2b9e62	-0.041899092
43	0xbd40194b	-0.04689912
44	0xbd56bf7e	-0.052428715
45	0xbd9a35f9	-0.07529826
46	0xbd234e77	-0.03986975
47	0xbc00cc2e	-0.00786118
48	0xbd9da887	-0.0769816
49	0xbd831e01	-0.06402207
50	0x3d0935a9	0.03349844
51	0x3d7610e1	0.06007469
52	0x3b93e0f8	0.0045129023
53	0x3e148012	0.1450198
54	0x3be1d989	0.0068923873
55	0x3c151c5e	0.009101002
56	0xbc77edb3	-0.0151323555
57	0xbc090ec5	-0.008365338
58	0x3bdc6bf5	0.0067267367
59	0x3ca47436	0.020074945
60	0xbd58626c	-0.052828237
61	0xbcff11fc	-0.031136505
62	0x3d703e95	0.058653433
63	0x3d98f734	0.07469025
64	0x3cf4275e	0.029803928
65	0x3cf42d2a	0.029806692
66	0x3d59b59d	0.053151716
67	0x3ca50727	0.020145012
68	0x3caecd6c	0.021338187
69	0x3d783f74	0.06060739
70	0xbc94a1f2	-0.018143628
71	0x3ce3ed3f	0.027823089
72	0x3d0e661b	0.034765344
73	0x3d7ee635	0.06223126
74	0x3d030d79	0.03199527
75	0x3ba51a38	0.005038526
76	0xbd0fb5f2	-0.035085626
77	0x3c5c1aec	0.013434153
78	0x3cf6876d	0.030093873
79	0x3d0b89bb	0.034066897
80	0x3d2fb664	0.04289855
81	0x3d65906e	0.056045942
82	0x3cd4c78d	0.02597406
83	0x3cbb5e80	0.02287221
84	0xbd67a112	-0.056550093
85	0xbd548074	-0.051880315
86	0xbcc8a609	-0.024493234
87	0xbd4752c2	-0.04866291
88	0xbd8e8b99	-0.0696022
89	0x3d2c8f57	0.042128887
90	0x3daa6c5e	0.08321451
91	0x3d222050	0.039581597
92	0xbdbd3ac3	-0.092397235
93	0xbd4805d8	-0.048833698
94	0x3d7801aa	0.060548462
95	0x3b565fca	0.0032710903
96	0x3bf42d9f	0.0074517275
97	0x3da8d183	0.08243086
98	0xbe33ad97	-0.17546688
99	0xbdc34e8b	-0.09536465
100	0x3d94aecf	0.072599046
101	0x3ce10664	0.027468868
102	0x3be43ea9	0.0069654775
103	0x3d13c251	0.036073986
104	0x3d2d0d30	0.042248905
105	0x3d58655c	0.05283104
106	0xbdb3599a	-0.087573245
107	0x3d3a9e23	0.045560967
108	0x3d222399	0.03958473
109	0xbbeeff91	-0.0072936495
110	0x3c3ba565	0.011453007
111	0x3de73550	0.112894654
112	0xbdc860d0	-0.097840905
113	0xbc7b5973	-0.015341151
114	0x3cbbee1a	0.022940684
115	0xbd11444c	-0.035465524
116	0x3c251995	0.0100769
117	0xbd853025	-0.065033235
118	0xbd8898e8	-0.066697896
119	0x3d8c01f7	0.06836312
120	0x3d7e1e1d	0.062040437
121	0x3c053500	0.008130312
122	0xbe1421fb	-0.14466088
123	0xbe1e0036	-0.15429768
124	0xbbdbb255	-0.0067046084
125	0x3d9d0e00	0.07668686
126	0x3dd25a16	0.10271089
127	0xbd8669f5	-0.065631784
128	0x3b9012ae	0.004396758
129	0x3d9d60ab	0.076844536
130	0xbdc5a7ad	-0.09651122
131	0x3c6b7a20	0.014372379
132	0x3dbd4aa6	0.09242754
133	0x3c85b89d	0.016323382
134	0x3c4a37bb	0.012342389
135	0xbd90be61	-0.07067562
136	0x3d4d7279	0.050157998
137	0xbd9c352d	-0.0762733
138	0xbcab295a	-0.020893741
139	0x3d5bdedb	0.05367933
140	0x3e096962	0.13419107
141	0x3dda7d1f	0.10668396
142	0xbc3b6871	-0.011438475
143	0xbd1ef304	-0.038805977
144	0xbd1a57a4	-0.037681237
145	0x3bcade56	0.0061910553
146	0x3bf88f96	0.007585476
147	0xbc16aaea	-0.0091960225
148	0xbda610ae	-0.0810865
149	0x3c95ba20	0.018277228
150	0xbd6ed415	-0.058307726
151	0x3cb70550	0.0223414
152	0xbe206a75	-0.1566561
153	0xbdba6128	-0.09100562
154	0xbcea5acb	-0.028607747
155	0xbd96c52c	-0.07361826
156	0x3c8faa8b	0.017537376
157	0xbda97f9e	-0.08276294
158	0x3d87813b	0.06616446
159	0x3af90e00	0.0019001365
160	0x3d70943f	0.05873513
161	0xbc40aba5	-0.011759673
162	0x3dcc8e3d	0.09988067
163	0x3dc0e874	0.09419337
164	0x3e49051f	0.1963086
165	0x3e342ff5	0.17596419
166	0x3d659ffe	0.056060784
167	0x3e23d898	0.16000593
168	0x3ca28da9	0.01984294
169	0x3d867a2e	0.06566273
170	0xbc659778	-0.014013164
171	0xbd5686de	-0.052374713
172	0x3d09ae25	0.033613343
173	0xbac55252	-0.0015054441
174	0x3d1b9723	0.037985932
175	0x3d6cf222	0.057848103
176	0x3d0c62f8	0.03427407
177	0xbd45f890	-0.04833275
178	0xbdf411ce	-0.119174585
179	0xbd4dc521	-0.050236825
180	0x3cfbd578	0.030741438
181	0xbda39561	-0.07987476
182	0xbd0268bd	-0.031838167
183	0x3c02b673	0.00797807
184	0xbc82b6b1	-0.015956255
185	0xbd873025	-0.0660098
186	0xbcdf0cb5	-0.027227739
187	0x3e11d44c	0.14241141
188	0xbd9d905b	-0.07693549
189	0x3dcdcbd2	0.10048641
190	0x3e2fb85e	0.17160174
191	0xbc785104	-0.015156034
192	0xbc54a27e	-0.012978194
193	0x3d0333fb	0.032031994
194	0xbdbdca23	-0.0926707
195	0x3c398f31	0.011325643
196	0xbbb58ad5	-0.0055402317
197	0xbdc229eb	-0.094806515
198	0x3cea1984	0.02857662
199	0xbd35b6f9	-0.04436395
200	0x3cfed255	0.031106154
201	0xbd57dc74	-0.052700475
202	0xbd945a08	-0.072437346
203	0x3d210ada	0.03931699
204	0x3d382e98	0.04496631
205	0x3d3bde43	0.045866262
206	0x3d91b77d	0.07115076
207	0x3cf21ddc	0.029555254
208	0xbd90818a	-0.070559576
209	0xba6e88ae	-0.00090993464
210	0x3d49d009	0.049270663
211	0xbacb5934	-0.0015514256
212	0xbb252272	-0.0025197533
213	0x3dae92e0	0.08524108
214	0xbd481ddf	-0.048856612
215	0x3d5d08dc	0.053963527
216	0xbd2e30c0	-0.04252696
217	0x3dd724e9	0.10505087
218	0x3daf4c55	0.08559481
219	0x3cb9feb7	0.022704465
220	0x3d1cefbe	0.038314573
221	0xbe155a54	-0.14585239
222	0xbc5cd7eb	-0.013479213
223	0xbd68cc07	-0.0568352
224	0x3cdc382f	0.02688226
225	0xbd457953	-0.048211407
226	0xbd8311f2	-0.06399907
227	0x3c3344a9	0.010941663
228	0x3a87b90d	0.0010354832
229	0xbcce5d4f	-0.025190977
230	0xbd2267f1	-0.039649907
231	0x3c93f741	0.018062236
232	0x3c8174f5	0.01580284
233	0x3b86c606	0.0041129617
234	0x3dc42708	0.09577757
235	0xbd9d50f7	-0.076814584
236	0xbdcc569a	-0.099774554
237	0x3c3b8809	0.0114460075
238	0xbe0bb409	-0.13642897
239	0xbd986557	-0.07441204
240	0x3c867b9e	0.016416367
241	0xbd9967e1	-0.074905165
242	0xbda12726	-0.07868795
243	0xbc5d7f23	-0.013519081
244	0xbb1436e0	-0.0022615716
245	0xbb9921ca	-0.0046732174
246	0x3ce32c7d	0.027731175
247	0xbddde26e	-0.10834204
248	0xbb4b34cf	-0.0031006818
249	0x3b89d0e6	0.004205811
250	0x3c65c846	0.0140248
251	0x3d4b8e17	0.049696054
252	0xbd0b867a	-0.034063794
253	0x3d0e7190	0.03477627
254	0x3d4c3f38	0.049864978
255	0x3d8a7597	0.0676071

convs.1.lin_l.weight f4 [128, 128]
0	0xbdc6be21	-0.09704233
1	0x3c10b476	0.008832088
2	0xbb3dd35d	-0.0028965094
3	0xbd16e87b	-0.036842804
4	0x3d9c0cdb	0.076196395
5	0x3da2b194	0.079440266
6	0x3cc554b8	0.024088249
7	0x3d861815	0.06547562
8	0x3c544774	0.012956489
9	0xbc4f29db	-0.012644256
10	0xbd8e31fe	-0.06943129
11	0x3e3f4b83	0.18681149
12	0x3cdb8c0d	0.02680018
13	0x3ca2385f	0.01980227
14	0xbdd01e16	-0.101619884
15	0xbd56e91a	-0.052468397
16	0x3d804692	0.0626346
17	0xbd8b0827	-0.06788664
18	0xbda5a1ea	-0.08087523
19	0xbda6c23c	-0.08142516
20	0x3d63591e	0.05550491
21	0x3c856b69	0.016286569
22	0x3d0f3ac7	0.034968164
23	0xbb8c38c6	-0.004279229
24	0xbd9ce778	-0.07661337
25	0xbda09239	-0.0784039
26	0x3d4550d1	0.048172776
27	0x3d273d39	0.04082987
28	0xbcda5af9	-0.026654707
29	0xba9bb526	-0.0011879548
30	0xbd877895	-0.06614796
31	0x3cea9c3e	0.028638955
32	0xbc104fc7	-0.008808083
33	0x3daaf0c4	0.08346704
34	0x3d9438c8	0.07237393
35	0xbd3759b6	-0.04476329
36	0xbc39109f	-0.011295467
37	0xbd15a5a9	-0.03653494
38	0x3d41a55f	0.04727685
39	0x3d38458f	0.04498821
40	0x3dc40a36	0.0957226
41	0xbdef5f58	-0.11688107
42	0xbd9d2c1c	-0.07674429
43	0xbdb08ecb	-0.086209856
44	0x3da32a80	0.079670906
45	0x3d141e9a	0.036161996
46	0xbd03be07	-0.032163646
47	0xbdda34f5	-0.10654632
48	0x3cae1392	0.021249566
49	0xbb9d7ebf	-0.004806369
50	0x3daceab0	0.084432006
51	0xbbef5b50	-0.0073045865
52	0x3d923ad4	0.07140127
53	0xbcb114c6	-0.02161635
54	0xbd8f683a	-0.070023015
55	0xbd16b7a9	-0.036796246
56	0xbc67079a	-0.014100933
57	0xbd31d5f9	-0.04341695
58	0x3c5f1628	0.013616122
59	0x3d6da905	0.058022518
60	0x3ca21735	0.019786457
61	0x3de8f4e5	0.11374835
62	0x3c4f8c81	0.012667776
63	0xbc1a016a	-0.009399751
64	0xbd797a8d	-0.06090789
65	0xba873212	-0.0010314605
66	0xbcc501fd	-0.0240488
67	0xbd515f0c	-0.051116034
68	0xbdd5e054	-0.10443178
69	0x3c39d475	0.011342158
70	0xbcc8929b	-0.02448397
71	0xbd46c469	-0.048527155
72	0x3c672cc8	0.014109798
73	0x3d99f929	0.07518227
74	0x3ac91c64	0.0015343544
75	0xbd20ed88	-0.039289027
76	0xbd451392	-0.048114367
77	0xbd8b46bb	-0.068006
78	0x3b74f046	0.003737466
79	0x3d36360b	0.044485133
80	0x3c81fddd	0.015868122
81	0x3d44c1ba	0.048036315
82	0x3d887bf7	0.066642694
83	0x3da637de	0.081161246
84	0x3c9edf3e	0.01939356
85	0xbb2c587e	-0.0026297863
86	0x3da00aef	0.078145854
87	0x3d3e7b7c	0.046504483
88	0x3cdebd02	0.027189735
89	0xbc9cad13	-0.019125497
90	0x3dcc921c	0.09988806
91	0xbcf05eda	-0.029342104
92	0x3e00034e	0.1250126
93	0xbd48feeb	-0.049071234
94	0xbc006733	-0.007837105
95	0xbd98a581	-0.07453442
96	0xbd110865	-0.035408396
97	0x3d3bac90	0.045818865
98	0x3de115a8	0.10990459
99	0xbcc558a8	-0.024090126
100	0x3cb1bc38	0.021696195
101	0x3dc37647	0.09544044
102	0x3dca07f0	0.09864795
103	0x3d88f2d6	0.06686942
104	0x3d72b8af	0.05925816
105	0x3d1a025c	0.037599906
106	0xbd8a07f4	-0.06739798
107	0x3df018b7	0.11723464
108	0xbd98a7e9	-0.07453901
109	0xbcbc95c9	-0.023020642
110	0x3c94a411	0.01814464
111	0xba813f30	-0.000986075
112	0x3dc8eb6b	0.098105274
113	0xbdbbcc52	-0.091698304
114	0xbd835e3b	-0.064144574
115	0xbce497fc	-0.027904503
116	0xbdfb3037	-0.122650556
117	0x3d4eb633	0.050466727
118	0xbd2d1efa	-0.04226587
119	0x3ca3ecd4	0.02001039
120	0x3d3cac55	0.046062786
121	0x3dac9cbe	0.08428334
122	0x3d87999c	0.066210955
123	0xbdc94b09	-0.09828765
124	0x3cea0c29	0.028570252
125	0xbdae5fd0	-0.085143685
126	0xbd40117a	-0.046891667
127	0xbdeb4406	-0.11487584
128	0xbdaf976a	-0.08573802
129	0x3d9f3999	0.07774658
130	0x3beb8ec1	0.0071886485
131	0xbd918123	-0.07104709
132	0xbdffc3fd	-0.12488554
133	0xbd30d3dd	-0.0431708
134	0xbe3c2adb	-0.18375723
135	0xbc542172	-0.012947427
136	0xbd895ad3	-0.067067765
137	0xbd60a035	-0.054840285
138	0xbb9b6df5	-0.0047433325
139	0xbcb00ce1	-0.021490516
140	0xbd92dd23	-0.07171085
141	0xbd7f70e9	-0.06236354
142	0x3b941dd2	0.0045201564
143	0xbd8091fb	-0.062778436
144	0xbc18083e	-0.009279309
145	0x3aaecb51	0.001333574
146	0x3d0ada3b	0.033899527
147	0xbd8115d1	-0.06302989
148	0xbd0a278f	-0.033729132
149	0x3d535a96	0.05160006
150	0xbd8abdd3	-0.06774487
151	0xbdb68596	-0.08912198
152	0x3e0decbe	0.13859841
153	0xbd42511c	-0.047440633
154	0x3d310534	0.043217853
155	0xbdad4b58	-0.08461636
156	0xbc4eeb03	-0.012629273
157	0xbd984d17	-0.07436579
158	0x3d2deaaf	0.04246014
159	0xbd679f1f	-0.056548234
160	0xbda04669	-0.0782593
161	0xbd3933a6	-0.04521527
162	0x3d6b0a8a	0.057383098
163	0x3cf6f5ee	0.030146565
164	0xbde7c29d	-0.113164164
165	0xbdff5010	-0.124664426
166	0x3d2e06d8	0.042486995
167	0xbb8aa41c	-0.004230989
168	0xbddf416e	-0.109011516
169	0xbceaafd0	-0.028648287
170	0xbd0f3905	-0.034966487
171	0x3db47f0f	0.08813297
172	0xbd54aca7	-0.051922467
173	0xbd117b71	-0.035518114
174	0xbd7d0c1c	-0.061779127
175	0x3d0ba5e3	0.03409375
176	0x3ca8c10b	0.020599863
177	0xbdd88ad9	-0.10573358
178	0x3cd6315b	0.026146581
179	0x3db5ca0f	0.0887643
180	0xbdc7c584	-0.0975447
181	0xbab4b04e	-0.0013785453
182	0x3dd3d5d6	0.1034352
183	0xbccdbe2d	-0.025115097
184	0x3c331c3e	0.010932026
185	0xbcc5ecc8	-0.024160758
186	0xbd3655dc	-0.044515476
187	0xbd3afe6a	-0.045652784
188	0x3d1058a7	0.035240795
189	0xbdca4640	-0.098766804
190	0x3cbe0764	0.023196883
191	0xbc4f3464	-0.012646768
192	0xbe0b742e	-0.13618538
193	0xbc3705f8	-0.011170857
194	0x3d510673	0.05103154
195	0x3d8b88ea	0.06813224
196	0xbd1108e1	-0.03540886
197	0xbd575c3a	-0.05257819
198	0x3d9a31d2	0.07529034
199	0xbdd66529	-0.104685135
200	0x3cf9f32d	0.030511463
201	0xbd2c63b9	-0.04208729
202	0x3c883dd3	0.016631043
203	0x3d1e26a9	0.038611088
204	0xbd54380e	-0.05181127
205	0x3e4c5b5e	0.19956729
206	0xbdcd7897	-0.10032766
207	0x3d0a626e	0.033785276
208	0xbe0292e0	-0.12751341
209	0xbda4075c	-0.08009216
210	0xbc4c3590	-0.012463942
211	0xbd81d78e	-0.06339942
212	0xbe0d900b	-0.1382448
213	0x3d516591	0.051122252
214	0x3d8baf7b	0.068205796
215	0xbcba0767	-0.022708608
216	0xbe0fdf06	-0.1404992
217	0xba1fbdf9	-0.0006093677
218	0x3b278506	0.0025561466
219	0x3c5526fc	0.013009783
220	0xbd97726f	-0.07394873
221	0x3ced90b2	0.02899966
222	0xbd7e28b8	-0.06205055
223	0x3c14c829	0.009080925
224	0x3c0a4568	0.008439399
225	0xbdf5a5dd	-0.119945265
226	0xbe01ab97	-0.12663113
227	0xbbf2795b	-0.0073997206
228	0xbd5d8c07	-0.05408862
229	0xbe06d899	-0.13168563
230	0xbb78c7fa	-0.0037960992
231	0x3dbf77da	0.09349032
232	0xbdad7775	-0.0847005
233	0x3af2f8e5	0.0018537311
234	0xbddf9f78	-0.10919088
235	0xbd1ebac0	-0.038752317
236	0x3cff2b80	0.031148672
237	0xbd9505c4	-0.0727649
238	0x3dde3051	0.108490594
239	0x3d9fa8ae	0.07795845
240	0x3ddbac74	0.10726252
241	0x3d89c105	0.06726269
242	0xbdc1512e	-0.09439312
243	0xbdaad463	-0.08341291
244	0x3d049650	0.03236991
245	0xbdcd49f3	-0.1002387
246	0x3dd8da12	0.105884686
247	0x3d5b4fd7	0.053542938
248	0xbe01e495	-0.12684853
249	0x3d55ded9	0.052214477
250	0x3c32f7f1	0.010923372
251	0xbe0525fb	-0.1300277
252	0x3db369c5	0.08760408
253	0xbcdb07a7	-0.026737047
254	0xbbecdbf1	-0.0072283675
255	0x3d2e2828	0.042518765

convs.1.lin_l.bias f4 [128]
0	0xbdc7cb6f	-0.09755599
1	0x3c7afaa0	0.015318543
2	0x3dbdede7	0.09273892
3	0x3dbfece7	0.093713574
4	0x3d3b6d6f	0.04575866
5	0xbcbfb4b9	-0.023401605
6	0xbcacdbd0	-0.021100909
7	0x3c81a9fc	0.015828125
8	0x3d6e9031	0.05824298
9	0x3dbdd288	0.09268671
10	0xbd62b2aa	-0.05534617
11	0xbda3407e	-0.07971285
12	0x3deee82c	0.11665377
13	0xbcc29076	-0.023750525
14	0xbcb5b089	-0.022178905
15	0x3dc881d4	0.09790388
16	0xbda23058	-0.07919377
17	0x3d5ce8ff	0.05393314
18	0x3c858156	0.016297024
19	0xbd8fa7d5	-0.07014433
20	0xbd8d563f	-0.06901216
21	0xbc19072a	-0.009340087
22	0xbd2d3c25	-0.042293686
23	0x3df829d6	0.121173546
24	0x3cdbc77b	0.026828518
25	0xbcf24df9	-0.029578196
26	0xbd609efd	-0.054839123
27	0xbd1f9090	-0.038956225
28	0x3d951a44	0.072804004
29	0x3d0b8d0a	0.034070052
30	0xbdd3216a	-0.103091076
31	0xbd6974fa	-0.056996323
32	0x3cd6e38c	0.02623155
33	0x3da30126	0.079592034
34	0xbda3e817	-0.08003252
35	0x3c9ff142	0.01952422
36	0x3d11ea14	0.035623625
37	0xbd30989b	-0.043114286
38	0x3d4cd49a	0.05000744
39	0xbce5f9da	-0.02807324
40	0x3c590bd7	0.013247452
41	0x3daa01bf	0.08301114
42	0xbed4ddc5	-0.41575447
43	0x3c9e67c5	0.01933659
44	0xbd427642	-0.04747606
45	0xbd3e5840	-0.04647088
46	0xbd0bf410	-0.034168303
47	0x3d517287	0.051134612
48	0x3c92936d	0.017892564
49	0xbd359eaa	-0.044340767
50	0xbc25d348	-0.010121174
51	0xbd89f494	-0.06736103
52	0x3d2ed3ba	0.042682387
53	0xbc355d12	-0.011069553
54	0xbda55d59	-0.08074445
55	0xbd87420f	-0.066043966
56	0xbd1291d3	-0.0357836
57	0xbb840ccb	-0.0040298454
58	0x3d5ed9e1	0.054407004
59	0x3d7681de	0.060182445
60	0x3cd97b5a	0.026548076
61	0x3d4c2589	0.049840484
62	0xbd462618	-0.048376173
63	0x3dc54001	0.096313484
64	0xbcd16c75	-0.025564412
65	0x3d97834e	0.07398091
66	0xbd195bf5	-0.037441213
67	0x3cf5d6d1	0.030009659
68	0x3d59371c	0.053031072
69	0xbdb2ca27	-0.08729964
70	0xbc6edc5f	-0.014578908
71	0xbcbf79da	-0.023373533
72	0x3e0b7fdf	0.13622998
73	0x3cc90abf	0.024541257
74	0x3dca8245	0.09888128
75	0xbd992778	-0.07478231
76	0xbda73618	-0.081646144
77	0x3d90297a	0.07039161
78	0xbe6db144	-0.23212153
79	0xbd8e4b8a	-0.06948002
80	0x3dd7893c	0.10524222
81	0xbd64314d	-0.05571108
82	0x3d3bb49c	0.04582654
83	0xbd9ac675	-0.07557384
84	0xbca37d8f	-0.019957332
85	0x3d0f4329	0.03497616
86	0xbcbea878	-0.023273692
87	0x3d843e30	0.06457174
88	0xbc86d657	-0.016459627
89	0xbda418ca	-0.08012541
90	0x3d3c31b5	0.04594584
91	0x3c6ca271	0.014443026
92	0x3d399e19	0.04531679
93	0x3d62b8e3	0.055352103
94	0x3ceac8d7	0.028660221
95	0xbd3a1332	-0.045428462
96	0x3c8ae705	0.016955862
97	0x3ddf994b	0.1091791
98	0xbd606187	-0.05478051
99	0x3d669c29	0.05630127
100	0x3d2fab64	0.04288806
101	0x3d9bb6f4	0.07603255
102	0xbd10662f	-0.0352537
103	0xbdc209b0	-0.09474504
104	0x3d779990	0.060449183
105	0x3d88aa7a	0.06673141
106	0x3d0ff783	0.035148155
107	0x3cb04930	0.021519274
108	0xbd2a327e	-0.04155206
109	0x3d1f21aa	0.038850464
110	0xbd95e601	-0.073192604
111	0xbd5e8e36	-0.05433484
112	0xbd918573	-0.071055315
113	0xbda18275	-0.07886211
114	0x3d3b81c3	0.045778047
115	0x3dca8ec1	0.098905094
116	0x3cbcab44	0.023030885
117	0x3d444127	0.047913697
118	0xbd83f001	-0.064422615
119	0xbcb5befa	-0.022185791
120	0x3d396c71	0.045269433
121	0x3d62a1db	0.05533014
122	0xbd16923d	-0.036760557
123	0x3dcd5afa	0.10027118
124	0x3d030734	0.03198929
125	0xbda4713a	-0.08029409
126	0x3dd16b96	0.102255985
127	0xbcd8bb5d	-0.02645653

convs.1.lin_r.weight f4 [128, 128]
0	0x3d533f75	0.05157419
1	0xbd02f660	-0.031973243
2	0xbcdd1753	-0.02698866
3	0x3d0eaaa7	0.034830716
4	0x3cbe230c	0.023210071
5	0x3c0f3881	0.008741499
6	0x3dccfe3a	0.10009427
7	0x3d0655e8	0.03279677
8	0x3d057457	0.032581653
9	0xbc4b084f	-0.012392118
10	0xbd94691d	-0.07246611
11	0x3cbef72e	0.023311224
12	0x3d69b3bf	0.057056185
13	0x3d20a806	0.03922274
14	0xbd834c58	-0.06411046
15	0x3ca21a40	0.019787908
16	0x3d6bf241	0.05760408
17	0x3db23258	0.087010086
18	0x3d5a7910	0.05333811
19	0x3d9f196c	0.07768521
20	0xbccef716	-0.025264304
21	0x3d63f85a	0.05565677
22	0x3c8e12da	0.017342974
23	0xbc4a8936	-0.012361815
24	0x3d54bbd5	0.051936943
25	0xbc7b5708	-0.015340574
26	0x3d94e98d	0.07271109
27	0x3d0e30e6	0.034714602
28	0xbc711085	-0.014713411
29	0x3d54eea0	0.051985383
30	0x3c25f737	0.010129741
31	0x3e1a3a38	0.15061271
32	0xbd910f20	-0.07082963
33	0x3d3802a4	0.044924393
34	0x3e0c25d8	0.13686311
35	0x3d4885d6	0.04895576
36	0x3d17d1d4	0.037065342
37	0xbda71636	-0.08158533
38	0x3d7399bd	0.059472788
39	0x3bf525fd	0.007481335
40	0x3d9ef9c3	0.07762482
41	0x3c87731e	0.016534384
42	0x3db4b62a	0.088238075
43	0xbdee201e	-0.116272196
44	0x3db03dc9	0.086055346
45	0x3da5f5d2	0.08103527
46	0x3e0192ce	0.12653658
47	0xbdbbdd37	-0.09173053
48	0xbb92d9e1	-0.0044815396
49	0x3dab6156	0.08368175
50	0xbd5b12f7	-0.053484883
51	0xbc898c92	-0.016790662
52	0xbcccc2fc	-0.02499532
53	0x3de809b9	0.113299794
54	0xbdc890c3	-0.09793236
55	0x3dc2c243	0.09509709
56	0xbcd97920	-0.026547015
57	0xbc34b65c	-0.011029806
58	0x3d8e6a38	0.06953853
59	0xbd764e0f	-0.060133036
60	0x3c4bafb4	0.012432028
61	0xbcc5f4a9	-0.024164515
62	0x3b080b1a	0.002075857
63	0x3daba06c	0.083802074
64	0x3d43f534	0.047841266
65	0x3c8edc4c	0.01743903
66	0xbd4d2927	-0.050088074
67	0xbda12ef2	-0.07870282
68	0x3bcdea9c	0.006284071
69	0x3d327a94	0.04357393
70	0x3d308953	0.043099713
71	0xbb89ecc2	-0.004209132
72	0xbc5569bf	-0.0130257
73	0xbc7de431	-0.0154963
74	0xbdba5518	-0.090982616
75	0xbdc6d9b4	-0.09709492
76	0xbccbe4bd	-0.024889344
77	0xbd102eac	-0.03520076
78	0x3d85300e	0.06503306
79	0xbd77a86a	-0.060463347
80	0x3d5184e5	0.05115213
81	0xbd6e0bc9	-0.058116708
82	0x3da0244c	0.07819423
83	0xbe0105ae	-0.12599823
84	0xbd2e4910	-0.042550147
85	0x3d8418aa	0.06450017
86	0xbbb855e0	-0.0056254715
87	0xbce36f26	-0.02776296
88	0x3c9b68fa	0.018970955
89	0xbca5bd49	-0.02023186
90	0xbd0de7a0	-0.034644723
91	0xbd000acf	-0.031260308
92	0x3d8d9f41	0.06915141
93	0x3c8b679f	0.017017184
94	0x3e0dc100	0.13843155
95	0xbda5a2e1	-0.08087707
96	0xbd2e5d7a	-0.042569615
97	0x3d903a64	0.07042387
98	0xbc9b8ef1	-0.018989058
99	0x3e05414a	0.13013187
100	0x3cbcbe80	0.023040056
101	0x3d0ecda8	0.034864098
102	0x3da75702	0.08170892
103	0x3b7af4b4	0.0038292827
104	0x3d862f94	0.065520436
105	0x3dabb322	0.08383776
106	0xbcb97a72	-0.022641394
107	0xbd9f21d5	-0.07770125
108	0x3cbb96c3	0.022899037
109	0xbc0cb482	-0.008587958
110	0xbd4a7d2d	-0.049435783
111	0x3cfe71aa	0.031060059
112	0xbd6f1978	-0.0583739
113	0x3d0cd942	0.03438688
114	0x3e1c95c2	0.15291503
115	0x3d07e829	0.03318039
116	0xbd7ab334	-0.061206058
117	0xbbc55e73	-0.006023222
118	0x3d04302c	0.032272503
119	0xbce38044	-0.027771123
120	0xbbca1bff	-0.006167888
121	0xbdd97c67	-0.10619431
122	0x3caa1845	0.020763526
123	0x3d5ff0c0	0.054672956
124	0xbdb32611	-0.08747495
125	0x3c8e0ffa	0.017341603
126	0x3ce93eaf	0.028472273
127	0x3d8acecf	0.06777727
128	0xbd47152c	-0.048604175
129	0xbdb31d13	-0.0874578
130	0xbde89125	-0.11355809
131	0xbc8144c5	-0.015779862
132	0xbdd428b7	-0.10359328
133	0x3dafd4fd	0.08585546
134	0xbdbbca2e	-0.09169422
135	0x3dd806ed	0.10548196
136	0xbdb2eb6e	-0.08736311
137	0xbca3a2c7	-0.01997508
138	0x3dbdedc8	0.09273869
139	0xbd86565c	-0.065594405
140	0x3d519ed2	0.051176853
141	0xbdaa8db9	-0.08327813
142	0xbd30bd9f	-0.043149587
143	0xbde69f35	-0.11260835
144	0x3dda8407	0.106697135
145	0xbde65096	-0.11245839
146	0xbc4d400d	-0.012527478
147	0xbc83093c	-0.015995614
148	0x3d6cd7e9	0.057823095
149	0x3d2d3a25	0.04229178
150	0xbbf82270	-0.0075724646
151	0xbc1e74a0	-0.00967136
152	0x3d191f8f	0.037383612
153	0xbd07f2e7	-0.033190634
154	0xbd979fc6	-0.07403521
155	0xbe029ebf	-0.1275587
156	0xbd217809	-0.039421115
157	0xbd3de8ab	-0.046364468
158	0xbdd1a359	-0.10236234
159	0xbd38dc21	-0.045131806
160	0x3d0ef3b4	0.034900382
161	0xbe37de55	-0.17955907
162	0x3cb294a7	0.021799399
163	0xbe50b7ee	-0.20382664
164	0xbe0e698c	-0.1390745
165	0x3d034c01	0.032054905
166	0x3d40df79	0.04708812
167	0x3db3af11	0.08773626
168	0xbd40d816	-0.047081076
169	0xbcfb67a5	-0.03068907
170	0xbaf514ab	-0.0018698176
171	0x3c7103ef	0.0147104105
172	0x3d10e90e	0.03537851
173	0x3ca6e443	0.020372516
174	0xbcf97283	-0.030450111
175	0xbb612c86	-0.0034358813
176	0x3d2ec804	0.04267122
177	0xbd5fb5cc	-0.054616734
178	0xbd6d087f	-0.05786943
179	0x3ceac0be	0.02865636
180	0xbe1a8079	-0.15088071
181	0xbcfbb4c1	-0.030725839
182	0x3df35d13	0.11882987
183	0xbdcb504b	-0.09927424
184	0x3d1fea4e	0.03904181
185	0xbcce0e87	-0.025153412
186	0xbdeb7370	-0.11496627
187	0xbda7223d	-0.08160827
188	0xbc03d2d1	-0.008045868
189	0x3d5abf1e	0.05340492
190	0x3e1c4c27	0.15263425
191	0xbdca63ea	-0.09882338
192	0xbd19943a	-0.037494875
193	0xbe03ab23	-0.12858252
194	0x3da5d122	0.080965295
195	0x3d87d0b0	0.06631601
196	0x3cc8df0a	0.024520416
197	0xbd63be4e	-0.05560141
198	0xbdc6935b	-0.096960746
199	0xbde01751	-0.10941947
200	0x3d5da256	0.054109894
201	0xbda6d6dd	-0.08146451
202	0x3d9d5989	0.07683093
203	0x3c9ed1f0	0.019387215
204	0x3d832bac	0.06404814
205	0x3d179110	0.037003577
206	0xbc7bdd6b	-0.015372614
207	0x3d34c8ab	0.044136684
208	0xbd2d22f4	-0.042269662
209	0xbdffbdb8	-0.12487358
210	0x3d134a5d	0.03595959
211	0xbe5d955a	-0.21639004
212	0xbd8f4587	-0.06995683
213	0x3adfeda1	0.0017084369
214	0x3d162e0b	0.036665004
215	0x3cbed7e2	0.0232963
216	0xbe1edacb	-0.1551315
217	0x3da1737f	0.07883357
218	0x3c9c034a	0.019044537
219	0x3d60e5bc	0.05490659
220	0xbc895142	-0.01676238
221	0xbcfbb0bf	-0.030723928
222	0x3cb569ad	0.022145117
223	0x3d5aa58b	0.05338053
224	0xbdd1bf05	-0.10241512
225	0xbd77a465	-0.060459513
226	0xbe1943fb	-0.14967339
227	0xbcebd041	-0.028785827
228	0xbc08833a	-0.008332068
229	0xbda3e1af	-0.0800203
230	0x3ca6ed49	0.020376818
231	0x3d84195a	0.06450148
232	0x3ce1d0cd	0.027565384
233	0xbdd01996	-0.1016113
234	0xbd411d24	-0.04714693
235	0xbd85addd	-0.065273024
236	0x3dfc115c	0.123079985
237	0xbd987fda	-0.07446261
238	0x3cdf5e83	0.027266746
239	0x3d8b9e1c	0.06817266
240	0xbc7a332e	-0.015270991
241	0x3dbe7f16	0.093015835
242	0xbd7363e6	-0.059421442
243	0xbb6a6913	-0.0035768196
244	0xbcf0ad69	-0.029379563
245	0xbdc46015	-0.09588639
246	0x3d82d066	0.06387405
247	0xbc170c23	-0.009219202
248	0xbcef4e2a	-0.029212076
249	0x3dd9c8e2	0.106340185
250	0xbd53f8d6	-0.05175098
251	0xbd27807e	-0.040894024
252	0xbce83c2c	-0.028349005
253	0x3e12f470	0.14351058
254	0xbcd88833	-0.026432132
255	0xbcf0f9c6	-0.029415976

convs.2.lin_l.weight f4 [128, 128]
0	0x3d13be2d	0.036070038
1	0x3c8d71d2	0.017266188
2	0xbd245e07	-0.040128734
3	0xbdb51148	-0.08841187
4	0x3d3d45fc	0.04620932
5	0xbd449e6c	-0.048002645
6	0xbd8dbdc2	-0.06920959
7	0x3d5e8d89	0.054334197
8	0x3c994b63	0.018712705
9	0x3bd9c0a7	0.0066452804
10	0xbd2c89b0	-0.042123497
11	0x3af85c93	0.0018948488
12	0x3cd9aa6d	0.026570523
13	0x3d7195f1	0.058980886
14	0xbcea22a3	-0.02858097
15	0x3d8a8b20	0.06764817
16	0x3d1c5928	0.038170964
17	0xbc8b1983	-0.016979938
18	0x3cc00222	0.023438517
19	0xbd118c89	-0.035534415
20	0xbd8aa05b	-0.06768867
21	0x3d098147	0.033570554
22	0x3b78d9e6	0.0037971674
23	0xbc09c688	-0.00840915
24	0x3ce4d24b	0.027932307
25	0xbd5c90e2	-0.05384911
26	0x3d35bc9b	0.04436932
27	0xbbe37d5e	-0.006942435
28	0xbc1c2084	-0.009529237
29	0xbd7c4947	-0.06159332
30	0xbd1133b5	-0.035449702
31	0xbcd88484	-0.026430376
32	0xbcaac240	-0.020844579
33	0x3da8b5c5	0.08237795
34	0x3d8ea356	0.069647476
35	0xbd4fcd99	-0.050733183
36	0x3ca53298	0.020165727
37	0xbdaf6448	-0.08564049
38	0x3d71429b	0.05890141
39	0x3d1fb6b5	0.038992602
40	0x3db5f878	0.08885282
41	0xbcb3ea81	-0.021962406
42	0x3d792941	0.06083036
43	0xbd447f77	-0.047973122
44	0xbd044469	-0.032291804
45	0x3d9960e7	0.07489186
46	0x3a68db03	0.0008882733
47	0xbdb3508f	-0.087556
48	0xbd028983	-0.031869423
49	0x3dcbe513	0.09955802
50	0x3d99c33a	0.0750794
51	0xbd82558e	-0.063639745
52	0xbd2e0fda	-0.042495586
53	0x3ce601e8	0.02807708
54	0xbce4210e	-0.027847793
55	0x3c29b836	0.010358861
56	0xbafac821	-0.0019133129
57	0xbdaf1d9f	-0.08550572
58	0xbd1ec902	-0.038765915
59	0xbdcc4cc8	-0.09975582
60	0xbc99ffa0	-0.01879865
61	0x3c012318	0.007881902
62	0x3aafe8aa	0.001342078
63	0xbd68a739	-0.0568001
64	0xbd873ac5	-0.06603006
65	0xbab625ff	-0.0013896822
66	0x3db01eb7	0.085996084
67	0xbc9857c5	-0.01859654
68	0xbda901ff	-0.08252334
69	0xbcbc12a1	-0.022958102
70	0x3d305418	0.043048948
71	0xbda2b77e	-0.079451546
72	0xbc9d88b9	-0.019230234
73	0x3da6a560	0.081370115
74	0x3d8917eb	0.06694015
75	0x3c958a9b	0.018254569
76	0x3d14ce1a	0.036329366
77	0x3cf50e7f	0.029914139
78	0xbc39af8b	-0.011333357
79	0xbd8f71ee	-0.07004152
80	0xbd66a081	-0.056305412
81	0xbc2d8270	-0.010590181
82	0xbd82269b	-0.0635502
83	0xbd3d5248	-0.046221048
84	0xbd333893	-0.043755125
85	0xbd309bf8	-0.043117493
86	0xbc96ed47	-0.01842369
87	0xbdb7d4ad	-0.089761116
88	0x3d97f44f	0.07419645
89	0xbd5cfcc8	-0.05395201
90	0x3db1c4f2	0.086801425
91	0x3d29cfee	0.041458063
92	0xbd1fafc8	-0.038985997
93	0xbd9e2877	-0.07722562
94	0xbdc1df09	-0.09466369
95	0x3d0aed92	0.03391797
96	0xbda8c8dd	-0.08241437
97	0xbad017c8	-0.0015876228
98	0xbd3cf93f	-0.046136137
99	0x3ca9f0d2	0.020744715
100	0x3cba46bc	0.022738807
101	0x3db5b2b3	0.08871975
102	0x3bca15ae	0.006167135
103	0xbc1837dc	-0.009290662
104	0x3a89f13c	0.0010524164
105	0xbb5393a8	-0.0032284055
106	0xbd805640	-0.06266451
107	0xbdad0199	-0.0844757
108	0xbcaa124e	-0.020760681
109	0x3d043863	0.032280337
110	0xbd74be8c	-0.059752032
111	0x3daac91a	0.08339138
112	0x3c97436c	0.018464766
113	0x3d0eec7d	0.0348935
114	0xbca0a122	-0.019608084
115	0xbd52b176	-0.05143877
116	0xbd85fbf7	-0.06542199
117	0xbd86b73c	-0.06577918
118	0xbd0e614b	-0.034760755
119	0x3c95357e	0.018213984
120	0x3c4276c9	0.011869141
121	0xbce76bb7	-0.028249605
122	0xbd9a9069	-0.07547075
123	0xbc39cb95	-0.011340042
124	0x3bcd7c8f	0.006270952
125	0x3d44447f	0.047916885
126	0xbdb12601	-0.08649827
127	0x3d5a1378	0.053241223
128	0x3c407c5f	0.011748402
129	0x3dece8d6	0.115678474
130	0x3d46757d	0.04845189
131	0x3d86dca8	0.065850556
132	0xbc17a34f	-0.009255244
133	0xbc4516be	-0.012029348
134	0x3d692e2a	0.05692879
135	0xbd9d4138	-0.07678455
136	0xbd83487c	-0.0641031
137	0xbd345106	-0.044022582
138	0xbd8e4d83	-0.06948378
139	0xbd3e6366	-0.046481512
140	0xbd0cd6eb	-0.03438465
141	0xbd1ab159	-0.03776679
142	0xbc428483	-0.011872414
143	0x3d95e68d	0.07319365
144	0xbdbabc2e	-0.09117924
145	0x3ac0ce88	0.0014709989
146	0x3be8a5f7	0.0070998627
147	0x3c561efe	0.013068913
148	0xbd3abbf6	-0.04558941
149	0xbd43240a	-0.04764179
150	0xbdb47a21	-0.08812357
151	0xbc2a2095	-0.010383745
152	0x3d144a0c	0.03620343
153	0x3da9ae91	0.08285249
154	0x3d56f194	0.05247648
155	0xbcb60931	-0.02222118
156	0xbd13c281	-0.036074165
157	0x3cb5766f	0.0221512
158	0xbd0515e5	-0.032491583
159	0x3d3d0a95	0.04615267
160	0x3d07ee4a	0.033186235
161	0x3d0bee62	0.034162886
162	0x3c2ff784	0.010740165
163	0xbc200c38	-0.009768538
164	0x3d5404cd	0.05176239
165	0x3d0a8315	0.033816416
166	0x3ccdf4a8	0.025141075
167	0xbd83fef0	-0.0644511
168	0x3d4de056	0.05026277
169	0xbd2ac116	-0.041688047
170	0xba53f5a7	-0.0008085616
171	0x3d686d6a	0.05674497
172	0x3da38823	0.079849504
173	0x3d9395ee	0.07206331
174	0xbc152097	-0.009102008
175	0xbbaf6740	-0.0053528845
176	0x3ceb66fd	0.028735632
177	0xbd30dc4a	-0.043178834
178	0xbd1d0af6	-0.03834053
179	0x3d277179	0.0408797
180	0x3cb5ddbd	0.02220046
181	0x3da1442c	0.07874331
182	0x3dd0b9fa	0.10191722
183	0x3dbcd0e2	0.09219529
184	0xbd35218e	-0.044221453
185	0x3da3175f	0.07963442
186	0x3d91373d	0.07090614
187	0x3d19d9dd	0.037561286
188	0x3d02ac77	0.031902757
189	0xbd40cf18	-0.0470725
190	0xbd03d155	-0.032182056
191	0x3d94b910	0.0726186
192	0xbdb02e88	-0.08602625
193	0x3d97f887	0.0742045
194	0xbd970c3e	-0.07375382
195	0x3cb468ce	0.022022631
196	0xbd658fea	-0.05604545
197	0xbd9668a9	-0.07344181
198	0x3d054351	0.0325349
199	0xbce2fc05	-0.027708063
200	0xbda7f4ea	-0.082010105
201	0x3d28e967	0.041238215
202	0x3d2b1d66	0.041776083
203	0x3d9fd2da	0.078038886
204	0x3d3d6e06	0.046247505
205	0x3d66858c	0.056279704
206	0xbd14c2d3	-0.03631861
207	0x3cd3a27a	0.02583431
208	0xbcc04fc8	-0.023475543
209	0xbdb17e18	-0.086666286
210	0x3d818abd	0.0632529
211	0x3b0b7127	0.002127716
212	0x3cef3204	0.029198654
213	0x3c5e2b5e	0.013560144
214	0xbd846c7b	-0.064660035
215	0x3dcd7721	0.10032488
216	0xbd5b7128	-0.05357471
217	0xbd62267e	-0.05521249
218	0xbde53ab5	-0.11192838
219	0x3d0e9e3e	0.03481888
220	0xbd8aeea8	-0.06783801
221	0xbd0bf2ab	-0.034166973
222	0x3d3d9718	0.046286672
223	0x3d352eb5	0.044233996
224	0x3db442f5	0.088018335
225	0xba1ff617	-0.0006102039
226	0x3bf40dc6	0.007447931
227	0xbc6c4eee	-0.014423115
228	0x3d077930	0.033074558
229	0x3d90fe79	0.07079787
230	0x3d95559c	0.07291719
231	0x3c54032e	0.012940211
232	0x3d7c36bf	0.061575647
233	0x3d4ee7a6	0.050513886
234	0xbcba1656	-0.022715729
235	0x3db2aece	0.087247476
236	0x3cfe1cd2	0.031019602
237	0xbd5ad44c	-0.05342512
238	0xbd9fc4cf	-0.0780121
239	0x3d8d88fe	0.06910895
240	0x3c5c2e58	0.013438784
241	0x3d2c5955	0.04207738
242	0x3c5f64ae	0.013634844
243	0x3da56c8e	0.08077346
244	0xbcd39be1	-0.025831165
245	0x3d796028	0.060882717
246	0x3d524769	0.051337633
247	0xbdb015db	-0.085979186
248	0x3d106fba	0.0352628
249	0xbb2079b6	-0.0024486608
250	0x3d24e162	0.040254004
251	0x3c493bf0	0.012282357
252	0xbdb57116	-0.0885946
253	0xbd96f653	-0.07371201
254	0xbd4ea9ef	-0.05045503
255	0x3da11db2	0.07866992

convs.2.lin_l.bias f4 [128]
0	0xbd202a52	-0.03910286
1	0x3bae07ae	0.005310974
2	0x3d2035cf	0.039113816
3	0xbd05a353	-0.03262646
4	0x3d68bf38	0.056822985
5	0xbd7ee773	-0.062232446
6	0x3d4d111e	0.050065152
7	0x3c752d21	0.014964373
8	0x3a1cbba7	0.000597889
9	0xbcd68d30	-0.02619037
10	0xbc41ce14	-0.011828918
11	0xbdaf2cdd	-0.08553479
12	0x3d13d565	0.03609218
13	0xbdb87541	-0.090067394
14	0x3d8257d4	0.06364408
15	0x3d68d3e9	0.05684272
16	0x3d507444	0.05089213
17	0xbb7b8175	-0.0038376723
18	0x3c44132c	0.011967462
19	0xbdc280fa	-0.094972566
20	0xbd6fe243	-0.05856539
21	0xbd795ea0	-0.060881257
22	0xbccc40b5	-0.024933198
23	0xbd691d69	-0.056912813
24	0x3d95a2e2	0.07306458
25	0xbd27200c	-0.040802047
26	0x3be5c62e	0.0070121503
27	0x3d81d854	0.063400894
28	0x3d3acb05	0.04560377
29	0xbd54ec23	-0.05198301
30	0x3d6ce0f6	0.057831727
31	0x3c2dd289	0.0106092775
32	0x3d026035	0.03183003
33	0x3d7c8ebf	0.06165957
34	0x3bb98e7d	0.005662738
35	0xbd883029	-0.06649811
36	0x3d13c659	0.03607783
37	0xbbbd2639	-0.0057723788
38	0x3d37276b	0.044715326
39	0xbb1947b9	-0.0023388697
40	0xbd3e7425	-0.046497483
41	0xbc32ffc5	-0.010925238
42	0x3db9e087	0.09076028
43	0xbd2eeed4	-0.042708233
44	0xbda6f73b	-0.08152624
45	0x3ccd8b67	0.025090886
46	0xbc800210	-0.015625983
47	0xbcc8b69c	-0.024501137
48	0x3d558f30	0.052138507
49	0xbba418e7	-0.0050078514
50	0x3d7b9181	0.06141806
51	0xbd07b9a3	-0.03313602
52	0x3d9b429f	0.07581066
53	0xbdc93fc0	-0.098266125
54	0xbc639a3d	-0.013891754
55	0x3cd8a5e6	0.026446294
56	0x3d140d6a	0.036145605
57	0x3d6509d8	0.05591759
58	0xbd501776	-0.050803624
59	0xbadabb21	-0.0016687849
60	0x3dac88fb	0.084245645
61	0xbcb83388	-0.02248551
62	0xba8278a6	-0.0009954169
63	0xbdc56456	-0.09638278
64	0xbafcd882	-0.0019290599
65	0xbd2c421a	-0.042055227
66	0x3dbb1645	0.09135107
67	0x3bba7586	0.0056902794
68	0x3d1e7489	0.038685355
69	0xbd3e1e8e	-0.046415858
70	0x3db2e20d	0.08734522
71	0xbd6333ff	-0.05546951
72	0xbc90fc96	-0.017698567
73	0x3694c69a	4.433864e-06
74	0x3d43baf1	0.047785703
75	0x3d28d71a	0.04122076
76	0xbc820f08	-0.015876308
77	0x3d07b96c	0.033135816
78	0xbd73156b	-0.059346598
79	0x3da62188	0.08111864
80	0xbdd4097a	-0.1035337
81	0xbce89173	-0.028389668
82	0xbd2b914d	-0.041886616
83	0x3dac5f7c	0.0841665
84	0x3dad7f46	0.08471541
85	0x3da1567c	0.07877824
86	0xbd222c9a	-0.039593317
87	0xbc80af1a	-0.015708495
88	0xbbaa27f9	-0.0051927534
89	0x3d5c4e32	0.05378551
90	0xbd7b3a30	-0.06133479
91	0x3d741c1b	0.059597116
92	0x3d61a929	0.055092964
93	0xbdbd871e	-0.09254287
94	0x3dc8ccea	0.09804709
95	0x3deca1cc	0.11554298
96	0xbcd21fbc	-0.025649898
97	0x3b4d63e1	0.003134005
98	0xbd4c7292	-0.04991395
99	0x3ca39e86	0.01997305
100	0xbc507446	-0.012723034
101	0xbd8ccea3	-0.0687535
102	0x3d8252d9	0.06363458
103	0xbd80ec16	-0.0629503
104	0xbd18c6bc	-0.037298903
105	0xbc81e253	-0.01585499
106	0xbd8091c2	-0.06277801
107	0x3d326bb3	0.04355974
108	0x3af86856	0.0018951993
109	0x3c9c0b05	0.019048223
110	0xbdacd1d7	-0.08438461
111	0xbcaded1d	-0.021231228
112	0xbd6bf470	-0.05760616
113	0x39d165af	0.00039939347
114	0xbd5df1a9	-0.054185543
115	0x3ab21dd5	0.0013589213
116	0x3c86c399	0.01645069
117	0xbd168c1c	-0.036754712
118	0x3dbab2c8	0.09116131
119	0x3d243f57	0.040099468
120	0x3ca14a72	0.019688819
121	0x3d0e26d9	0.034705017
122	0x3d1d32ac	0.038378403
123	0xbd746823	-0.059669625
124	0x3db39dc0	0.08770323
125	0xbd6429ca	-0.055703916
126	0x3db1ecb8	0.08687729
127	0xbda6b084	-0.081391364
