src/jupyter/GCN_model_weights.pth (torch, 462373 bytes, 10 tensors)

convs.0.bias f4 [256]
000000 c9 80 0e 3c 7d e3 03 3d cb 1c 96 bc 98 85 37 3c
       0.008697697 0.03219937 -0.018324276 0.011201285
000010 49 9d 0c ba 23 4b 8a bc 04 05 91 3c 88 32 f8 3c
       -0.00053640135 -0.016881531 0.017702587 0.030297533
000020 9e e7 38 ba 38 72 87 3b 6f 70 07 bc 8c 3f 24 3a
       -0.00070535566 0.004133489 -0.008266552 0.0006265573
000030 08 74 07 bc ef 1c bc 39 8d de 3a 3c 94 f1 1c bc
       -0.00826741 0.00035879712 0.011405599 -0.009579081
000040 6e f2 e0 bb c5 06 33 bc 5f 3a b9 bc cd 81 9b bc
       -0.0068648374 -0.010926907 -0.022610841 -0.018982792
000050 43 6c 27 bb 81 dd ca ba e8 ca 28 3c bf 29 a2 bc
       -0.0025546707 -0.001547739 0.010302283 -0.019795297
000060 33 fd 7a ba c1 47 f7 39 34 c2 af 39 d9 64 f8 3c
       -0.0009574473 0.00047164972 0.00033523294 0.030321525
000070 84 7d 0d bc eb 4b 09 3c 23 42 71 bc e7 5c 21 3b
       -0.008635882 0.008379917 -0.014725241 0.0024622025
000080 38 01 fd bb de 3f d2 bb d6 77 a2 bb ba 70 bf 3c
       -0.0077210926 -0.006416305 -0.004958133 0.023369182
000090 99 7a 30 3c 3e 17 c7 3c 25 62 ad 3c 7f ef 1a 3c
       0.010771417 0.024303075 0.021164963 0.009456514
0000a0 c7 f2 47 bb b3 b8 44 3b 5c 16 52 bc 12 bc 45 bb
       -0.0030509697 0.0030017316 -0.012822714 -0.0030171913
0000b0 a8 88 3c 3b 6f b0 b3 3c ab dd df 3a 2f 07 b9 ba
       0.0028767977 0.021934716 0.0017079612 -0.0014116521
0000c0 95 20 69 3c 24 4e 41 3b 0c 16 a8 bb 81 c1 47 3b
       0.01422896 0.0029496038 -0.0051295813 0.0030480328
0000d0 46 9d 0e 3c 5e de e7 3b e7 56 08 bc c1 dd 37 bc
       0.008704489 0.007076069 -0.0083215 -0.011222304
0000e0 dc 7f 81 3c 89 73 c3 bb 70 9e 56 3b 01 9c 88 3b
       0.015808038 -0.0059647006 0.0032748245 0.0041689877
0000f0 e4 5e 65 bb 2b d0 f5 bc 79 a9 8d 3b a6 a1 43 3c
       -0.0034999186 -0.030006489 0.004323181 0.011940395
000100 7d a7 84 3b 75 52 17 3d 6e ee bb 3b 8d 95 35 bc
       0.0040482865 0.03694387 0.00573521 -0.011083019
000110 2f af 93 3c e7 ce 91 3b 69 b5 aa 3c 28 1b 86 39
       0.01802787 0.0044497135 0.020838456 0.00025578705
000120 51 e2 63 ba 76 cc 38 bb c8 c2 60 ba d4 f7 15 3b
       -0.00086930866 -0.002819804 -0.00085739465 0.0022883313
000130 14 87 c1 ba aa 4a d9 3c 66 23 fe 3b c3 08 9f 3b
       -0.0014764988 0.02652486 0.0077556847 0.0048533394
000140 8e ad fc bb 74 7b ed bb f5 bb 82 bc 41 f3 2b 3c
       -0.007711119 -0.007247383 -0.015958766 0.010495008
000150 3a 39 88 bc 6c 37 b0 3c 20 0c 9d bc 87 9c 1a bb
       -0.01662885 0.021510802 -0.01917082 -0.0023591833
000160 6a 3c 65 3c 55 b5 38 ba e3 66 98 bc f7 81 33 3c
       0.013991455 -0.00070460635 -0.018603748 0.010956279
000170 d3 e6 9a 39 01 d3 25 3c d0 4d 25 bc 74 21 ee 3a
       0.00029545146 0.010121108 -0.010089353 0.0018167929
000180 95 59 5b 3b 2f c6 f2 bb 5e d6 38 3c fc 7e 31 3c
       0.0033470143 -0.007408879 0.011281578 0.010833498
000190 f8 17 3f 3b fd 87 bf 3c 7a a3 23 3b 34 65 a4 3b
       0.0029158574 0.023380274 0.0024969266 0.005016947
0001a0 a4 6f 22 bc 11 c7 08 3c 96 28 75 bc 69 d2 9e 3b
       -0.0099143125 0.008348242 -0.01496329 0.00484686
0001b0 dc 15 58 bc c5 d1 2a bb 89 d2 f7 bb 1b a1 7e bb
       -0.013188805 -0.0026064974 -0.0075629395 -0.003885335
0001c0 2c e9 a1 ba cc 49 66 3c 35 a1 cc bb 45 e7 71 bb
       -0.0012352816 0.0140556805 -0.0062448033 -0.003691153
0001d0 4c ad 0e bb 16 b1 40 3c 7c 43 0b 3c de 43 86 3b
       -0.0021770773 0.011760971 0.008499976 0.004097446
0001e0 c9 ff 30 bc e1 aa 1c bc 71 de ef bb 1c fc 46 3b
       -0.010803171 -0.009562225 -0.0073202183 0.0030362671
0001f0 c3 9f 77 bb 22 cf 6e 39 3c 2b 8a 3b 51 20 0d 3c
       -0.0037784434 0.00022774612 0.0042165797 0.008613662
000200 d9 a6 bb 3b c4 0d b1 bb 5d 9b 75 3c 39 d1 92 bb
       0.005726677 -0.0054032523 0.014990655 -0.0044805077
000210 1b f8 1f bc 30 b2 d7 3c f0 7e f7 3b 5a 3a cc bb
       -0.009763743 0.026330084 0.007552974 -0.006232542
000220 3c c0 1a 3b 4d af 92 bc 81 d0 e0 3b a3 5f e7 3b
       0.0023613116 -0.017905856 0.006860793 0.0070609613
000230 cb 43 16 bb 3b e3 3e 3c a9 89 94 bc 86 ad 8e 3b
       -0.0022928591 0.011650856 -0.018132048 0.0043541817
000240 9d b0 da 3b f4 fe a4 3a 33 fd a7 bb 9a fc aa 3a
       0.006673886 0.0012588189 -0.0051266192 0.0013045252
000250 7d cf 9a 3c 7d 74 63 3c 02 c4 96 bc 50 a9 8c 3b
       0.018897766 0.013882753 -0.01840401 0.0042926446
000260 99 d5 98 bb f4 d1 b0 3a 37 bf 53 3b a1 9e 13 bc
       -0.0046641347 0.0013490305 0.0032310018 -0.009009988
000270 19 18 81 bc e0 69 89 3c 88 76 92 bb 6d ee 6e 3c
       -0.015758561 0.016774118 -0.0044696964 0.014583212
000280 f5 dc 27 3a 4d af 82 3c c1 fb 84 3c c4 9a 90 3c
       0.00064034696 0.01595273 0.016233327 0.017651923
000290 e0 6e ba bb f5 dd ab b9 31 50 66 bc de 4b 6d bb
       -0.005689487 -0.00032781032 -0.014057205 -0.003620855
0002a0 a7 26 30 bb 9f 0f e6 bb fa ca 50 3c ae 13 4d bc
       -0.0026878507 -0.007020905 0.012743706 -0.012516899
0002b0 8c 21 47 3c e7 a2 3f bb 6a e6 8f 3c 6b e8 f7 3b
       0.012153994 -0.0029241384 0.017565925 0.007565548
0002c0 cd 8e de 3a 9c 42 3a 3b 00 77 1a bb c7 ab 4a 3c
       0.0016979814 0.002842105 -0.0023569465 0.0123700565
0002d0 46 1e 7e bc 78 ec cc bb f8 b4 3a 3c e9 e4 bf 3b
       -0.015510147 -0.006253775 0.011395685 0.0058561456
0002e0 ed 30 f6 bb de cc 20 bb 51 03 80 bb 1c e4 8d 3b
       -0.0075131566 -0.0024536173 -0.0039066453 0.0043301713
0002f0 c2 72 1d 3c 17 1d 3b bc 54 13 2a bc 92 d3 a9 3c
       0.00960988 -0.01142051 -0.010380585 0.020730767
000300 42 1c 5f bb a7 4b 58 3c de c0 98 3c 60 1d 14 3c
       -0.0034043943 0.013201631 0.018646654 0.009040207
000310 30 32 46 bc fc 75 8d bb d0 8a 29 bb 23 fb 80 3c
       -0.012096927 -0.0043170433 -0.0025870092 0.015744751
000320 8a e9 4a 3b 8a cf 1b 3c c8 1a 09 3c a4 77 0e 3d
       0.0030961954 0.00950993 0.008368202 0.034782067
000330 ed f9 07 3c 79 1b 4b bc e0 9d 8d bc 81 6b 94 bb
       0.008299333 -0.012396687 -0.017287195 -0.004529417
000340 6c 50 25 3c 5a ca 97 bb 3a 6d cb 3b 4f 9b 2b 3c
       0.010089975 -0.0046322765 0.006208089 0.01047404
000350 2d e8 91 3b e8 c8 2e 3c a4 c8 e2 bb c9 43 f1 3b
       0.0044527263 0.010668017 -0.006920891 0.007362817
000360 25 40 b5 3b cb 69 eb bb c8 8e 9d bb 0c 92 8a 3c
       0.0055313283 -0.0071842424 -0.0048082806 0.016915344
000370 3c 94 ce 3b f2 eb 08 3c bd 44 4a bc 3f 9d 4c 3c
       0.006304292 0.008357035 -0.01234549 0.012488662
000380 b8 11 8d bb f2 48 8a 3c 9f dd 71 bc a9 a4 55 bc
       -0.0043050908 0.016880486 -0.014762311 -0.013039746
000390 0d 3e b6 3c aa fb 96 bb f8 78 08 3c 7d 13 01 bc
       0.022246385 -0.0046076374 0.008329622 -0.0078781815
0003a0 53 c3 55 bc 0a 74 21 bc f0 16 88 bc 8f aa 38 3c
       -0.013047057 -0.009854326 -0.0166125 0.011271133
0003b0 56 8f 73 3b fd 48 07 3c a4 e1 34 bc 1c 32 f9 3b
       0.0037164292 0.008257148 -0.011040125 0.0076048505
0003c0 2d b5 14 3b b7 a3 70 3c 9d c1 c7 3c 6c f2 28 bc
       0.0022690997 0.01468747 0.024384314 -0.010311704
0003d0 30 58 ac bb 79 b1 8b 3c 81 ab e4 3b 99 5e db b9
       -0.005259536 0.017052399 0.0069784527 -0.00041841416
0003e0 b9 ed d0 3b 6c 4a b2 39 ed 62 8e bc 33 f9 28 bc
       0.006375995 0.00034006254 -0.017381156 -0.01031332
0003f0 ab 69 88 3c c2 93 a6 bb e2 59 90 bb 2f 53 41 bc
       0.016651949 -0.005083532 -0.004405246 -0.011799618

convs.0.lin.weight f4 [256, 183]
000000 cf 5c aa bd 9d 2b a1 bd fd d8 8b 3c e7 f9 bd bd
       -0.08318483 -0.07869647 0.017071242 -0.09276181
000010 36 c1 b6 bd e7 10 be bc 1c d8 bf 3d d1 18 94 bc
       -0.08923571 -0.023201419 0.093673915 -0.01807824
000020 f6 a4 a2 bb 3d 6c 94 3d f4 b2 41 bd d8 ef e1 3d
       -0.0049635125 0.07247207 -0.047289804 0.11032075
000030 e1 92 47 bc 7f dc 24 bd a1 a7 cd bd a2 26 bb bd
       -0.012181015 -0.040249344 -0.10041738 -0.09138228
000040 49 06 b8 bd 5d d6 05 bd dc ef 83 bc f0 53 44 3d
       -0.08985574 -0.032675136 -0.016105585 0.04793161
000050 36 3b f7 3c 93 a5 d9 3c ef 5c a3 3b c2 54 3f 3d
       0.030179601 0.02656821 0.004985444 0.04671169
000060 42 03 cf bd c8 0b 85 bd 16 1f b7 bc 12 c0 2b 3d
       -0.10108043 -0.06496388 -0.02235369 0.04193122
000070 e4 aa 65 bc c5 bd 74 3d ca f2 17 3d 84 82 95 3d
       -0.014017794 0.05975129 0.037096776 0.073002845
000080 35 f1 25 3c 9d 5e ec bd fe f6 5d 3d 9d c0 c6 bd
       0.010128309 -0.115414836 0.05419063 -0.09704707
000090 12 1b 3a bc f8 6f c0 3d 64 64 78 3b 6f 78 18 bd
       -0.011358993 0.09396356 0.0037901634 -0.03722423
0000a0 07 bc c9 3d 4d 1d 3a bd 19 b3 0e 3d ca 93 c6 3d
       0.098503165 -0.0454381 0.03483877 0.09696157
0000b0 b7 b6 d7 3c bc 3a 5e 3d 44 60 ed bd df 4b 25 bd
       0.026332242 0.054255232 -0.11590627 -0.04035556
0000c0 68 46 1d bd c2 21 df 3d 96 b4 3b 3c 5f d3 b9 bd
       -0.038397223 0.10895111 0.011456629 -0.09073519
0000d0 01 08 73 bc 6b 21 6d bc 1e 8d 19 bb 89 70 c5 bd
       -0.014833451 -0.0144732995 -0.002343006 -0.09640605
0000e0 57 05 d9 3d 9a b9 c3 bd a6 5f 03 be 4a a6 57 3d
       0.105967216 -0.09556885 -0.12829456 0.05264882
0000f0 41 37 c0 bb 77 64 e4 bc be aa ab bd 40 a5 ec 3d
       -0.005865962 -0.027879937 -0.08382176 0.115549564
000100 c1 51 be 3b 6d 18 28 bd e4 8c 61 bd e2 25 3c bc
       0.0058080857 -0.04103892 -0.055066004 -0.011483641
000110 b2 80 ac 3d a3 eb ab bd 00 70 37 bc c3 ad 44 bc
       0.08422984 -0.083945535 -0.0111961365 -0.012004319
000120 db 18 b0 3d 5a 8d af bb 2e 5e cb 3d c9 2c 06 3e
       0.08598491 -0.0053574266 0.09930073 0.13103022
000130 b1 09 a2 3a 01 8c c2 bd 13 74 8c bd 9a 81 82 bc
       0.0012362507 -0.0949936 -0.06858077 -0.01593094
000140 dc 36 47 bd 70 74 9f 3d 8e 24 92 bc 51 06 89 bc
       -0.048636302 0.077858806 -0.017839696 -0.016726645
000150 e4 ce 98 3d 7d 29 d3 3d ba f9 70 bd b2 44 7f 3d
       0.07461336 0.10310648 -0.058831908 0.062321372
000160 98 26 23 bd ae 74 00 3e 94 b2 a8 3b 61 1b a2 bc
       -0.039831728 0.1254451 0.0051482413 -0.019788446
000170 1a fc f3 bd fd 76 61 3d e9 45 c8 3c bd a2 01 3b
       -0.11913319 0.055045117 0.024447398 0.0019780837
000180 f9 d7 ce 3b 0a 91 91 3d 1d 4c 23 bd 76 82 e9 3d
       0.006312367 0.07107742 -0.03986751 0.114018366
000190 8b 4b 5e 3d 15 b8 5a 3d d7 a2 c1 3d fd fc 18 3a
       0.054271262 0.05339821 0.09454887 0.0005836038
0001a0 07 ce 0c bd 70 d6 96 3d 5c e3 47 bb b3 38 c3 3c
       -0.03437617 0.073651195 -0.0030500507 0.023830747
0001b0 2a c4 b6 3d 7c f3 a1 3d 28 4d eb 3d e4 46 6a 3d
       0.08924134 0.07907769 0.11489326 0.057196513
0001c0 50 35 ee 3d f4 0f b5 3d 62 a8 c1 3d f6 b6 b4 bc
       0.11631262 0.088409334 0.094559446 -0.022059899
0001d0 68 77 af bd c9 48 ae 3a 7e 22 a6 3d 32 9f 8c bd
       -0.08567697 0.0013296838 0.081120476 -0.068663016
0001e0 be 31 7f bd 11 a9 a9 3d e9 cb 30 bd d5 fb 5b bd
       -0.062303297 0.082842 -0.043163214 -0.053706963
0001f0 22 f0 1c 3d 8d 0a 32 bd 39 89 6e bd fe 53 ce bd
       0.038314946 -0.043467093 -0.058236334 -0.10074614
000200 9f 3b 89 3c 2c 34 7d bc 03 da 28 bd 79 34 78 bc
       0.016752062 -0.015454333 -0.041223537 -0.015149229
000210 eb ba 6c bd 15 10 19 bd fc 3e d0 3d 4c 75 92 bc
       -0.057795446 -0.037368853 0.10168263 -0.017878197
000220 29 5c ee bc fc e2 e0 bc be 2e 82 bd 09 ab 12 bd
       -0.02909668 -0.027451985 -0.063565716 -0.035807643
000230 91 b7 ad bd a4 58 d5 3d f9 40 62 bd 0d 0d 79 3d
       -0.08482278 0.104172975 -0.055237744 0.06080346
000240 7c a8 ac 3d 7e ab 8d 3d ec 95 4c 3d e8 2d 80 3d
       0.08430573 0.06917475 0.049947664 0.06258756
000250 49 f9 93 bd 74 ea b7 bd 3b 9d d0 bd ce d3 32 3d
       -0.07225282 -0.08980265 -0.10186239 0.043659024
000260 01 77 c2 3c eb f2 15 3c 06 70 af bd 0d 07 da bc
       0.023738386 0.009152154 -0.08566289 -0.02661469
000270 ea 5f b8 bc 00 d9 e1 3d 6b 16 5d 3d 68 78 47 bc
       -0.022506673 0.110277176 0.053976458 -0.012174703
000280 6b b3 41 be 8f 29 e9 bd a9 32 e8 3b 3a 3d 4f 3d
       -0.18916099 -0.1138488 0.0070861173 0.0505955
000290 3b c2 a5 bc 98 8c 3f 3d 41 48 35 3c 49 9c 8d bd
       -0.020234218 0.04676494 0.01106459 -0.06914575
0002a0 d3 ba 46 3d 4a 12 c0 3d 48 fb 8e 3d a9 1b c8 bd
       0.048518013 0.09378488 0.06981522 -0.09770901
0002b0 76 e0 6a bd d6 5f ae 3d 35 f7 c7 bb 3e fa aa 3d
       -0.05734297 0.08514373 -0.0061024674 0.08348511
0002c0 91 a8 3c 3d 64 c1 ff 3c a0 3d d2 bd cf b9 d0 3d
       0.046059195 0.031220146 -0.1026566 0.1019169
0002d0 cb 6a 65 bd 98 ee eb bd ac 9a b0 bd 96 35 0e 3d
       -0.05601005 -0.115201175 -0.08623251 0.034719072
0002e0 69 b2 d9 3d 01 4b ca 3d 26 08 a1 bc 7c 99 20 3b
       0.10629732 0.09877587 -0.019657206 0.0024505546
0002f0 88 08 9b bc 77 24 13 bd f5 16 52 bd da 8a d3 3d
       -0.018924966 -0.035923447 -0.051291425 0.10329218
000300 1e 47 c1 bd 4c 2b 34 bd 3f 12 21 bc dd d4 e8 bc
       -0.09437393 -0.043986604 -0.00983101 -0.028421814
000310 1e 24 cf bb 04 7a 21 bd 2a 01 11 3c b9 43 dc bd
       -0.006321444 -0.039423004 0.008850375 -0.107551046
000320 ac 63 4b bb 84 13 f5 3c 27 50 b3 3d 6f 8d d0 3b
       -0.003103475 0.029916532 0.08755522 0.0063645164
000330 a8 1a 32 3b 7d fe 4a bd 6b b7 02 be 30 da 91 bd
       0.0027176533 -0.049559105 -0.12765281 -0.07121694
000340 d3 79 e2 3a 7c a0 c1 3c 00 bd be bd b3 bf d1 bb
       0.0017278738 0.023636095 -0.09313393 -0.006401026
000350 b4 5c 16 bc bc 4e 25 3d 12 a5 7b 3d 03 e4 4c 3c
       -0.009177376 0.04035829 0.06143672 0.012505534
000360 88 7a 99 bc 7b 8e 68 3d d2 81 38 3d 14 63 c1 bd
       -0.018735185 0.056776505 0.04504568 -0.09442726
000370 b2 90 9a 3d eb 14 ba bc 7c 9e bd 3d 48 19 3d 3d
       0.0754713 -0.022715053 0.09258744 0.04616669
000380 ff 9b ec bd 41 28 a0 3d e1 3f 12 be 37 63 a2 3d
       -0.115531914 0.07820178 -0.1428218 0.0792908
000390 4c f8 a0 bd 87 1a 0b bd 50 9b da 3c 80 17 84 3d
       -0.07859859 -0.033960845 0.026685387 0.06449795
0003a0 97 ca 87 3a 41 f2 d8 bc c8 af c4 bd 70 eb 1e 3e
       0.0010360059 -0.026482703 -0.0960384 0.155195
0003b0 90 a6 f0 3d 87 2d 99 bd 80 9d 4a bb 54 c2 f8 bd
       0.11750519 -0.07479387 -0.0030916631 -0.1214644
0003c0 69 9b 19 3d 70 96 d5 bd 59 d0 f3 bd ca 8d 9b bd
       0.037501726 -0.10429084 -0.119049735 -0.075954035
0003d0 77 b5 23 3d 44 dc cd bd 5e 40 75 3d fa 43 ed bd
       0.03996798 -0.10051778 0.05987584 -0.11585231
0003e0 02 76 7d bc 9e 50 27 bc 2a c2 d5 bd 2e 85 1f 3c
       -0.01547003 -0.010212092 -0.104374245 0.009736342
0003f0 00 a6 ee 3d ca 27 dd bd 73 8c a1 bd 27 af 2a bd
       0.11652756 -0.10798605 -0.07888117 -0.041670945

convs.1.bias f4 [256]
000000 b0 f3 aa bb 4d ac aa 3b 9e d2 31 bc e5 c7 ad 3a
       -0.005217038 0.005208528 -0.010853438 0.0013258426
000010 6b 4d 27 bb d7 6c a4 ba ce 8a 5a bb d3 b5 be 3c
       -0.0025528322 -0.0012544644 -0.0033346894 0.02328006
000020 b3 3c 6a 3c 9e e5 8b 3b 6a ee 2d 3a 0e dd a2 3b
       0.014296698 0.004269316 0.0006634953 0.0049701994
000030 3d 0f be 3b 81 b0 cb 3b a5 08 44 3b f9 b5 59 bb
       0.0058001564 0.0062161093 0.002991238 -0.0033220036
000040 56 af a0 3b 69 1a de bb e4 de 0c bb 60 00 a1 3b
       0.004903714 -0.0067780507 -0.0021495158 0.004913375
000050 df ad 49 3c 22 ab cc 3b 4e 15 38 bb cd db 93 3b
       0.0123095205 0.0062459866 -0.002808887 0.0045122863
000060 a8 58 06 bc 20 10 9d 3c bc 3d 40 3c 80 f4 ef 3b
       -0.008199848 0.019172728 0.011733469 0.007322848
000070 a7 00 89 3b cd d5 85 3b 18 42 6d 3c 12 75 7c b9
       0.004180986 0.004084325 0.01448109 -0.00024076205
000080 9d 51 bf bb 59 59 ec bb 85 6b 1f bc 1c 6d 88 bb
       -0.0058385865 -0.0072127995 -0.0097302245 -0.0041633975
000090 2b ad 7e 3c 42 ab 6f 3c 86 81 51 ba e8 c5 63 3b
       0.015544216 0.014628233 -0.0007992018 0.0034755412
0000a0 95 0c 80 bb 9d 13 f1 3b 24 19 9c 3b 59 4d 4f 3a
       -0.00390775 0.0073570744 0.004763739 0.0007907949
0000b0 44 9b f3 3b a1 56 5a 3c 49 6b ce bb f1 a0 e8 3b
       0.0074342806 0.013326318 -0.0062994105 0.007099264
0000c0 e7 8d 48 bb ce 2a e1 3b 21 8f 80 3c 8b 2d c7 3b
       -0.0030602159 0.006871558 0.01569325 0.006078427
0000d0 e7 4d 52 bb 0b 3e d6 3b 72 c6 16 bc 9f 9d ae 3b
       -0.003208989 0.006538158 -0.0092025865 0.0053288485
0000e0 5b c8 af 3c 14 07 a3 bb 11 e8 23 bc 60 44 ea 3b
       0.021457842 -0.004975209 -0.010004059 0.007149264
0000f0 4e b6 41 3b e2 85 68 bb 6a 2b a6 3b 93 d2 50 bb
       0.0029558125 -0.003548019 0.0050710933 -0.0031863793
000100 a3 ac b7 bb f1 d4 8b bb 1d ea 16 3b a9 30 1f 3c
       -0.0056052967 -0.004267328 0.0023027726 0.009716191
000110 2e cc 27 bc 88 2e b8 3b 70 3c 61 39 9a c2 9e bb
       -0.010241551 0.0056207813 0.00021480187 -0.0048449757
000120 4d 7b ad 3b 81 67 a7 3c ab 86 1b 3c c3 33 e1 3b
       0.0052942396 0.020435097 0.009492557 0.0068726256
000130 67 a5 fb ba 1d 0b 3d 3c 68 9d 00 bc c0 dc 13 bc
       -0.0019199074 0.011538294 -0.007850029 -0.009024799
000140 d2 f8 03 bc 80 96 11 3c f6 48 4a 3c f0 5d bf 3a
       -0.008054929 0.00888598 0.012346497 0.0014600139
000150 ee ff c7 bb 79 17 83 3c f6 74 0e 3c f6 ea a1 bb
       -0.0061035072 0.016002404 0.008694878 -0.0049413396
000160 43 c1 a9 bb 97 15 78 bb 3f f2 4d 3c 46 7a 12 3c
       -0.0051805093 -0.0037854665 0.012569963 0.008940285
000170 72 40 c5 3b fb ee 9c 3b 27 62 e4 bb 5d c5 9c 3b
       0.0060196454 0.004789231 -0.0069697085 0.0047842697
000180 31 69 35 bb ba 8c 1d 3c f3 a1 09 3c 2a 38 24 3d
       -0.0027681107 0.009616071 0.008400428 0.040092625
000190 6b 16 9e 3b 40 60 c0 bb 21 36 64 b9 c6 70 ee 3b
       0.00482445 -0.005870849 -0.00021763939 0.0072766272
0001a0 84 be 71 ba bf 65 19 3c ee 0e a4 3b ef c2 9d 3c
       -0.00092218095 0.009362637 0.0050066626 0.01925799
0001b0 b0 1e e8 3c 36 95 c7 3c 7b 7e a0 3b 4a ac be 3b
       0.028334945 0.024363142 0.00489789 0.0058188783
0001c0 df f8 d9 3b 5c ad 02 ba b6 3a 45 3c b7 ab 0d bc
       0.006651982 -0.0004984939 0.012037924 -0.008646897
0001d0 6a 12 cb 3c ef 30 e0 3b 53 82 a3 bb e6 66 ba bb
       0.024789054 0.006841771 -0.004989901 -0.005688536
0001e0 fb 7c 70 bb b4 18 28 3c 27 8c 61 bb 71 ca 13 3a
       -0.0036695588 0.010259796 -0.0034415813 0.0005637771
0001f0 25 8c 15 3c a4 bb 35 3b bb 56 25 3c 06 23 2f bc
       0.009127651 0.002773025 0.010091479 -0.010689503
000200 3f d2 18 3b 00 99 70 bb 9f a3 ea 3b de 3f d2 bb
       0.0023318676 -0.003671229 0.0071606184 -0.006416305
000210 ab be b3 bb 8f 79 84 bb 0b 1b 01 bb 70 fe b7 3b
       -0.005485376 -0.004042811 -0.0019699957 0.005615048
000220 b9 2e ba bb ee c4 1b bb af 4f ac bb 5d 1c 4d 3c
       -0.0056818393 -0.0023768502 -0.0052585225 0.012518969
000230 dc 6f b7 bb ac 3a 8a bb 29 0d f8 ba 30 e8 fc 3b
       -0.0055980515 -0.00421842 -0.001892482 0.0077181086
000240 8b 79 90 3b dd 9f 3d 3b 38 74 07 3c eb 5b fd ba
       0.0044090203 0.0028934397 0.008267455 -0.0019329762
000250 f9 e2 25 3c 8e d6 d3 bb 7a 4d df 3b 33 38 95 3b
       0.010124915 -0.006464786 0.006814656 0.0045538186
000260 4c 3f ea 3b 19 58 ad 3b ef 66 14 3c 8c c7 61 3b
       0.007148659 0.005290043 0.009057744 0.0034451215
000270 cf 46 34 3c 2a af 0a bc 60 fe 13 bc d5 0d 09 3c
       0.01100321 -0.008464614 -0.009032816 0.008365114
000280 27 d7 81 3c 94 14 81 bb 84 ee 87 3a 99 7e 79 3b
       0.015849663 -0.0039392207 0.0010370766 0.0038069843
000290 d7 13 e7 3b fe e0 e7 3c 6f e6 6a 3b 2e ec 7f 3c
       0.0070519256 0.028305527 0.0035842916 0.0156202745
0002a0 3d 8d d2 bb 59 85 fd 3b 1c 47 9b 3b f4 68 02 3c
       -0.0064255283 0.0077368435 0.0047387015 0.007959593
0002b0 af 98 9f bb 57 64 50 3b 3f fa 3b ba 13 5b cb 3b
       -0.004870496 0.0031798088 -0.00071707735 0.0062059253
0002c0 25 16 eb 3b 13 0e 0b 3c aa 5b 0e bc 25 84 06 3d
       0.0071742707 0.008487242 -0.008688847 0.032840867
0002d0 8d 19 4a 3b fb 93 17 bc fc 6b 89 3b 75 2b ea b9
       0.0030837983 -0.00925159 0.004193781 -0.00044664336
0002e0 c3 6f f2 3b f2 fc 4b 3b e6 71 f6 b9 9a 9a 37 3c
       0.007398577 0.003112611 -0.00047005637 0.0112062935
0002f0 4d a6 fe 3b e2 8f bb bb 47 2b 9f 3c bc 3b 02 3a
       0.0077712894 -0.0057239393 0.019429816 0.00049680076
000300 2d 3e 92 3c 2a 85 0d 3c c6 85 0a 3b 70 53 54 3c
       0.017851913 0.008637706 0.0021136864 0.012959346
000310 b8 9c e2 3b 1d a5 21 3c f0 25 35 3c 8e 9b 42 bc
       0.006915655 0.009866026 0.011056408 -0.011877907
000320 a5 51 1a 3c b9 69 bd 3b ae 7f 9a 3b 97 bf 0a bc
       0.00941888 0.0057804254 0.0047149276 -0.00846853
000330 82 94 0a 3c f4 28 1d 3b 53 27 89 3a 8c 34 8d 3b
       0.008458259 0.0023980709 0.001046399 0.0043092426
000340 00 97 c5 bb 4b 4f 33 3c 3b d0 97 bb d7 f7 02 bc
       -0.0060299635 0.010944198 -0.0046329773 -0.00799366
000350 dd 52 00 3c 1b 9d 52 3c d1 90 46 bb 75 a1 c9 3a
       0.007832256 0.01285484 -0.003029872 0.0015383201
000360 1b 32 4b 3a 30 11 7f 3b 47 a6 6b 3c 69 28 8a bb
       0.0007751302 0.0038920157 0.014382905 -0.004216243
000370 04 15 2b 3c b8 35 e3 bb 55 3a b7 3b bc fa 3e bb
       0.010442022 -0.006933894 0.0055916705 -0.0029141149
000380 86 a9 0f 3b 3b fe 76 3c e6 b5 0f bc 0b 1c eb 3b
       0.0021921112 0.015075262 -0.008771395 0.007174974
000390 3e 99 80 3c d0 ab 73 bb 8c 4a 80 3c e5 12 6f bb
       0.015698072 -0.0037181266 0.015660547 -0.0036479768
0003a0 55 37 d9 bb 06 69 26 3c a2 31 90 3c fb e9 1a 3c
       -0.0066289105 0.0101568755 0.017601792 0.009455199
0003b0 c4 c7 98 3a f1 92 e7 3b 00 d7 78 3c cf 55 2a 3c
       0.0011656214 0.0070670773 0.015187979 0.010396435
0003c0 d0 66 93 3a 87 b1 77 3c c8 86 e6 3b a4 d6 0e 3c
       0.001124585 0.015118009 0.00703511 0.0087181665
0003d0 6d 84 05 3c b9 45 92 bb 10 92 b4 3c 3d e7 e4 bb
       0.008149249 -0.004463878 0.022042304 -0.0069855736
0003e0 4f f3 d0 3c 0b 91 12 bc 05 f4 83 bb aa 60 b8 bb
       0.025506644 -0.008945714 -0.004026892 -0.0056267576
0003f0 6c 46 8c 3b c7 5a e0 3b 64 52 84 bb 05 f4 af 3c
       0.004280856 0.006846759 -0.004038142 0.021478662

convs.1.lin.weight f4 [256, 256]
000000 b9 31 87 bd b4 bc e2 bc ff f6 b7 bd 92 5c bf 3d
       -0.06601281 -0.027677871 -0.08982658 0.09343828
000010 04 61 ce bd c2 66 aa 3d fa f7 ad 3d d1 cb dd bd
       -0.10077098 0.08320381 0.084945634 -0.108298905
000020 78 53 57 bd 0d 3e 8e bd 6e d9 8c bd 79 94 11 3d
       -0.052569836 -0.06945429 -0.06877409 0.035541985
000030 c5 e8 fa bc 7f e4 b2 3d 2e 69 d9 bd 05 08 0c 3d
       -0.030628571 0.087349884 -0.106157646 0.034187336
000040 3e a7 1a 3d 1a 9d 82 bc 3e db 35 bd 5c d8 8a bd
       0.03775715 -0.015944052 -0.04439854 -0.067795485
000050 fa 6a 68 bd ca 58 85 bd 64 3d 84 bd 13 63 01 3d
       -0.056742646 -0.06511076 -0.06457022 0.031588625
000060 59 bf c6 3c 0d ed a4 bd 9d b5 17 bd ef f2 ac 3d
       0.024261164 -0.08053026 -0.037038434 0.084447734
000070 31 64 58 3c 83 35 88 bc 1a 75 04 3d 81 30 82 bc
       0.013207481 -0.016627079 0.03233824 -0.01589227
000080 44 97 c0 3d e7 02 8d 3d 62 57 c1 3c 96 b2 9e 3d
       0.09403852 0.06885319 0.023601238 0.07748906
000090 e5 69 3c 3c 07 6a 33 bd a5 82 93 3d 64 96 bb 3b
       0.011499857 -0.043802287 0.07202653 0.005724715
0000a0 d4 ed cd bd 0a 70 8a bd 5e ee 8e 3d fd 03 9e 3d
       -0.10055128 -0.06759651 0.06979059 0.077156045
0000b0 35 85 b4 3b 41 79 ba 3d 55 99 87 3d aa 37 39 3d
       0.0055090436 0.091051586 0.06621043 0.0452191
0000c0 e6 6e be 3d c6 30 a8 3d d3 35 52 bd 74 86 ec 3c
       0.09298496 0.08212428 -0.051320862 0.028872706
0000d0 35 22 37 3d 04 4b 87 3c 57 0b 0d bd c3 ac 92 bc
       0.044710357 0.016515262 -0.034434643 -0.017904645
0000e0 59 e0 85 3d 64 70 2b 3d 21 00 83 bc 8f 07 32 3c
       0.065369315 0.04185523 -0.015991272 0.01086606
0000f0 4f 10 bd 3d dd fd d2 bd 7d 44 85 3d bd 39 78 3d
       0.09231626 -0.10302327 0.06507204 0.06060194
000100 60 2d af 3d b2 b4 99 bc 17 3f 9b 3d a3 e0 3b bd
       0.085535765 -0.01876292 0.07580393 -0.045868527
000110 7c 37 f8 bc 59 4e 68 3d b4 50 41 bd 0c 63 ad bb
       -0.030299895 0.056715343 -0.047196105 -0.0052913483
000120 e4 62 8c 3d b7 5d 82 bd 9f 67 34 3c 07 c0 74 3d
       0.068547994 -0.06365531 0.011011033 0.059753444
000130 09 c5 86 bd e9 75 02 bd 28 83 93 bd d0 12 f6 3c
       -0.0658055 -0.03185073 -0.072027504 0.030038267
000140 5b 79 9f bd 50 78 7c 3c cb 09 ba bd 24 a3 0c bd
       -0.077868186 0.015409544 -0.09083899 -0.03433527
000150 c8 0e 6e 3d 0d 2b 5c bd cc ba 09 3d 5e 4e 8a 3d
       0.058119565 -0.053751994 0.03362541 0.067532286
000160 81 c8 46 bd 2b 45 fd 3c d7 45 35 bd c9 d0 fb 3c
       -0.04853106 0.03091677 -0.044256058 0.030739205
000170 e1 10 8b bb 52 5e b9 3b 10 73 9f 3d 18 39 a0 3d
       -0.0042439555 0.005656996 0.07785618 0.0782339
000180 e9 ef 12 bc f6 c8 b7 bc 3e 58 7e bb fe 3a 41 bd
       -0.008968332 -0.022434693 -0.003880992 -0.0471754
000190 4f 80 5a bd a6 3c 9f 3c aa de ca bd fb 08 98 bd
       -0.05334502 0.0194381 -0.09905751 -0.07423588
0001a0 06 a6 99 3d 00 c1 58 bd 41 1c b5 bd b1 80 59 bc
       0.075023696 -0.052918434 -0.0884328 -0.013275311
0001b0 f5 09 94 3c bf a1 55 3d 54 64 85 bd 22 f4 b9 3d
       0.018071154 0.052156206 -0.06513277 0.09079768
0001c0 48 94 65 bd a5 a1 68 bd 0e ae 0f bd 6a 04 67 3d
       -0.056049615 -0.05679478 -0.0350781 0.056400694
0001d0 7c 04 3f 3b 4b e5 07 3d 88 56 97 3d 11 03 c2 3c
       0.002914696 0.033177655 0.073895514 0.023683103
0001e0 17 0a ab 3d 2a ff 8a 3d 88 a1 3d bb 2c c3 1b 3c
       0.08351534 0.0678695 -0.0028935391 0.009506982
0001f0 ef 64 b4 3d 80 ad c5 3d 75 14 b4 bd e5 09 bf bd
       0.08808314 0.09652233 -0.08792964 -0.09328059
000200 3b 44 a9 3d 6f c7 90 bc 2f ae a9 3d af db ae 3d
       0.08264967 -0.017673222 0.08285176 0.08537995
000210 0a f7 e2 3c 66 c8 6f bd 48 55 8b 3d 65 d5 87 3c
       0.027705688 -0.058540724 0.068033755 0.016581247
000220 da 7d d5 3d c6 2d 2d bc 40 d2 19 bd 7e 15 42 3d
       0.10424395 -0.010569995 -0.037554026 0.047383778
000230 60 9d 4c 3c ab e7 59 3d db 5b bb bd 5c 93 d7 3d
       0.012488693 0.05319945 -0.091483794 0.105261534
000240 66 42 b7 bd c1 30 5e bd 32 87 f9 3b 41 d9 45 bb
       -0.08948211 -0.054245714 0.0076149935 -0.0030189308
000250 ad 9e 80 bd 76 67 f1 bc 25 9a f0 3c cd d1 9b 3d
       -0.06280265 -0.02946828 0.029370377 0.07608376
000260 be 5c 04 3d 50 29 90 bd ef 5a 56 3d 55 2b 91 3d
       0.03231501 -0.0703913 0.052332815 0.07088343
000270 c7 6b d8 3d ee 9e b9 bb 13 51 a3 bd d9 6c 98 3d
       0.10567432 -0.005664698 -0.07974448 0.07442636
000280 db cb 97 bc f2 ce 92 3d 8c d9 6f 3b 50 c6 c5 bc
       -0.018529823 0.07168378 0.0036598174 -0.024142414
000290 51 d7 da 3d 2b 8f 57 bb db 2d 7a 3d 75 e8 1e 3d
       0.106855996 -0.0032891731 0.061078887 0.038795907
0002a0 d2 a8 52 3c 76 26 31 bd 4f 03 6c 3b 11 db 5f bb
       0.012857633 -0.04324957 0.0036012714 -0.0034157673
0002b0 39 8a 06 bd f4 9e 95 ba b9 b5 9e bd 8d 9e bd bd
       -0.032846663 -0.001141517 -0.077495046 -0.09258757
0002c0 2a b0 a9 bd 90 9f e3 bd 89 70 d8 bd ee 19 14 bd
       -0.08285554 -0.111144185 -0.105683394 -0.03615754
0002d0 fc b8 84 bd 57 49 98 bc ae 2c 4b bd 59 4e d9 bc
       -0.064805955 -0.018589659 -0.049603157 -0.026526617
0002e0 32 4c 38 bc a4 8c 90 3d 9d ca ab bc 7d 6e 11 bc
       -0.011248635 0.07058075 -0.020970637 -0.00887644
0002f0 e8 ea 97 bd 65 65 39 bc f5 b9 1c 3d 01 0b 7b 3d
       -0.07417852 -0.011315678 0.03826328 0.06128979
000300 ff be 27 3d 8a 58 2f bd 62 c3 c2 bc 47 d2 be bd
       0.040953632 -0.042809047 -0.023774806 -0.09317451
000310 b1 6b dd bc 21 02 af 3b a4 e0 00 3d d1 af bb 3d
       -0.02702889 0.00534083 0.031464234 0.09164394
000320 26 ec c0 bd 45 1b 90 bd 88 36 a6 bd 80 2a 59 bd
       -0.09420042 -0.07036451 -0.0811587 -0.053019047
000330 fa 75 07 3a 32 df ce bd a9 75 72 bc b0 55 d4 bd
       0.0005167421 -0.10101165 -0.01479856 -0.10367906
000340 63 60 6b 3d 5c a4 99 bd 8e a4 00 3d ac cd 74 3d
       0.05746497 -0.07502052 0.03140693 0.059766456
000350 69 a3 1c bd 48 3f cc 3b 84 a5 75 bd 70 eb b6 bd
       -0.038241778 0.0062331297 -0.0599723 -0.08931625
000360 e7 a4 bc bd d7 4a 27 3c 8b ae 2a bd 04 96 da 3b
       -0.0921114 0.010210714 -0.041670363 0.0066707153
000370 d3 85 d9 bd 2a d6 ef 3c db f7 91 bd 85 35 2f bd
       -0.10621228 0.029276926 -0.07127353 -0.04277565
000380 64 50 b3 3d 06 0b b2 3d d7 f7 cb bd 02 1f 89 3d
       0.08755568 0.08693509 -0.09959381 0.066953674
000390 ed 8e af 3d c2 35 17 3d 52 f0 0a bd a9 55 59 3d
       0.08572183 0.0369165 -0.033920594 0.053060208
0003a0 a7 4c de 3c 47 c4 17 bb a7 3b d9 bd c2 c0 99 3d
       0.02713616 -0.0023157762 -0.10607081 0.07507469
0003b0 a1 15 98 bd eb 2e bb bd d3 07 68 3d 50 f1 59 3c
       -0.074260004 -0.09139808 0.056648087 0.013302162
0003c0 46 37 df bd 9d 0e 1d 3c f2 4e 66 3d 5c fa 1a 3d
       -0.108992144 0.009586004 0.056227632 0.037836418
0003d0 76 70 c8 bd 3e 8d 30 3d 89 6d 9d bd 5a e1 30 3d
       -0.09787075 0.04310345 -0.07686908 0.043183662
0003e0 2a 64 33 bd 71 c1 1f 3c 0e 18 94 bb 9b ce 0c bb
       -0.043796696 0.00975071 -0.004519469 -0.002148545
0003f0 c2 64 6f bb 8d 9b a6 bd a9 9b b3 3d b1 da 07 bd
       -0.0036528562 -0.08135138 0.08769924 -0.033167545

convs.2.bias f4 [2]
000000 ee d8 99 bc d4 d8 99 3c
       -0.018780198 0.01878015

convs.2.lin.weight f4 [2, 256]
000000 ab 32 da 3d 23 4c db 3d 9b ee f2 3d 33 cf e4 3c
       0.106541954 0.10707881 0.11861917 0.027930832
000010 d4 7b 3f 3d 70 86 94 3d 01 0a 98 bc 77 80 1a be
       0.04674895 0.072522044 -0.018559458 -0.15088068
000020 65 98 f0 bd 2f 5b ec bd 88 51 93 3d d4 09 79 bd
       -0.11747817 -0.115408294 0.07193285 -0.06080039
000030 66 4e b1 bd 63 38 0f bd 4d 17 f8 bd a4 b6 a0 3d
       -0.086575314 -0.034965884 -0.12113819 0.07847336
000040 dc ec c8 3d ad d2 1c 3e 16 45 8c 3d 91 d8 fd bd
       0.09810802 0.15314741 0.068491146 -0.123948224
000050 f5 04 cc 3d 13 12 2c bd af e0 0b 3e 7e 89 c3 3d
       0.09961883 -0.042009424 0.13659929 0.09547709
000060 7f 48 b1 3d bc 39 39 bd 10 fe 0a be 70 46 b8 3d
       0.08656406 -0.045221075 -0.1357348 0.0899781
000070 91 eb 90 3d a6 73 3a 3d b5 e5 8c bd a2 ef 16 3e
       0.07076181 0.045520447 -0.06879751 0.1473985
000080 c9 05 55 bb 43 7a b2 3d d0 01 02 3e fc 79 96 3a
       -0.003250467 0.08714726 0.12696004 0.0011480446
000090 60 1f e2 bd 57 ae 17 3e 5e 18 05 be 81 13 08 3e
       -0.110411406 0.14812599 -0.12997577 0.1328869
0000a0 09 2e 11 3e e0 0d e1 bd 2e a5 ca 3d 1c 55 80 bd
       0.14177717 -0.109889746 0.09894787 -0.06266233
0000b0 69 ef 47 bd 69 ef 24 bd bc 21 b1 3d 9e 56 e5 bd
       -0.048812304 -0.04026738 0.086490124 -0.111981615
0000c0 75 c8 09 bc c3 8e 28 3d 9b 2e 94 bd 55 46 9d bd
       -0.008409609 0.041151773 -0.07235452 -0.076794304
0000d0 47 fd c6 bd 83 62 e0 bd aa b4 dc 3d 39 34 a8 bd
       -0.097162776 -0.109562896 0.107766464 -0.08213086
0000e0 17 83 76 3d f5 76 fd 3d 36 9f 0c 3e 7e 10 bf bd
       0.06018361 0.12376205 0.13732609 -0.093293175
0000f0 89 aa 06 bd aa cd 7a bd 79 80 9a bd 3c 81 c0 bd
       -0.03287748 -0.061231293 -0.075440355 -0.093996495
000100 be 37 40 3d bd 88 f5 3d ef 7a cc bd 07 8c a2 bd
       0.04692816 0.119889714 -0.09984385 -0.07936864
000110 2d 82 02 3e 99 a7 fd bc c8 1a 95 3d e3 51 01 3e
       0.1274497 -0.030963706 0.07280499 0.12628894
000120 b2 9f d6 3d a0 63 06 be 78 63 90 bd 16 5d 8b bd
       0.10479678 -0.13123941 -0.07050222 -0.06804864
000130 50 58 0d 3e 43 58 fe 3c 96 b8 df 3d b9 a6 e0 3d
       0.1380322 0.031047946 0.10923879 0.109693
000140 f6 bb 03 3e c7 bf 16 be 9b 4c ff bb 4c 69 80 3d
       0.1286467 -0.14721595 -0.0077911145 0.06270084
000150 6b 01 17 3d 4c 06 4c 3c 86 0c 71 bd a2 86 88 3d
       0.036866587 0.012452673 -0.058849834 0.06666304
000160 15 65 24 3d 36 6c 00 3e 35 6c 08 bd e9 19 de bd
       0.04013546 0.12541279 -0.03330632 -0.10844786
000170 ea a4 01 be 9e f2 db bd ce a6 5a 3d c1 64 f6 bc
       -0.12660566 -0.10739635 0.053381734 -0.03007734
000180 09 35 f4 3d 1c b7 db bd b0 29 72 3d dd a5 14 be
       0.11924178 -0.10728285 0.059121788 -0.14516397
000190 c0 10 fe bd d8 38 02 3c ce 12 06 be 61 d2 fb bd
       -0.124055386 0.007948123 -0.13093111 -0.12295986
0001a0 03 70 05 3d f7 70 22 3d 1b 62 11 3d 2f 61 8a 3b
       0.032577526 0.039658513 0.03549395 0.004223011
0001b0 8b 30 14 3d dd 62 f0 bd d3 f2 a3 3d 16 c0 c2 bd
       0.036179107 -0.11737607 0.080052994 -0.09509294
0001c0 e4 5c 16 3d 61 6e aa 3d c9 72 b2 bd d8 7b 09 3e
       0.03670968 0.08321834 -0.087133 0.13426149
0001d0 8b f4 9c 3c 6a 76 ad bc 4c c5 70 3d 07 2e a4 3d
       0.019159576 -0.021174628 0.058781907 0.080165915
0001e0 44 d3 a6 3c 96 a9 1d be a0 17 0b bb 67 39 ff bd
       0.020364411 -0.15396723 -0.0021223798 -0.124621205
0001f0 50 af bc 3d d1 41 f5 3d 74 12 06 3e 53 8d 64 3d
       0.09213126 0.11975444 0.13092977 0.05579884
000200 76 c1 bd bd 9c fa 87 bb 04 2b 8c bd 29 26 91 bd
       -0.09265415 -0.004149748 -0.06844142 -0.070873566
000210 22 da 9a 3d 93 19 e9 3d 6f 40 c1 bd 84 82 4a 3c
       0.07561137 0.11381831 -0.09436118 0.012360219
000220 c2 7d de 3d ec ef 9a bd c5 a6 99 3d d4 53 cd bd
       0.1086383 -0.07565293 0.07502512 -0.100257546
000230 bc 11 02 3e b7 f1 f0 bc 1d 05 45 bc c7 2b 07 be
       0.12702078 -0.029412134 -0.012025145 -0.13200293
000240 d9 ea 11 be 9c 77 08 be e7 71 4a bd 49 91 b9 3c
       -0.14249744 -0.13326877 -0.049425032 0.022652285
000250 e2 1b 1c be 07 da 01 3e 0a 08 95 bc 85 96 e1 bc
       -0.15245011 0.12680827 -0.01819231 -0.027537594
000260 b3 d7 da 3d 6a 6a 65 bd 03 e3 09 be 18 80 2c bc
       0.106856726 -0.056009687 -0.13465504 -0.010528587
000270 d2 b6 cd bd 40 af 8d 3b dc ce d1 3d a9 0b 95 bd
       -0.10044636 0.00432387 0.102445334 -0.072776146
000280 8a 68 db 3d 98 f1 a6 3d 18 f1 35 bd 95 b6 15 bd
       0.107132986 0.08151549 -0.044419378 -0.036551077
000290 40 20 82 bd 02 79 25 3c 08 e0 e7 3d 3e 7a 1b bb
       -0.063538074 0.010099651 0.113220274 -0.0023723985
0002a0 53 53 d0 3d e7 19 f1 bd a2 bc 02 bd 0d 84 93 bc
       0.10172143 -0.117725186 -0.031918176 -0.018007303
0002b0 f6 86 a1 3d e8 79 d5 bd 7f 30 eb bd 5a b2 5d bd
       0.0788707 -0.104236424 -0.11483859 -0.054125167
0002c0 d6 39 97 3d c1 69 ad bd 66 a8 2f 3d c2 6e 93 bc
       0.07384078 -0.084674366 0.042885207 -0.01799715
0002d0 56 ca 0c 3d 15 b3 e7 3d c8 c3 06 bc 3a 8e 4f bc
       0.03437265 0.11313454 -0.008225389 -0.012668187
0002e0 49 99 2d 3d 46 97 05 bd 9a d4 01 3e 7b 7b 93 3d
       0.042382512 -0.03261497 0.12678757 0.072012864
0002f0 3a dc 04 be 03 e1 2e bb 3b ca 88 bd 27 44 9a bd
       -0.12974635 -0.002668441 -0.066791974 -0.0753253
000300 8f 4b 8f bd 26 3b 81 3d 34 09 68 bc b4 df ab bc
       -0.069968335 0.0631011 -0.01416235 -0.020980693
000310 75 38 26 be a7 33 46 bd a5 05 f5 3d 15 15 fd 3c
       -0.16232474 -0.048389103 0.11963967 0.030893842
000320 83 dc fd bd 08 cb e8 3d b3 99 44 bd 3b 1f 2f 3d
       -0.12395575 0.1136685 -0.04799814 0.042754393
000330 e3 df bf bd f1 6a 7d 3c 72 1e 9e 3d fe 29 e0 bd
       -0.09368875 0.015467391 0.07720651 -0.109455094
000340 5f a9 c3 3d 7d c4 df 3d eb 9d 0d 3c 80 e6 d8 3d
       0.09553789 0.10926149 0.008643608 0.105908394
000350 fb b8 c3 bc 82 45 88 bc 09 d5 9e bc 2e d5 de 3d
       -0.023891916 -0.016634706 -0.019388692 0.108805045
000360 e9 a0 5f 3d e9 1f 0d be 0c 38 45 3d 93 76 e3 3d
       0.054596815 -0.13781704 0.048149154 0.111066006
000370 88 7a 1d be 92 44 bc 3d a4 64 11 be 3e 2d 98 bd
       -0.15378773 0.09192766 -0.14198548 -0.07430504
000380 06 7f fb 3d af fb 4d bc 29 7a 8e 3d 90 6f ce bc
       0.12280087 -0.012572213 0.06956894 -0.025199682
000390 b3 3e c6 bd 8f 6a 10 3e f3 8f 58 38 6f 88 3b bc
       -0.09679928 0.14103149 5.1632476e-05 -0.0114461025
0003a0 ae 64 3b 3d 88 05 8f bd 2c aa 4f 3d 3d 8c f2 3d
       0.045750313 -0.06983477 0.050699398 0.118431546
0003b0 7e 78 a4 bd 72 71 88 bd 9a e6 17 be 20 ee 9a 3c
       -0.080307946 -0.06662263 -0.14834061 0.018912375
0003c0 0d 20 95 bd d0 c3 a0 bc 2d bc 1a be a3 59 fb bd
       -0.07281504 -0.01962462 -0.15110846 -0.12272956
0003d0 56 0a 1c bb 8f 8c b0 bb 24 f7 fd 3d 34 05 ab 3d
       -0.0023809872 -0.0053878496 0.12400654 0.08350602
0003e0 34 4c 05 be f1 ed d3 3d 2e dd 01 3e 39 73 dd 3d
       -0.1301735 0.10348118 0.1268203 0.108129926
0003f0 29 3b e9 bd a0 93 14 be 72 b6 f5 3d 81 4d 77 bd
       -0.11388237 -0.1450944 0.11997689 -0.060376648

lns.0.weight f4 [256]
000000 23 b6 80 3f ea f0 83 3f 47 37 7c 3f 30 5c 82 3f
       1.0055584 1.0307896 0.98521847 1.0184383
000010 53 f4 7e 3f 6c 84 80 3f db 2e 82 3f 8c ec 81 3f
       0.9959156 1.0040412 1.0170549 1.0150313
000020 8a 60 83 3f 29 85 7c 3f 21 57 80 3f 6d 88 80 3f
       1.0263836 0.98640686 1.002659 1.0041634
000030 f0 88 7e 3f aa ac 7c 3f 1c 1e 81 3f b9 fc 7a 3f
       0.994277 0.98700964 1.0087314 0.98041874
000040 08 f9 80 3f 0b 85 7e 3f c2 2a 80 3f b3 c4 7e 3f
       1.0075998 0.9942176 1.0013049 0.9951889
000050 58 8c 7f 3f b1 0a 82 3f e0 8f 7f 3f c8 5d 7d 3f
       0.9982352 1.0159513 0.9982891 0.98971224
000060 a9 86 7c 3f bb 4c 83 3f 7f e0 7d 3f cd 73 7f 3f
       0.98642975 1.0257791 0.9917068 0.9978607
000070 b9 fb 7d 3f 61 7b 83 3f ec 10 7a 3f c2 37 80 3f
       0.99212223 1.0272027 0.9768207 1.0017016
000080 51 de 7a 3f 30 c7 7c 3f 11 4e 80 3f 55 ac 80 3f
       0.9799548 0.98741436 1.0023824 1.0052592
000090 e0 43 7f 3f d2 6a 81 3f b2 94 83 3f 8a 99 80 3f
       0.99712944 1.0110724 1.0279753 1.0046856
0000a0 62 81 80 3f 56 7d 81 3f b4 62 7d 3f 0e 1a 7d 3f
       1.0039485 1.0116374 0.98978734 0.9886788
0000b0 93 d9 80 3f 82 68 82 3f 95 5b 80 3f cc fa 7a 3f
       1.0066398 1.0188143 1.0027949 0.98038936
0000c0 32 ef 7f 3f 00 e7 7e 3f 3d 03 81 3f 7f 8a 82 3f
       0.9997436 0.9957123 1.0079113 1.0198516
0000d0 ae 59 7f 3f b5 4a 81 3f 18 1b 7d 3f 41 ee 81 3f
       0.99746215 1.0100924 0.98869467 1.0150834
0000e0 1e 69 81 3f 05 7c 7c 3f c7 91 82 3f eb 42 7b 3f
       1.0110204 0.9862674 1.0200738 0.98148984
0000f0 b9 63 83 3f b5 9f 7d 3f cd 40 7f 3f d1 56 80 3f
       1.0264808 0.9907182 0.99708253 1.0026494
000100 92 25 80 3f 67 57 8b 3f 4e cb 81 3f 4c 8a 7f 3f
       1.0011466 1.0886048 1.0140169 0.998204
000110 78 c2 83 3f 3e 47 7f 3f 7d 13 83 3f 9a 22 82 3f
       1.0293722 0.9971808 1.0240322 1.016681
000120 c4 cc 7a 3f 1e d5 7d 3f 3c 0a 7c 3f 6f 78 82 3f
       0.979687 0.99153316 0.98453116 1.0193003
000130 c9 03 7e 3f cd 95 81 3f 8e 23 7f 3f 72 30 7f 3f
       0.99224526 1.012384 0.9966363 0.99683297
000140 c6 f5 7e 3f 65 4f 82 3f 69 9e 79 3f 15 4e 80 3f
       0.9959377 1.0180479 0.9750734 1.0023829
000150 fd 97 7b 3f ae f6 81 3f 13 34 7a 3f c0 02 81 3f
       0.9827879 1.0153406 0.9773571 1.0078964
000160 88 d9 7c 3f 7f f8 7c 3f eb 26 7e 3f a1 c4 82 3f
       0.98769426 0.98816675 0.99278134 1.0216256
000170 9b c5 7b 3f b4 8b 80 3f e0 f4 7e 3f c2 67 7e 3f
       0.98348397 1.0042634 0.995924 0.9937707
000180 31 b3 7d 3f c6 f1 7b 3f 58 d8 82 3f ee b3 7f 3f
       0.9910155 0.9841579 1.0222273 0.99883926
000190 dd 94 81 3f 14 f0 80 3f 0b 5b 83 3f be 7f 7a 3f
       1.0123554 1.0073266 1.0262159 0.9785117
0001a0 f8 04 80 3f 38 0a 83 3f 98 5f 7d 3f d7 f9 83 3f
       1.0001516 1.0237494 0.9897399 1.031062
0001b0 be 02 82 3f a2 db 7b 3f b0 57 7f 3f 37 f3 79 3f
       1.0157087 0.9838201 0.99743176 0.9763674
0001c0 ea 5b 7d 3f b2 d0 7e 3f b0 83 7b 3f cf cc 7e 3f
       0.98968375 0.99537194 0.98247814 0.99531263
0001d0 40 58 7c 3f 41 2d 81 3f 53 e9 7d 3f fd 6c 7e 3f
       0.9857216 1.0091935 0.9918415 0.9938505
0001e0 13 a8 7b 3f 7e 90 80 3f fd 70 7f 3f 38 a4 82 3f
       0.98303336 1.0044096 0.9978178 1.0206366
0001f0 5a 85 7e 3f f3 16 81 3f 77 07 80 3f 49 62 7e 3f
       0.9942223 1.0085129 1.0002278 0.9936872
000200 45 75 80 3f 82 f3 81 3f f2 69 81 3f 7b 7d 7d 3f
       1.0035788 1.0152438 1.0110457 0.99019593
000210 5a 78 7b 3f ba c9 83 3f 84 8f 7f 3f d6 97 7b 3f
       0.98230517 1.0295937 0.9982836 0.9827856
000220 47 62 7e 3f cf b8 7e 3f 5a fc 7d 3f 39 25 7b 3f
       0.9936871 0.99500746 0.9921318 0.9810367
000230 bf 87 7b 3f fe 42 82 3f 51 fa 7c 3f ae 14 80 3f
       0.9825401 1.0176694 0.9881945 1.0006311
000240 bd 1b 80 3f a9 80 7e 3f 8b 58 7d 3f 39 a8 7f 3f
       1.0008465 0.9941507 0.9896323 0.9986606
000250 8f d6 84 3f 17 8d 81 3f d0 f6 7b 3f c5 9e 80 3f
       1.0377978 1.0121182 0.9842348 1.0048453
000260 61 6f 7f 3f 1e ed 7e 3f c5 74 7b 3f 55 ca 7f 3f
       0.99779326 0.9958056 0.9822505 0.9991811
000270 69 a3 7c 3f fc 8d 82 3f 54 3a 7c 3f 55 d9 81 3f
       0.98686844 1.019958 0.985265 1.014445
000280 a7 32 7f 3f 2e 72 82 3f 50 ae 7d 3f 37 2a 82 3f
       0.99686664 1.0191095 0.99094105 1.0169133
000290 73 5c 83 3f fb 4a 85 3f cf fc 81 3f 5e 36 7e 3f
       1.0262588 1.0413507 1.0155276 0.9930171
0002a0 91 73 7e 3f 4e c4 7d 3f 4d 3a 81 3f 5d 87 7e 3f
       0.9939509 0.9912766 1.0095917 0.994253
0002b0 17 43 81 3f e3 6f 7b 3f 1a 58 81 3f a5 6a 81 3f
       1.0098599 0.982176 1.0105011 1.011067
0002c0 af 1e 7e 3f 99 d2 80 3f 3f 7f 7e 3f 69 bd 81 3f
       0.9926557 1.0064269 0.9941291 1.0135928
0002d0 33 5e 7e 3f 99 b3 7c 3f 42 95 7f 3f 23 1d 83 3f
       0.99362487 0.98711544 0.99837124 1.0243267
0002e0 3d 54 7a 3f 45 11 7a 3f ca c4 7a 3f f8 a9 81 3f
       0.9778479 0.976826 0.97956526 1.0129995
0002f0 1d 18 80 3f fe 8c 7d 3f b2 46 80 3f 92 e6 7f 3f
       1.0007359 0.9904326 1.0021574 0.999612
000300 75 18 80 3f b1 97 84 3f 87 0a 84 3f 3b 79 80 3f
       1.0007464 1.0358793 1.0315713 1.0036997
000310 fa f8 7f 3f cc c1 7e 3f 60 0a 7d 3f a6 36 80 3f
       0.99989283 0.9951446 0.98843956 1.0016677
000320 12 de 7a 3f c5 6b 7c 3f b8 54 80 3f b2 02 81 3f
       0.979951 0.98601943 1.0025854 1.0078948
000330 b4 6d 80 3f 71 eb 77 3f 54 a8 7b 3f f6 05 7e 3f
       1.0033479 0.9684363 0.98303723 0.99227846
000340 d4 4e 83 3f d7 6a 80 3f c6 47 80 3f c5 fe 80 3f
       1.0258431 1.0032605 1.0021904 1.007775
000350 3e 09 7a 3f a9 bd 80 3f 76 08 80 3f 7c 48 7c 3f
       0.9767035 1.005788 1.0002582 0.985481
000360 ef 63 82 3f 8f 00 7c 3f 46 bc 7c 3f ca 6a 80 3f
       1.0186747 0.9843835 0.9872478 1.003259
000370 bf ad 82 3f d8 6b 80 3f 0d 21 7d 3f fc 78 82 3f
       1.0209273 1.0032911 0.98878556 1.0193172
000380 69 b7 80 3f d9 6a 82 3f 7b d2 81 3f 1f 51 80 3f
       1.0055972 1.0188857 1.0142359 1.0024756
000390 98 1b 81 3f 0c e4 7c 3f 75 05 80 3f 93 d9 7e 3f
       1.0086546 0.9878547 1.0001665 0.9955074
0003a0 31 a9 7a 3f f9 e8 7a 3f ac 12 80 3f 94 54 81 3f
       0.97914416 0.9801174 1.0005698 1.0103936
0003b0 f0 26 7e 3f a5 7e 7e 3f 4a e7 7f 3f 07 32 80 3f
       0.99278164 0.99411994 0.99962294 1.0015267
0003c0 93 04 81 3f 69 d0 84 3f e5 aa 7f 3f 40 a1 7e 3f
       1.0079521 1.0376102 0.9987014 0.994648
0003d0 a6 fc 7d 3f fd 2b 87 3f de 2a 81 3f 1e 0e 81 3f
       0.99213636 1.0560299 1.0091207 1.0082433
0003e0 1d fb 7f 3f 0b 45 80 3f 21 56 80 3f 02 b0 80 3f
       0.99992543 1.002107 1.0026284 1.0053713
0003f0 fd e9 80 3f b1 ed 7c 3f d3 fc 7b 3f 2e 80 82 3f
       1.0071408 0.9880019 0.98432654 1.0195367

lns.0.bias f4 [256]
000000 f0 67 66 bc ed 32 6f 3b 71 45 db bc be 7b a3 3b
       -0.014062867 0.003649886 -0.02676651 0.0049891165
000010 77 a7 01 bc 82 48 bd bc 3d 73 f5 ba c0 57 53 bb
       -0.007913462 -0.023105863 -0.001872636 -0.0032248348
000020 68 d0 a4 37 40 79 8e bc 08 40 85 bc d5 2a 46 bc
       1.964737e-05 -0.0173918 -0.016265884 -0.012095173
000030 42 43 8a bc dc 0e 0d bc 37 e0 8b 3b 46 0e e6 bc
       -0.016877774 -0.0086095 0.004268672 -0.028082978
000040 e9 61 2c bc ee c4 8a bc 5f 66 db bc e3 fe bc bc
       -0.0105213905 -0.016939607 -0.026782213 -0.023070758
000050 84 9a 4b bc 58 e1 8a bb b6 0e 47 3b 49 a7 ca bc
       -0.012426976 -0.004238289 0.0030373759 -0.02473797
000060 7c ef 68 bc 46 f5 f0 bb ad 06 ee bb ad b0 b8 3b
       -0.014217254 -0.0073534576 -0.0072639794 0.005636296
000070 6c 05 c2 bc 08 5f 87 ba ae c9 c4 bc ad 70 33 bb
       -0.023684226 -0.0010328004 -0.02402195 -0.0027380392
000080 f8 db eb bc 7b d7 99 bc 2a aa 7e bc 20 cd 14 3b
       -0.028791413 -0.018779507 -0.0155435 0.0022705272
000090 24 23 f6 bb 5f ca 9b 39 b3 4c 37 3b bc 74 ab 3a
       -0.0075115133 0.00029714682 0.00279693 0.0013081054
0000a0 d7 eb 92 bc f6 70 6c ba 91 1e 9a bc 81 84 65 bc
       -0.017934723 -0.0009019518 -0.018813403 -0.014008642
0000b0 9d 9a e3 bb 17 8a f0 3b fc 8f 6c bb 03 5e 27 bc
       -0.0069459216 0.0073406803 -0.0036096564 -0.010215285
0000c0 bc 32 58 bc 8b 92 42 bc 74 02 72 bc 52 75 62 bc
       -0.01319569 -0.011875759 -0.014771093 -0.013821917
0000d0 31 b6 15 bc 31 ba 42 bb 8b ac 94 bc 3f 86 dc bc
       -0.009137676 -0.002971303 -0.018148681 -0.026919482
0000e0 fd f4 4b 3b 85 02 9a bc 4f 66 47 bc c2 ab 30 bc
       0.0031121366 -0.01880003 -0.012170388 -0.010783138
0000f0 e3 30 61 bb ce 5c 09 bd 36 81 b2 bb 6d 7b e2 bb
       -0.0034361414 -0.03353577 -0.005447532 -0.006911686
000100 21 b5 18 bc 4c 48 99 3c f3 4f 3f 3b 1c da be bc
       -0.009320528 0.018711232 0.002919194 -0.023297362
000110 65 ab e9 3a e8 20 8a bc db 2f 9a 3a d6 88 20 bc
       0.0017827569 -0.016861394 0.001176353 -0.009798249
000120 b0 a7 7d bc 80 28 b3 bb 74 d4 20 bc 59 15 bd bb
       -0.015481874 -0.0054674745 -0.009816278 -0.005770367
000130 a8 9f 51 bc 64 3d c0 3b 0b b6 c6 ba 1b 57 02 bc
       -0.012794413 0.0058666933 -0.0015160454 -0.007955338
000140 e8 ad 54 bc 24 86 a8 bc 93 b5 ad bc 99 15 3c bc
       -0.012980916 -0.020571776 -0.021204745 -0.011479759
000150 90 60 a1 bc 3b 2c c3 3b d0 05 06 bd 0f b4 98 bc
       -0.019699365 0.0059562004 -0.032720387 -0.018640546
000160 6a a0 f7 bb 44 46 58 bc 0c 5f c0 bc 4d 8a 8e bb
       -0.0075569646 -0.013200346 -0.023482822 -0.004349983
000170 46 c4 92 bc b6 12 0a bc a1 b4 b2 bc 53 86 7c bc
       -0.017915856 -0.008427313 -0.021814646 -0.015412885
000180 e3 fb 57 bc d4 2f 57 bc e8 e9 06 bc e1 bd 88 bc
       -0.013182613 -0.013133962 -0.0082344785 -0.016692104
000190 27 c2 2b bc ae 9c 2b 3b 20 80 8e bc bb 78 a9 bc
       -0.010483301 0.0026185918 -0.01739508 -0.020687452
0001a0 81 46 5e bc cd 98 11 3c 77 67 c1 bc 76 28 e1 bb
       -0.013566614 0.008886528 -0.023608906 -0.0068712784
0001b0 59 93 9f bc 07 24 4d bc ed 3b 9b bc 74 32 e1 bc
       -0.01947944 -0.012520797 -0.018949473 -0.027489878
0001c0 88 8b c3 bb 6d 8a 94 39 8a 60 ab bc 6a fb 8a bc
       -0.005967561 0.00028331895 -0.020920057 -0.016965587
0001d0 e1 4b 3a bc 83 3a 31 39 4d 96 31 bc c5 ab 3d bb
       -0.01137063 0.00016901833 -0.010839057 -0.0028941494
0001e0 cd b0 a3 bc d9 c3 72 bc f9 03 59 bc 33 f3 28 bc
       -0.019981766 -0.0148172015 -0.013245576 -0.010311889
0001f0 d9 f3 5f bc 5f 87 3a bc 8b 5a 1e bc 70 31 6f bc
       -0.013668978 -0.011384814 -0.009665142 -0.014599189
000200 f3 5a 2d ba d2 ca a8 bc ea fe 0f bb a7 32 4a bc
       -0.0006612979 -0.020604525 -0.002197201 -0.012341178
000210 c4 ba 01 bd 84 b0 eb 3b fd 57 34 bc f1 a6 e0 bc
       -0.031672254 0.007192673 -0.011007306 -0.027423354
000220 51 98 fa bb c1 3f 03 bd 11 fa 20 bc 06 4a 94 bc
       -0.007647552 -0.032043222 -0.0098252455 -0.018101703
000230 41 1e 8a bc c2 9d a5 3b f2 c3 c7 bc 47 02 6c bc
       -0.01686013 0.0050542066 -0.024385426 -0.01440484
000240 ef 21 29 bc 7c df 61 bc 6d eb 8c bc 7b ef b3 bb
       -0.010323032 -0.013786193 -0.017202104 -0.005491195
000250 cf 5c ef bb 47 20 bc 3b 15 70 ed bc f1 cf 76 bb
       -0.007304765 0.0057411524 -0.028984109 -0.0037660564
000260 7c a5 b9 bc 9f 4a 8a bc cc 1d cf bc c4 fd 88 bc
       -0.022661917 -0.016881285 -0.025282763 -0.016722567
000270 57 e1 a2 bc 78 e1 3f bb 47 b8 69 bc ea 57 4e ba
       -0.019882841 -0.0029278677 -0.014265127 -0.00078713766
000280 c0 86 89 bb 2c 7d 0a 3c ed 70 b8 b9 e4 55 25 3c
       -0.0041969717 0.008452695 -0.0003517935 0.010091279
000290 65 40 9e bc d9 a5 86 bb f5 ec b4 bc 83 95 1a bc
       -0.019317815 -0.004109126 -0.022085646 -0.00943506
0002a0 b1 95 4a bc dd 55 ad bc ed 3b e2 ba 5a 92 a3 bc
       -0.012364791 -0.021159107 -0.0017260291 -0.019967247
0002b0 40 f7 1d bc 38 06 aa bc 81 cd d0 b9 2c 03 84 bb
       -0.0096414685 -0.020754918 -0.00039825964 -0.0040286984
0002c0 f7 a1 3a bc 3f ef 22 bc e7 f0 37 bc b4 ae 67 bb
       -0.0113911545 -0.009944736 -0.011226869 -0.0035351934
0002d0 ad 17 a7 bc 8f d2 5f bc 18 e7 91 bb ab 6f eb b9
       -0.020397032 -0.013661041 -0.0044525973 -0.00044905892
0002e0 3d a1 9b bc 41 e6 92 bc 60 ae 71 bc 7b 87 4d bc
       -0.018997783 -0.01793206 -0.014751047 -0.012544508
0002f0 45 92 01 3b c5 4c 85 bc e5 11 af bc 20 b8 a2 bb
       0.0019771021 -0.016271958 -0.021370837 -0.004965797
000300 bf 89 25 bc d3 a6 62 bb fa 8b 82 bb f7 48 76 bb
       -0.010103642 -0.0034584298 -0.0039839717 -0.0037580112
000310 6e 0d 47 bc 8e d7 c5 bc 0a f4 67 bc f8 d3 2f bc
       -0.012149198 -0.024150636 -0.014157305 -0.01073169
000320 ed e0 cf bc b2 45 4e bc e2 8b 1e bb 3f 16 ed 3b
       -0.025375808 -0.012589859 -0.0024192263 0.007235318
000330 63 21 2f bb 38 f1 02 bd 69 e3 f2 bc 37 4a 53 bc
       -0.002672278 -0.031968325 -0.029649453 -0.012896112
000340 9e de d8 3a b7 01 28 bc 1e d6 f7 ba d7 3a 0d bc
       0.0016545837 -0.010254315 -0.0018908416 -0.008619986
000350 89 0b be bc 8d 64 18 bc 14 f3 4e bc cd de 73 bc
       -0.02319886 -0.009301317 -0.0126311965 -0.014884663
000360 b5 4c 96 3b 1d 9f 8f bc 2f d9 8e bc 42 0e 81 3b
       0.004586781 -0.017531926 -0.017437546 0.0039384672
000370 9c 2d cf 3b 06 29 6f bb 0b db c6 bc 5b 54 cb ba
       0.0063225757 -0.0036492958 -0.02427437 -0.0015512811
000380 e7 03 55 bc 98 68 0c 3c c5 58 aa bc 34 a4 68 bc
       -0.013001419 0.008569859 -0.020794282 -0.014199305
000390 61 89 4f 3b 2d 31 67 bc 3c d3 f1 b8 46 c3 7a bc
       0.0031667578 -0.0141108455 -0.00011531121 -0.015305346
0003a0 9a 65 b8 bc ef b5 cb bc ab 5b 95 bc 68 d6 8c bc
       -0.022509385 -0.024867026 -0.018232187 -0.01719208
0003b0 46 87 0a bc 7f 88 87 bc e5 06 81 bc e1 58 9b bb
       -0.008455103 -0.016544579 -0.015750358 -0.00474082
0003c0 4e 8d 81 bc 41 92 25 39 ce f1 48 3b 9d cc 8d bc
       -0.01581445 0.0001579011 0.0030661705 -0.017309481
0003d0 67 bd bf bb 33 45 c9 3a 54 57 f6 ba a0 7d c4 bb
       -0.005851436 0.0015355706 -0.0018794336 -0.005996421
0003e0 45 fb 0b bc 7d e0 19 bc e0 40 d7 bc 8f 12 34 bc
       -0.008543794 -0.009391901 -0.026276052 -0.010990753
0003f0 e5 63 87 3b d8 b1 59 bc 0f 22 de bc 81 a9 83 bc
       0.0041317814 -0.01328703 -0.02711585 -0.016072037
